PotentialNet/model/20221121_110321_PN_repeat0/model/epoch-404, train_loss-0.8771, train_rmse-0.9366, valid_rmse-1.3519, valid_pr-0.7052.pt (torch, 330447 bytes, 49 tensors)

stage_1_model.linears.0.weight f4 [48, 48]
000000 3f 30 85 be 2b bf 05 3f 56 7c e5 be 13 d1 9f 3d
       -0.2601337 0.52244824 -0.44821423 0.078035496
000010 c7 f1 bb 3e 0b 01 13 3f 64 f6 be be db 43 30 3e
       0.367079 0.57423466 -0.37297356 0.17213385
000020 2a 82 de 3d d7 1d 73 be d6 27 28 3e 89 bd d3 bc
       0.108646706 -0.23741852 0.16421446 -0.025847213
000030 7f 79 55 be e6 e0 3c 3e f6 d9 40 bc 53 a9 7e bc
       -0.20847128 0.18445167 -0.011770716 -0.0155433
000040 39 7a 82 3e bc 52 01 3f de 49 ed bd 13 cc 63 be
       0.25483873 0.5051687 -0.11586355 -0.22245817
000050 54 4f 04 bf c8 21 3d 3e c1 a1 15 3f d8 53 5f be
       -0.51683545 0.18469918 0.5844994 -0.21809328
000060 5e 55 8a 3e df 25 ed bc 7a 45 79 3e f3 8e d2 bd
       0.27018255 -0.028948722 0.2434291 -0.10281172
000070 df 30 12 3f 2a fc 2e be ca 15 8f 3e 8c 52 f3 3d
       0.5710582 -0.1708838 0.2794631 0.11880979
000080 c8 f4 04 bf 03 4c ea 3e e5 83 de be 0b e7 3d 3e
       -0.51936007 0.45761117 -0.43460003 0.18545167
000090 ed 27 94 be 58 0d 34 3e a9 3c 10 bf 8f ca d1 bd
       -0.2893671 0.17583215 -0.5634256 -0.10243713
0000a0 20 92 4c 3e c2 fc 35 be 72 45 a0 3e 75 37 6c be
       0.19977617 -0.177722 0.31302983 -0.2306803
0000b0 cc 1c 5f 3d 88 09 9c 3d 0f 59 ad bd cc f5 b8 bd
       0.054470822 0.076190054 -0.08464252 -0.09031257
0000c0 46 83 14 3f 92 67 3a be 58 2c 8c be b0 fb ad 3e
       0.5801281 -0.18203571 -0.27377582 0.33981085
0000d0 d8 59 79 3e a8 29 36 be 3e d8 4f 3e 05 32 70 3d
       0.24350679 -0.17789328 0.20297334 0.058641452
0000e0 f8 05 dc be 91 7e 37 bd d4 f2 d4 be 79 90 b8 be
       -0.42973304 -0.044798438 -0.41591513 -0.36047724
0000f0 b2 5f 8d be 09 ff 9b be b9 ac 97 3e 1c 9d c7 3d
       -0.27612072 -0.30468014 0.29623964 0.09746763
000100 cb f8 17 3e f5 6d 11 3e f5 de d2 3e bf 57 26 bc
       0.14841 0.14202102 0.41185728 -0.010152756
000110 e0 5d 38 3d 93 c6 9a bd 29 12 60 3e fc 36 a5 3e
       0.0450114 -0.07557406 0.21881928 0.32268512
000120 91 37 5c bd c7 45 2e bd 23 15 75 bd f6 82 6f 3e
       -0.05376393 -0.042547014 -0.05983461 0.23389801
000130 ad 09 44 be a2 23 61 bc 9a 2a 4b bf 89 96 a8 bd
       -0.19144316 -0.013741406 -0.7936188 -0.08231837
000140 e9 55 43 3e b4 77 0d 3f a0 8f a1 3e f7 58 33 bf
       0.19075741 0.5526078 0.3155489 -0.70057625
000150 93 7e a6 3e 45 b4 32 3e d5 71 09 3f 5d 29 3d 3d
       0.32518443 0.1745158 0.5368932 0.046182025
000160 9b ea 12 bf ec ea 84 3e b2 3b 89 3f 6f 55 f5 bc
       -0.5738923 0.2596048 1.0721343 -0.029947964
000170 8e fe 9b bd b9 4f fb 3a 0a ad 4a 3e 8e 31 62 bc
       -0.07616912 0.001917354 0.19792572 -0.01380576
000180 7f 97 12 3f a1 9a d5 3e bd 6d 88 3d b4 be ed be
       0.57262415 0.41719535 0.06661556 -0.46434557
000190 11 ca 13 3d 71 7b a2 3e 15 a0 35 3e 34 d2 f9 3d
       0.036081377 0.31734803 0.17736848 0.12198296
0001a0 56 bd e0 3d 6e a2 69 3f 35 6a 05 3c 79 9d 38 3e
       0.10973613 0.91263473 0.0081429975 0.18028821
0001b0 ce f1 61 bc a1 cc 62 be 58 51 8b 3d 56 f2 37 3e
       -0.013790561 -0.22148372 0.068026245 0.17963538
0001c0 e9 04 99 3e 70 39 1e bc 63 35 e4 3d f7 f5 2f 3e
       0.2988656 -0.009657249 0.11142995 0.17183672
0001d0 8b 4a a2 bd dc 78 97 3e fb 9d db be 9a cd 81 3e
       -0.07924374 0.29584396 -0.42893967 0.25352174
0001e0 90 eb 61 3f 84 7f c4 3e 83 e1 16 be 73 59 38 3e
       0.88250065 0.38378537 -0.14734463 0.18002872
0001f0 d6 fc 36 bd 3b 07 c2 bd fd 3f 58 3f b3 20 cb be
       -0.044674717 -0.09474035 0.8447264 -0.39673385
000200 3c 90 01 be a5 58 cb 3e c7 34 d4 bd c6 e9 94 be
       -0.12652677 0.39716068 -0.10361629 -0.29084605
000210 4e 11 d9 3d 7a b7 ae be 18 43 68 bd 14 7d 57 3e
       0.10599004 -0.34124357 -0.05670461 0.21043807
000220 6f 51 6a be b1 be b3 be bc 69 12 3e dc 64 01 3e
       -0.22882627 -0.35106423 0.14298147 0.12636131
000230 5b ba f2 3d ae 55 4e 3f 47 b7 09 bf ef fc 37 3e
       0.11851951 0.80599487 -0.53795284 0.1796758
000240 bc 73 9c 3e 4f 86 bf 3e 65 4e 69 3d b7 a9 54 be
       0.30557048 0.37407157 0.05695953 -0.20767866
000250 fa e5 ef 3e cf d6 20 bf 45 dd e2 be d0 57 09 be
       0.46855146 -0.6282777 -0.4430944 -0.13412404
000260 c6 70 bf bb 12 be 1c 3d 29 49 15 3e 40 b3 1b 3e
       -0.005842301 0.038267203 0.1457869 0.15205097
000270 b3 77 a6 bd dc 99 99 bc 0d 8f 4d be cb c5 e2 3d
       -0.081282996 -0.018750124 -0.20074101 0.11072882
000280 de 00 ec be 96 5e 98 3e cc 33 4e be dd 46 3a 3e
       -0.46094412 0.29759663 -0.20136946 0.18191095
000290 ec a5 dd 3d 36 9c bd 3e 93 f9 fb 3d 3e 4c 31 3e
       0.10822663 0.37033242 0.12303462 0.1731424
0002a0 30 54 16 3e 4f 5d 0c be 9a cf 2b 3e 24 d9 8d 3d
       0.14680552 -0.1370747 0.16778412 0.06926182
0002b0 1b fc 9a bd 4b 98 99 3e 5c dd ca be d0 71 b2 3d
       -0.075676166 0.29999003 -0.3962201 0.08713114
0002c0 af db b5 be ae 7e 7b 3e 1f a4 26 bc 1e 87 a3 be
       -0.35519168 0.24560043 -0.010170965 -0.31939024
0002d0 f5 72 aa 3c c3 65 7c bd 53 29 6a 3c eb 65 e4 be
       0.020806769 -0.061620485 0.014292079 -0.44609007
0002e0 ce 75 b2 3d 3f ef 00 3f 5c b2 39 be da 2b 2b be
       0.08713876 0.5036506 -0.18134445 -0.16715947
0002f0 64 96 c0 3e 65 e0 bf 3e d6 81 2d bd 6f b6 93 3e
       0.3761474 0.37475887 -0.04236015 0.28850123
000300 87 d0 85 3d 28 36 a8 be ad ab c2 3e 54 cb 44 be
       0.06533914 -0.32853818 0.38021603 -0.19218189
000310 95 de b9 3e f9 27 7b bd 39 11 e0 be 20 2f 17 bf
       0.3630263 -0.061317418 -0.4376314 -0.5905628
000320 33 d3 ea bd f8 a8 a4 3e 71 df 22 bd 7d 17 24 be
       -0.11466064 0.32160163 -0.03976387 -0.16024585
000330 92 ac ec be d3 97 8c be 4f c1 b0 3d 0b 42 15 3e
       -0.4622541 -0.27459583 0.08630621 0.14575975
000340 30 93 94 3e 04 a4 c5 3d e0 78 01 3f 78 42 09 3e
       0.29018545 0.09650424 0.50575066 0.13404262
000350 71 7c d3 be 4d 9f a6 be 6d 57 f4 3d 43 c3 bf 3e
       -0.4130588 -0.32543412 0.11930738 0.3745366
000360 2e 18 19 bf 20 fc 0f 3e 7f 2a 78 3e 1d 09 37 bb
       -0.5980252 0.14061022 0.24234961 -0.0027929016
000370 8a c7 31 be 6d f3 df bd f6 4d 39 3e 46 b9 17 3f
       -0.17361274 -0.10935102 0.18096146 0.5926708
000380 8d 5a 40 3e 01 03 c3 3e bd e5 02 3c b0 0e 86 bb
       0.18784542 0.3808823 0.007989344 -0.0040911064
000390 13 ff 20 3e 45 8a 99 be 3f 6f 90 3e 8b 35 35 be
       0.15722303 -0.29988304 0.28209874 -0.17696206
0003a0 8b 51 94 3c f6 66 4e 3e ca 0d 06 be bc 1e 29 bd
       0.018105289 0.20156464 -0.13091198 -0.041289076
0003b0 ef 2d 62 be f4 32 d0 be fe bf 04 be e5 1f 9e be
       -0.22087835 -0.40663874 -0.12963864 -0.3088371
0003c0 62 c5 3b be 8d a5 18 bf 1f ae 2f bd c0 d8 18 bd
       -0.18337014 -0.5962761 -0.042890664 -0.037316084
0003d0 19 2c 0f 3e 81 13 aa 3e af 4c 38 bf 71 ab 71 3d
       0.13981666 0.33218005 -0.7199201 0.05900139
0003e0 d7 23 be 3c b6 11 09 be 13 e9 74 bd 66 6b 7f 3d
       0.02321045 -0.13385662 -0.05979259 0.062358283
0003f0 4b 8c f1 be 1e ba 2a 3e f8 61 3a be 17 92 66 be
       -0.47177348 0.1667256 -0.18201435 -0.22516666

stage_1_model.linears.0.bias f4 [48]
000000 fc cc 12 3d 3a 9c 9a 3b e5 bb 65 3d 2d 16 64 bd
       0.03584002 0.0047183307 0.056087393 -0.05568521
000010 eb 74 eb 3c fe 77 36 3c bf aa 31 3c 4f b7 01 bd
       0.028742274 0.011137007 0.010843932 -0.031668957
000020 f2 cc 04 3b 2b d4 33 bb 2d 8b fc 3a 0f 93 c6 3c
       0.0020263758 -0.0027439694 0.0019267552 0.024240045
000030 c3 0e bd bb 0a fe 9a 38 ce e0 25 bd c6 8b 8c 3b
       -0.005769582 7.390611e-05 -0.040497594 0.004289123
000040 05 62 a0 bc 2d 46 39 bb 6c 12 42 bd e8 d2 73 3d
       -0.01957799 -0.0028270588 -0.04738085 0.059527308
000050 e0 60 f6 3c b1 14 f4 3c 14 76 14 3d 3c 91 86 bc
       0.03007549 0.029795023 0.03624542 -0.016426675
000060 03 f4 af 3c 41 46 2f 3d 88 e6 d0 3c 73 5f 0b 3d
       0.021478659 0.04279161 0.02550055 0.034026574
000070 ca 5d c6 3b f9 8f 11 bd 86 c7 4c 3c 3c bd 21 3b
       0.006053661 -0.035537694 0.012498742 0.0024679443
000080 29 5b 2d 3d 45 d2 fc b8 ad 02 69 bc e0 b3 a9 bd
       0.042323265 -0.00012055462 -0.014221829 -0.082862616
000090 80 7c 02 bd fa 35 90 3c 57 27 14 bb 8e 9b 71 bb
       -0.031857014 0.017603863 -0.0022606456 -0.00368664
0000a0 d4 ec b6 3c 14 18 1a 3d 66 48 ba bc c8 e0 bb 3c
       0.022329725 0.03762062 -0.0227396 0.022934332
0000b0 3a 47 5f bd 23 bc 05 bb b3 ae 52 bc 86 32 47 3d
       -0.054511286 -0.0020406328 -0.012859034 0.048632167

stage_1_model.linears.1.weight f4 [48, 48]
000000 50 8c d1 bd 5b 10 a5 3e 2a 47 ad be f1 50 9a be
       -0.102318406 0.3223904 -0.33843356 -0.30139878
000010 13 e6 00 bd a6 72 4e bd 5e 04 ce 3c 79 da 35 be
       -0.031469416 -0.050402306 0.025148567 -0.17759122
000020 68 eb 3f 3e b3 08 06 be c8 cb 06 bb 10 52 b3 be
       0.18742144 -0.13089256 -0.002056824 -0.35023546
000030 30 2a cc be 64 cf 18 be 49 a6 0e bd cf 6e 4d 3e
       -0.39875937 -0.14922863 -0.03482655 0.20061801
000040 0c ad e9 bd 5e 5c 19 3e ed 2d ee be c6 1d 15 3e
       -0.11409959 0.14976642 -0.46519414 0.14562139
000050 f7 31 ff 3d 13 30 11 3d 59 c8 4a be bb f7 eb bd
       0.12460702 0.035446238 -0.19802989 -0.1152186
000060 61 90 7c 3e 1d 37 14 3f 4f 6d 2f be a8 02 da bc
       0.24664451 0.57896596 -0.17131542 -0.026612595
000070 53 cd fe bd d7 83 99 3e 64 c2 12 3e 47 22 27 3e
       -0.12441506 0.29983398 0.14331967 0.1632167
000080 63 a0 b1 bd f8 58 a5 3c f5 1c d1 bc 3e 57 2f bd
       -0.086731695 0.020184025 -0.025526503 -0.04280781
000090 0a 78 80 3e 79 f4 5d 3e b3 48 2c 3e f5 c4 ae be
       0.25091583 0.2167529 0.16824608 -0.3413464
0000a0 3d a1 87 bc 9b 96 10 3e 64 1b 1f bf 9c d6 dc 3e
       -0.016556377 0.14119951 -0.6215117 0.43132484
0000b0 e1 3f c3 be be 53 93 be 58 67 7b 3d 60 0f 31 3f
       -0.38134673 -0.28774828 0.061377853 0.69164085
0000c0 33 53 b8 bd a3 6d b6 3e de 8e 2e be 2f e9 74 bd
       -0.09000244 0.3563052 -0.17046687 -0.059792694
0000d0 31 cb 48 be 41 94 29 3e 99 9f d6 bc 71 bf 40 be
       -0.19608761 0.1656046 -0.026199149 -0.18823029
0000e0 e0 e6 60 be 78 1b f2 3d ce 1d e4 3e 22 26 18 be
       -0.21963072 0.118216455 0.4455399 -0.14858297
0000f0 44 bd 66 bd fc e1 db 3d c0 f6 69 3e 4e 2b 09 3d
       -0.05633284 0.107364625 0.22848034 0.033488564
000100 53 75 ec 3d 1a 13 36 3e fc 1d da 3c 65 9f 00 bf
       0.11545815 0.17780724 0.026625626 -0.50243217
000110 2e 18 93 3e e8 3b 37 3e 3a 09 6e 3e 71 53 74 3e
       0.28729385 0.17893946 0.23245707 0.23859955
000120 6d 07 e3 be d2 84 28 be cb 22 90 3e 36 7a cb 3d
       -0.44341603 -0.16456917 0.28151545 0.09935419
000130 59 88 0c 3f 2b ec 7c bd 6b d4 ec 3d 9b e5 73 3d
       0.5489555 -0.061748665 0.11563953 0.05954514
000140 08 88 33 be c5 de 65 3e c5 cf 69 be 99 f4 36 3b
       -0.1753236 0.22448261 -0.22833164 0.0027916788
000150 da d8 bf 3d 45 f8 91 3e cd 44 b3 bd 6c 03 03 be
       0.09367533 0.28509727 -0.08753357 -0.12794274
000160 74 d1 a3 3e 78 dc 27 be 8e 2d 9e bc 3b 87 8a be
       0.31995738 -0.16392696 -0.019308832 -0.27056298
000170 b0 0d f9 3c eb 6c 34 bd be af 27 3e db f8 0f be
       0.030402035 -0.044049185 0.16375634 -0.14059775
000180 fc 61 b5 bd 32 f5 ea be 3c 15 8e bd 32 2e 9d be
       -0.0885658 -0.45890194 -0.06937644 -0.30699307
000190 44 96 8d be 20 74 9c 3c d5 56 5a be 28 b1 d1 be
       -0.27653706 0.019098341 -0.21322186 -0.40955472
0001a0 7d e4 93 be f1 b5 fd 3e d1 7a 15 bf a3 d1 76 bd
       -0.2888526 0.49552873 -0.5839053 -0.06025852
0001b0 48 c8 62 bd 0b f7 34 be ee 79 31 bd 3d 7f 63 3e
       -0.055366784 -0.17672364 -0.04332917 0.22216506
0001c0 e6 68 c4 be 90 68 2c 3e 4c 3c 6f be 24 8e 15 3f
       -0.3836128 0.16836762 -0.23362845 0.58420014
0001d0 12 30 9a 3e a1 2d 60 be 93 db 1a 3c 26 96 b4 bd
       0.301148 -0.21892406 0.009451765 -0.08817701
0001e0 6d 4f 7c bd 87 ed a1 3e 62 c7 ab be df 87 0c 3f
       -0.061599184 0.3162653 -0.33550555 0.5489482
0001f0 d6 dc e5 be b1 d2 b3 be a6 e0 ca be 1d ee a5 be
       -0.44895047 -0.35121682 -0.39624518 -0.3240823
000200 df fb 83 3d 11 13 07 bc 6c a5 1f bf 68 09 b0 be
       0.06444525 -0.008244292 -0.6236179 -0.34382176
000210 c7 c8 82 3d 4a f9 ed 3e 4f 4a 04 3e 0e f4 2f be
       0.063859515 0.46479255 0.12918971 -0.17182943
000220 96 32 2c be 60 8b 3a be 28 5e 5e 3e 9f ba 8e 3e
       -0.16816172 -0.1821723 0.21715605 0.27876756
000230 2b 31 0a bf 48 88 29 3e 6d a0 d6 be 93 68 43 3f
       -0.53981274 0.16555893 -0.4191927 0.7633144
000240 ae fd 94 3e 34 b2 a4 3e 8e 05 a6 bc a8 d1 e0 3e
       0.29099792 0.32167208 -0.02026632 0.43909955
000250 69 e1 29 bd 66 db 07 3e 7c 80 82 be c3 00 2f be
       -0.041474734 0.13267288 -0.2548865 -0.17090134
000260 61 b7 a9 be f4 2a 81 3e 0e 66 ae bb 8b a6 20 be
       -0.3314772 0.25228083 -0.0053222245 -0.15688531
000270 ae 40 58 be 7d 1b 3b bc ff d2 e6 bd 17 bd e1 3e
       -0.21118423 -0.011420128 -0.11270713 0.44089577
000280 8b 39 74 be 93 34 aa 3e 3e 1c 1c 3d 89 f4 19 be
       -0.23850076 0.33243236 0.03811287 -0.15034689
000290 f1 e4 9a 3e 51 10 85 3e fa d3 17 3e a1 00 0f 3e
       0.30252793 0.2598901 0.14826956 0.13965084
0002a0 68 88 ff bd a9 78 9c 3e 91 02 f0 3e 10 0d 8e 3e
       -0.12477189 0.30560806 0.46876958 0.2774434
0002b0 82 6d 4a 3d 9d 71 5a 3d 46 5c dc be 3a f6 7c 3e
       0.04942084 0.053331006 -0.4303915 0.24703303
0002c0 20 71 c0 3e 06 35 4d 3e 3b 10 a4 3e 88 c4 2c 3e
       0.37586308 0.20039758 0.32043633 0.16871846
0002d0 57 be d9 bd e3 0f 8f be 1c 18 cc 3e b3 9d 9d 3d
       -0.106320076 -0.27941808 0.39862144 0.07696094
0002e0 df e6 26 3d 25 12 11 bd ed 78 81 be e3 49 c3 3d
       0.04074752 -0.035417695 -0.25287572 0.09535577
0002f0 0d 1a e3 3d f4 57 8e 3e 38 bc 9f bd e7 11 dd 3e
       0.11088953 0.27801478 -0.07799572 0.4317772
000300 fe 8f 3f bb 3e f9 81 be a2 32 0e 3e fd 2a f4 3e
       -0.0029230113 -0.2538547 0.13886502 0.47689047
000310 ad c5 9c 3d 1a a8 28 be 36 e4 33 3d 97 2e 59 3e
       0.07654891 -0.16470376 0.04391881 0.21209179
000320 38 83 db be af eb 45 3e ad 1f 54 be 36 45 6c be
       -0.4287355 0.19328187 -0.20715208 -0.23073277
000330 09 97 ce bc 33 85 72 3e f9 12 b8 3e 19 e4 23 3e
       -0.025218504 0.23683624 0.35951975 0.16004981
000340 18 9b 3c 3e 11 a0 bf bb d7 5f 48 3e ec 54 f2 be
       0.18418539 -0.005847939 0.1956781 -0.47330415
000350 a2 e5 92 be 62 90 b4 3d ef 6b d0 3c da 2b 84 3c
       -0.2869082 0.08816601 0.025442092 0.016134191
000360 de 29 80 be d8 70 25 3e 0d 6a 19 bc 5d cd 82 be
       -0.25031942 0.16156328 -0.009363663 -0.25547305
000370 09 f9 95 be 1b 7f a3 3e 35 14 a0 bc 92 25 9b 3e
       -0.2929156 0.3193291 -0.019540885 0.303021
000380 15 16 a9 3e 0e 67 cf bd 62 4f 4e bd 31 e6 29 3c
       0.3302466 -0.10127078 -0.050368674 0.010369823
000390 0e 1d 86 be 79 3f 3d be 35 c3 bc bd 46 d2 d0 be
       -0.26194042 -0.18481244 -0.0921692 -0.40785426
0003a0 6a 65 0a 3e 5a 9e 56 bd 07 39 e3 bd 64 a2 e1 3c
       0.13515249 -0.05239711 -0.110948615 0.027543254
0003b0 34 db 92 3e 48 aa 39 be 7c ba 89 bc 44 1e 9e 3d
       0.28682864 -0.18131363 -0.016812555 0.077206165
0003c0 19 37 be be 26 81 86 be 58 19 60 3e 72 6e f6 3e
       -0.3715141 -0.26270407 0.21884668 0.48131138
0003d0 11 ac a6 be d0 69 8a 3d f7 f2 21 3f af b0 48 bd
       -0.3255315 0.067584634 0.6326136 -0.048996624
0003e0 18 57 98 3c 3a 36 b7 3d ee 4c 89 3e 13 5b 49 3e
       0.018596217 0.0894589 0.26816505 0.19663648
0003f0 6b 3c b5 3e 11 d7 76 3e 31 12 2b be 00 d1 b3 3d
       0.35397658 0.24105479 -0.16706158 0.08780098

stage_1_model.linears.1.bias f4 [48]
000000 57 e3 40 3d f1 1d ca bc 7a bc 64 bd a5 df 9c 3d
       0.04709181 -0.02467248 -0.055843808 0.07659844
000010 10 5d f4 3c 5e e2 92 3d 3f 4b b5 3c cc 27 c9 3b
       0.029829532 0.07172082 0.022130607 0.0061387774
000020 72 e1 5c 3d 4e 7b e5 3d b8 e7 60 bd 03 c5 c1 3b
       0.05392594 0.11205159 -0.054908484 0.005913378
000030 dc fa 67 bd 4d 87 54 3c 21 b6 1d bc f8 d4 87 3d
       -0.056635723 0.012971711 -0.009625942 0.066324174
000040 36 5c b3 bd 8a bd e3 bd de b9 1a bd 5e e6 02 3d
       -0.08757822 -0.11120136 -0.037774913 0.031957977
000050 7c 94 95 bd 8f f9 b1 3d bf 02 86 3c 74 f4 2c 3b
       -0.07303712 0.08690178 0.016358731 0.0026390823
000060 b5 4c 73 bc ef cf b1 3b f1 04 3f 3c 5a bb 0e bc
       -0.014849831 0.005426399 0.011658893 -0.00871166
000070 77 da ea bc dc ab e8 3d 7b 3e 61 bc a5 d4 59 bc
       -0.028668625 0.113609046 -0.013747807 -0.013295327
000080 71 6f 88 bc 46 ee 48 3c e5 51 7d bd b3 50 82 3d
       -0.016654702 0.01226384 -0.06184568 0.063630484
000090 3f 31 12 bc b1 08 a0 bd 9d d1 67 3d 54 14 36 bc
       -0.008922874 -0.07814158 0.056596387 -0.011113245
0000a0 df 67 19 bd 01 5c 65 3c 20 ab ed 3c 01 cf dd bc
       -0.037452575 0.013998986 0.029012263 -0.027076246
0000b0 ce 53 04 bd 36 6b 06 3d 20 46 9e bd 22 c8 a0 3b
       -0.032306485 0.032817088 -0.07728219 0.00490667

stage_1_model.linears.2.weight f4 [48, 48]
000000 c4 5d e7 3c 3d 63 bd bd 40 98 82 3e 6f 89 e2 bd
       0.028242953 -0.09247444 0.25506783 -0.1106137
000010 fa fc 77 3e 20 17 ae bd 1e fd 3f be 38 d5 8e bd
       0.24217597 -0.085005045 -0.187489 -0.06974262
000020 36 a4 f0 3e b2 01 04 be 22 40 8d 3e ef f3 d3 bd
       0.47000283 -0.12891272 0.27587992 -0.10349261
000030 39 32 e3 bd b3 2a dc be 7e b3 46 be 50 49 b4 bd
       -0.110935636 -0.43001327 -0.19404408 -0.08803046
000040 2d cc 93 be 46 f4 d7 3c 9d 36 0d bf 6c 4d 7c be
       -0.2886671 0.026361596 -0.5516146 -0.24638909
000050 d7 22 32 3d fd 6d 30 be c2 7d 6f 3e 29 ea 3f be
       0.043490257 -0.17229457 0.23387817 -0.18741669
000060 39 fc 81 3e 42 fb f1 bd 5b db d1 3d 61 6d 0d 3b
       0.25387743 -0.11815502 0.10246917 0.0021580087
000070 5b 63 06 be 14 54 6e 3e 16 f4 93 3d eb 2f d5 bd
       -0.13123839 0.23274261 0.0722429 -0.1040953
000080 a9 2d 42 3c f3 41 97 be d6 13 6b 3d bf 99 5c be
       0.011851707 -0.29542503 0.057391964 -0.21543024
000090 92 db 22 bd 7c 96 99 be 2e fa 07 be 7c 8f a7 be
       -0.03976018 -0.29997623 -0.1327903 -0.32726657
0000a0 09 2b 01 bd 2c e3 19 3f e7 3b b0 bb 60 61 ae 3e
       -0.031535182 0.6011226 -0.0053782347 0.34058666
0000b0 3c 4e e7 3e f8 d2 1d be b0 9e ca ba fe ea f0 be
       0.45176876 -0.1541251 -0.001545867 -0.47054285
0000c0 f0 ac 5b 3e 9d 05 f1 3e 93 f7 e0 3b d8 ec b6 be
       0.21452689 0.47074595 0.0068654506 -0.35727572
0000d0 6a d4 29 bd fb a0 22 3e 66 22 85 be 40 22 ff be
       -0.04146234 0.15881722 -0.26002806 -0.49830818
0000e0 4b 72 a2 be c7 86 8c bd 23 b2 60 3c 96 d9 a4 3c
       -0.31727824 -0.06861644 0.013714346 0.020123284
0000f0 b1 67 ac 3e fb 87 49 bf 57 1d 5a 3d d0 18 ff 3e
       0.3367286 -0.78723115 0.053250637 0.49823618
000100 c9 93 94 3e f6 ba e5 bd 78 0c ad 3d 86 6b f2 3d
       0.29019 -0.112173006 0.08449644 0.11836915
000110 78 a5 b6 3d 9a 6b a8 bc ed 18 0f 3e 09 15 e0 3e
       0.089182794 -0.02055912 0.13974352 0.4376605
000120 37 40 d0 bd e3 b7 32 be c6 45 4e 3e a5 f3 87 be
       -0.10168498 -0.1745296 0.20143804 -0.26553074
000130 0b 61 05 3f 09 23 87 bd 52 76 65 bd 42 86 42 be
       0.521012 -0.06598479 -0.056021042 -0.18996528
000140 3d a1 06 3f 46 55 be 3d bc 5b c9 3b 76 eb 9c 3e
       0.5258978 0.09293608 0.006144969 0.30648392
000150 1e 60 96 be 1b 9b 46 be 7f 27 1a 3d d3 24 15 3d
       -0.29370207 -0.19395106 0.037635323 0.03641207
000160 d0 ee 0e 3e 88 09 87 3e e9 28 8f be 08 6d e4 3d
       0.13958287 0.2637446 -0.279609 0.111536086
000170 e9 0d 9b 3e 58 e7 a1 3e 1c c2 71 3d a2 cb 20 bd
       0.3028405 0.31621814 0.059023008 -0.0392567
000180 5d 7e e4 3e e9 eb 92 bd 3f e3 c3 3d 55 45 42 3d
       0.44627658 -0.071739025 0.09564828 0.0474294
000190 c0 77 91 bd d2 f8 71 be e7 d8 12 3e 2f 07 dc 3d
       -0.071029186 -0.23630074 0.14340554 0.10743558
0001a0 b2 bc a0 be 54 55 1e 3d 4d 28 95 be 49 1c da 3d
       -0.31393963 0.038655594 -0.2913231 0.10649926
0001b0 30 8b da bd ca fd 98 be 2f b5 b2 bb 0f 0d bc 3e
       -0.10671079 -0.29881126 -0.0054537277 0.36728713
0001c0 11 df e6 bc 33 cd 31 3d ba 50 28 be cd d7 ba be
       -0.028182538 0.043408584 -0.16437045 -0.36492768
0001d0 97 79 d0 3e f0 af 31 3c c4 d2 8a bc f9 61 08 3e
       0.40717766 0.010845169 -0.016946204 0.13318624
0001e0 b4 58 c7 be 26 6c 1e 3e bd 46 98 be 22 74 ff 3d
       -0.38934863 0.15470943 -0.2974147 0.124733225
0001f0 38 bf 48 3c 00 5d 47 be dd b0 e3 bd 75 fb 92 3e
       0.012252621 -0.1946907 -0.11117718 0.2870747
000200 a4 3e 27 3d fa 3c d9 3e b3 df 9a bc 40 1d 07 bd
       0.040831223 0.42429334 -0.018905496 -0.03298688
000210 35 0a 1a be 17 14 96 3e 16 96 65 3e 02 13 1d be
       -0.15042956 0.29312202 0.22420534 -0.15339282
000220 e7 63 e8 3d 84 0b 3c 3e ef f7 95 3a 36 db 1b be
       0.1134718 0.18363768 0.0011441688 -0.15220341
000230 38 af 7d 3d 96 2c cf 3d 70 5f 8b be 17 dc 15 3f
       0.06193468 0.10115926 -0.2722125 0.58538955
000240 27 07 1b 3e 89 ff 95 3e b5 39 b7 be 13 cd df 3e
       0.15139447 0.2929652 -0.35786214 0.43711147
000250 8e 76 bb 3c c0 a6 48 be 68 f3 8d 3d 66 72 a0 bd
       0.02288368 -0.1959486 0.06931192 -0.0783432
000260 d8 be 93 3e c9 7a 91 be 35 75 af 3d d1 86 43 3c
       0.2885654 -0.2841399 0.08567277 0.011933998
000270 cc 09 a0 3d 19 82 c9 be fe 60 1d bd a6 9e 47 3e
       0.078143686 -0.3935707 -0.038422577 0.19494113
000280 8d 89 5d be f9 d3 02 be 5f 47 a5 be d4 73 7e 3e
       -0.21634503 -0.12776174 -0.32281014 0.24848872
000290 1f b4 34 bc 52 5b 3f be da 84 38 bd 87 94 85 3e
       -0.011029272 -0.1868718 -0.045048572 0.2608988
0002a0 5d 62 af bc 69 b3 e9 3d 4c 97 ee 3d d2 9a 74 3d
       -0.021409208 0.11411173 0.11649951 0.05971796
0002b0 d5 f7 0a bc 58 86 31 3e e9 fb 47 3d 47 1e 21 3d
       -0.008481939 0.17336404 0.048824225 0.039335515
0002c0 ca e8 a1 3e 75 b0 85 3e f5 92 43 3c 09 5c 67 3d
       0.31622916 0.2611119 0.011936893 0.056484256
0002d0 0e 25 e0 3d 93 00 16 3e 25 c4 12 be 39 62 80 3e
       0.109445676 0.14648657 -0.14332636 0.25074938
0002e0 26 5c c4 3e 16 23 94 bc fc 70 63 bd bc b7 91 be
       0.38351554 -0.018083137 -0.055527672 -0.2846049
0002f0 ed e1 0c 3e 38 2d 9a 3d 1f 0b 32 3e 7a 3d 1d 3e
       0.13758059 0.07528156 0.17387055 0.15355483
000300 97 05 e6 bd 1d 4a 62 3d e1 15 97 be 44 a3 17 3f
       -0.11231535 0.05524646 -0.2950888 0.592335
000310 4f 58 08 be 16 67 cf bc f1 e6 01 be 25 80 67 be
       -0.13314937 -0.02531771 -0.12685753 -0.22607477
000320 1e 65 83 bc 58 6b 9f 3d 3c 31 4f 3d d7 e6 f3 3d
       -0.016039427 0.07784146 0.050584063 0.119092636
000330 49 2c a7 3d fc 37 6d bd ea 2b 80 3e 0c 0b a7 3e
       0.081627436 -0.05791472 0.25033504 0.32625616
000340 df 8b 19 3e 25 b7 eb 3e 9b fa 16 be a3 c2 ee bd
       0.14994763 0.46038166 -0.14744036 -0.11658218
000350 b1 73 10 bf da 41 3e 3d ad a4 1d 3e 31 2d 9d 3d
       -0.5642653 0.04644952 0.1539485 0.07674635
000360 ef ef 97 bc 29 af e1 3e 6a 69 6f be 4b c5 d3 bd
       -0.018547026 0.4407895 -0.23380056 -0.10340365
000370 b5 8e eb bd 51 ca 85 bb 61 2c bc 3b 31 99 09 3e
       -0.115018286 -0.004082956 0.005742595 0.13437344
000380 92 2f 8c b8 45 92 b4 3e d5 82 96 be 74 b6 42 be
       -6.684581e-05 0.35267845 -0.29396692 -0.19014913
000390 46 17 fd 3d 5e 44 92 bd 58 17 3b bd 05 b7 4b 3d
       0.12357955 -0.07141946 -0.04567656 0.049735088
0003a0 0e 35 8f 3e a0 76 65 be 9e bb 83 3d af c5 ac be
       0.27970165 -0.22408533 0.064322695 -0.3374457
0003b0 7b a7 10 be 76 64 7b be dd bb 2f be d4 20 36 be
       -0.14126389 -0.24550042 -0.17161508 -0.1778596
0003c0 b9 ca b0 bd b9 4c e5 bd e6 27 cb bd ad 56 51 be
       -0.08632416 -0.11196274 -0.099197194 -0.2044322
0003d0 5c 50 88 3d 85 18 ab 3d 42 f5 3c 3b 33 bf 8c be
       0.06655952 0.08354286 0.0028832708 -0.27489623
0003e0 48 a5 28 3d de f8 86 3d ac 47 2b be f6 c6 63 3e
       0.04117325 0.065904364 -0.1672656 0.22243866
0003f0 b6 05 07 3d ed 28 3a 3c 96 c9 97 3e c3 a3 85 3e
       0.03296443 0.0113622965 0.29645985 0.26101503

stage_1_model.linears.2.bias f4 [48]
000000 9b 34 eb bc 06 b1 fc 3d c5 30 f3 3d 5e 3b 38 3e
       -0.028711608 0.12338452 0.118745364 0.17991397
000010 54 45 14 3e 1b 3b 1c be f2 13 c8 3d 6b 4d c9 3d
       0.14479572 -0.15256922 0.09769429 0.098292194
000020 a0 be 96 3d 40 88 d0 3d a2 6f 23 be 00 42 bd 3d
       0.073605776 0.101822376 -0.15960553 0.09241104
000030 34 28 33 3e 92 d7 71 3c ad 40 25 be 0c 37 f3 3d
       0.17495805 0.014760869 -0.16137953 0.11875734
000040 aa a8 55 be aa 21 43 bd 2f 8e c5 bb d8 67 82 be
       -0.20865121 -0.047639526 -0.0060289125 -0.25469851
000050 60 44 86 b9 a5 be 86 3e 29 f4 a3 bc 13 a3 3e 3d
       -0.00025609415 0.26317325 -0.020013886 0.04654224
000060 76 58 ec bd 0b 39 03 be bb 03 69 bd 4e 3f 9f bb
       -0.1154031 -0.12814729 -0.056888323 -0.0048598414
000070 fa 43 9b 3d e2 a5 85 3d 59 47 6d 3c 38 2d 32 be
       0.07581325 0.0652578 0.014482343 -0.17400062
000080 b2 e6 01 3d 19 1a 5c bd eb 3d 42 ba 76 d3 d1 3d
       0.03171415 -0.053735826 -0.0007409739 0.10245411
000090 e8 07 41 3e 21 fc 29 bd 92 8f 79 3d 13 fd 81 3d
       0.18850672 -0.041500214 0.060927935 0.06347098
0000a0 fa c2 b9 3c 0f 44 a4 3c 13 1f 4a bd 54 46 2d 3e
       0.02267598 0.020051984 -0.04934604 0.1692136
0000b0 63 08 39 be 36 9f 0d be 26 e4 4a bd f7 03 66 3e
       -0.18069606 -0.13830265 -0.049533986 0.2246245

stage_1_model.linears.3.weight f4 [48, 48]
000000 09 f2 1f 80 07 2a 20 00 28 1c 11 80 3f 79 05 00
       -2.933726e-39 2.953812e-39 -1.571304e-39 5.02672e-40
000010 f5 1c 27 00 cd 72 21 00 9a 84 47 80 1e 97 3a 00
       3.591972e-39 3.071754e-39 -6.567889e-39 5.38067e-39
000020 89 7d 04 00 66 17 16 00 1d d3 07 80 af b1 14 00
       4.12376e-40 2.028775e-39 -7.18582e-40 1.900451e-39
000030 9a 67 47 00 2f b5 49 00 f7 0b 22 80 a5 69 19 80
       6.557485e-39 6.768988e-39 -3.126699e-39 -2.333786e-39
000040 55 7a 47 80 a4 e8 12 80 1a 51 0d 80 6f dc 16 00
       -6.564205e-39 -1.736495e-39 -1.222955e-39 2.099458e-39
000050 f5 e7 27 00 24 df 38 00 59 96 04 80 c3 4b 22 00
       3.664795e-39 5.222836e-39 -4.21277e-40 3.149585e-39
000060 e3 56 47 80 3a 55 46 80 60 ed 35 00 44 c3 31 00
       -6.55149e-39 -6.459058e-39 4.952435e-39 4.569987e-39
000070 0c ae 49 80 19 4f 16 00 0c ee 42 80 96 98 24 00
       -6.766427e-39 2.048756e-39 -6.146538e-39 3.360815e-39
000080 84 00 38 80 29 68 47 80 94 78 18 80 52 29 38 80
       -5.142973e-39 -6.557686e-39 -2.247307e-39 -5.157611e-39
000090 7d bb 08 80 46 07 46 80 2c c9 13 80 54 6a 02 80
       -8.01942e-40 -6.431094e-39 -1.817041e-39 -2.21814e-40
0000a0 dc bf 3e 00 d3 2c 29 80 22 00 23 80 c4 cc 2d 80
       5.762627e-39 -3.781335e-39 -3.21429e-39 -4.206053e-39
0000b0 50 e2 2f 80 b1 51 4a 80 4f f8 2e 80 9b 9b 0e 00
       -4.397454e-39 -6.825132e-39 -4.313509e-39 1.341518e-39
0000c0 95 f3 1b 80 c0 ff 37 00 78 63 46 80 a0 94 3c 00
       -2.566939e-39 5.142698e-39 -6.464167e-39 5.563446e-39
0000d0 ca 56 3f 00 fb 6f 1d 80 29 69 31 00 1d 42 32 00
       5.81677e-39 -2.7034e-39 4.537664e-39 4.615492e-39
0000e0 b2 4f 0f 00 13 c2 3a 00 3d 4a 43 00 40 82 33 80
       1.406122e-39 5.39608e-39 6.17961e-39 -4.730335e-39
0000f0 fe e7 30 00 8f e1 17 00 96 85 49 00 64 3b 01 00
       4.491327e-39 2.193132e-39 6.751913e-39 1.13141e-40
000100 54 d0 2a 00 96 4d 1d 80 c6 b5 08 80 18 5c 16 80
       3.931825e-39 -2.691062e-39 -7.99892e-40 -2.053418e-39
000110 37 ad 2d 80 8c a3 02 00 be 32 16 00 21 b3 0a 00
       -4.194735e-39 2.4234e-40 2.038584e-39 9.82614e-40
000120 21 38 4b 00 ef dd 08 00 2e 2d 23 80 1a 2c 0b 80
       6.907797e-39 8.14299e-40 -3.23045e-39 -1.026011e-39
000130 20 65 2b 00 c3 ba 40 00 86 b4 0b 00 25 04 3a 80
       3.985203e-39 5.944469e-39 1.07495e-39 -5.327946e-39
000140 ff c6 4b 80 11 f5 09 00 af dc 0b 80 aa 72 02 80
       -6.959049e-39 9.14433e-40 -1.089357e-39 -2.24805e-40
000150 77 cf 26 80 7e 63 2e 00 40 80 4a 80 fc bf 18 80
       -3.564173e-39 4.260124e-39 -6.841834e-39 -2.272923e-39
000160 7a 05 03 00 c2 0d 0a 80 a9 a2 3d 00 01 7b 45 80
       2.77471e-40 -9.2329e-40 5.660317e-39 -6.380775e-39
000170 f6 ac 08 80 63 d8 1d 00 e1 7a 15 00 48 ae 3f 80
       -7.9673e-40 2.740854e-39 1.972626e-39 -5.848157e-39
000180 6d d4 26 80 22 7c 4a 00 7b b2 39 80 18 1e 4c 00
       -3.565953e-39 6.840357e-39 -5.29865e-39 6.990293e-39
000190 a0 88 38 00 44 6c 47 00 0f df 40 80 ed 80 13 80
       5.1918e-39 6.559159e-39 -5.95749e-39 -1.791124e-39
0001a0 27 b1 06 80 1c e1 1e 80 f4 b1 43 00 11 42 37 80
       -6.14563e-40 -2.835819e-39 6.216816e-39 -5.074652e-39
0001b0 81 54 48 00 f9 1f 22 80 c0 6a 34 80 dc 65 18 00
       6.64247e-39 -3.133876e-39 -4.81374e-39 2.240592e-39
0001c0 32 93 1d 00 75 5c 45 80 dd 2f 02 80 8f 4a 40 80
       2.716033e-39 -6.369817e-39 -2.00841e-40 -5.904218e-39
0001d0 2a ed 3c 00 ca 4e 38 80 ae af 49 00 ca 7a 08 80
       5.595208e-39 -5.171052e-39 6.767013e-39 -7.78732e-40
0001e0 5a 80 08 80 23 2b 07 00 63 40 14 80 9f 07 26 80
       -7.80728e-40 6.58323e-40 -1.859808e-39 -3.492483e-39
0001f0 7e da 3a 00 8f 33 49 80 d7 5d 12 80 39 53 29 80
       5.404839e-39 -6.722487e-39 -1.686702e-39 -3.79511e-39
000200 44 10 3e 80 9d 83 24 00 1c 2b 0e 80 ef 37 2d 80
       -5.699636e-39 3.353292e-39 -1.301162e-39 -4.152663e-39
000210 1d 15 3a 00 d2 08 4b 80 fb 31 48 80 e6 68 17 80
       5.334033e-39 -6.890826e-39 -6.630085e-39 -2.149847e-39
000220 41 b3 15 80 89 9b 1b 00 e2 ef 43 00 09 88 30 80
       -1.99285e-39 2.535354e-39 6.239032e-39 -4.456904e-39
000230 52 f7 42 80 d2 58 08 80 6a 9c 1b 00 34 63 0a 80
       -6.149865e-39 -7.66547e-40 2.535669e-39 -9.53942e-40
000240 b9 4a 16 00 9d 1e 1d 80 07 44 29 00 a4 ce 42 00
       2.047186e-39 -2.674211e-39 3.789659e-39 6.135271e-39
000250 e5 ea 19 80 b0 25 27 80 73 85 48 80 5e 5d 2f 80
       -2.380152e-39 -3.595104e-39 -6.660028e-39 -4.349762e-39
000260 ef 34 08 80 7b 5f 0b 80 b4 cf 3a 00 ac 47 31 80
       -7.53673e-40 -1.044442e-39 5.400969e-39 -4.52565e-39
000270 91 c2 2a 80 10 57 3b 80 9e ee 4a 80 9d 83 3d 00
       -3.926888e-39 -5.449526e-39 -6.881426e-39 5.649179e-39
000280 e6 89 3f 80 80 79 1f 80 59 b0 45 80 56 d8 15 80
       -5.835105e-39 -2.890486e-39 -6.399911e-39 -2.006152e-39
000290 cf df 10 80 03 34 3c 80 a7 ff 18 80 0a 57 4a 80
       -1.549655e-39 -5.528788e-39 -2.295763e-39 -6.82705e-39
0002a0 4d 32 22 00 32 a3 0a 80 2e a3 3d 00 c3 0f 06 80
       3.140451e-39 -9.76898e-40 5.660503e-39 -5.56667e-40
0002b0 18 a0 11 80 7c 8f 14 80 26 9f 0d 00 52 e9 2b 00
       -1.618634e-39 -1.888182e-39 1.250953e-39 4.032626e-39
0002c0 a7 71 0f 80 aa 27 33 00 5c 49 1d 00 86 b9 2a 80
       -1.418303e-39 4.697839e-39 2.689546e-39 -3.923644e-39
0002d0 eb d7 49 80 8b 07 21 00 af c5 05 00 0d ce 26 80
       -6.781448e-39 3.033277e-39 5.30093e-40 -3.563666e-39
0002e0 44 cc 0b 80 af 5f 43 80 6b 92 30 80 0b 94 0a 00
       -1.083467e-39 -6.187303e-39 -4.460629e-39 9.71463e-40
0002f0 b9 fe 34 80 4a db 19 00 a7 25 12 00 ff 36 3a 00
       -4.866823e-39 2.374553e-39 1.666546e-39 5.346188e-39
000300 d3 a2 29 00 19 0c 2f 00 1c bf 2c 80 6b 95 2b 00
       3.823666e-39 4.320608e-39 -4.109319e-39 4.002527e-39
000310 e7 d9 3b 00 f7 12 1e 80 92 1f 02 80 03 c8 23 80
       5.496463e-39 -2.761868e-39 -1.94996e-40 -3.285993e-39
000320 77 b2 48 80 b4 27 3a 00 eb e8 07 80 39 b2 1a 00
       -6.676177e-39 5.340702e-39 -7.26404e-40 2.451657e-39
000330 71 88 1b 80 7a 49 47 80 92 b3 13 00 5d 3e 29 00
       -2.528504e-39 -6.546679e-39 1.809292e-39 3.787627e-39
000340 9e 53 3b 80 98 f6 49 00 62 fd 33 80 4c 57 1b 00
       -5.44829e-39 6.792452e-39 -4.774507e-39 2.510875e-39
000350 14 41 39 80 97 51 37 80 18 5d 0e 80 be 7d 28 00
       -5.257969e-39 -5.080221e-39 -1.319093e-39 3.718528e-39
000360 5b d6 02 80 91 2b 19 80 6e 02 46 00 4b 08 00 80
       -2.60567e-40 -2.311516e-39 6.429356e-39 -2.975e-42
000370 50 60 09 00 ec 6e 11 00 01 81 12 00 f4 96 3e 00
       8.6107e-40 1.600995e-39 1.699317e-39 5.747953e-39
000380 26 01 0d 00 f0 9f 32 80 57 5f 3d 00 0c da 48 80
       1.194273e-39 -4.64915e-39 5.636167e-39 -6.690376e-39
000390 89 d5 1f 80 00 1a 3b 80 bc 5c 0c 80 30 d9 34 80
       -2.923502e-39 -5.427621e-39 -1.135293e-39 -4.853358e-39
0003a0 be 90 27 00 c2 48 22 80 af 53 22 00 2e af 25 80
       3.633508e-39 -3.148507e-39 3.152427e-39 -3.460756e-39
0003b0 29 42 05 00 d5 9f 49 80 b4 85 34 00 53 1f 44 80
       4.82911e-40 -6.761328e-39 4.82341e-39 -6.256051e-39
0003c0 09 e2 18 80 7c 66 1c 80 1f 6b 30 00 08 f2 01 00
       -2.285138e-39 -2.608158e-39 4.446532e-39 1.7866e-40
0003d0 31 ed 12 00 9a 0b 3d 00 4a 7f 03 00 fa 6e 23 80
       1.738127e-39 5.606127e-39 3.21169e-40 -3.254053e-39
0003e0 33 4f 3f 80 84 9d 4a 80 91 fc 39 80 5d 4e 15 00
       -5.814048e-39 -6.852333e-39 -5.325227e-39 1.956657e-39
0003f0 54 9c 0b 00 a8 dc 45 00 2a c2 20 80 f5 04 2d 00
       1.06627e-39 6.415806e-39 -3.008389e-39 4.134376e-39

stage_1_model.linears.3.bias f4 [48]
000000 00 00 00 00 00 00 00 00 00 00 00 00 00 00 00 00
       0.0 0.0 0.0 0.0
000010 00 00 00 00 00 00 00 00 00 00 00 00 00 00 00 00
       0.0 0.0 0.0 0.0
000020 00 00 00 00 00 00 00 00 00 00 00 00 00 00 00 00
       0.0 0.0 0.0 0.0
000030 00 00 00 00 00 00 00 00 00 00 00 00 00 00 00 00
       0.0 0.0 0.0 0.0
000040 00 00 00 00 00 00 00 00 00 00 00 00 00 00 00 00
       0.0 0.0 0.0 0.0
000050 00 00 00 00 00 00 00 00 00 00 00 00 00 00 00 00
       0.0 0.0 0.0 0.0
000060 00 00 00 00 00 00 00 00 00 00 00 00 00 00 00 00
       0.0 0.0 0.0 0.0
000070 00 00 00 00 00 00 00 00 00 00 00 00 00 00 00 00
       0.0 0.0 0.0 0.0
000080 00 00 00 00 00 00 00 00 00 00 00 00 00 00 00 00
       0.0 0.0 0.0 0.0
000090 00 00 00 00 00 00 00 00 00 00 00 00 00 00 00 00
       0.0 0.0 0.0 0.0
0000a0 00 00 00 00 00 00 00 00 00 00 00 00 00 00 00 00
       0.0 0.0 0.0 0.0
0000b0 00 00 00 00 00 00 00 00 00 00 00 00 00 00 00 00
       0.0 0.0 0.0 0.0

stage_1_model.linears.4.weight f4 [48, 48]
000000 04 05 1d 3d d9 65 1e 3e d5 fc a2 be d1 e3 cc 3d
       0.03833486 0.1546854 -0.3183352 0.1000439
000010 86 42 71 be bf 0a 5b bf f1 49 05 3d eb 8e 6a 3e
       -0.23560533 -0.8556327 0.03254122 0.22906081
000020 3a 69 a8 3e 5f 02 4f be 96 06 89 be 56 d7 b3 3e
       0.32892781 -0.20215748 -0.26762837 0.35125226
000030 b1 a5 09 be 21 66 e7 3d 66 f6 8d 3e f8 5c 9c 3d
       -0.13442113 0.112987764 0.2772705 0.0763492
000040 62 74 71 bd 5c 96 8f be 4f 83 80 bd ac 65 a0 be
       -0.058948882 -0.28044403 -0.06275045 -0.3132757
000050 23 a5 c1 3e 2c 98 30 be ef 51 d8 3c ab 28 b7 bd
       0.37821302 -0.17245549 0.026406256 -0.08943304
000060 9f ab f5 3c 9d cd e0 be 22 82 2d bd ea 8a 35 be
       0.029989062 -0.4390687 -0.042360432 -0.17728773
000070 6b 36 1b bc 9f de b8 3a ea 3e 23 3f c9 81 c1 3e
       -0.0094734235 0.0014104432 0.63767874 0.3779433
000080 27 9c 82 be 61 05 0d 3d e0 57 17 3d 33 24 07 3e
       -0.2550976 0.034428958 0.03694904 0.13197403
000090 99 8f c1 3e 95 0e 1b be bf 11 81 bb 17 4e d1 be
       0.3780487 -0.15142281 -0.003938883 -0.4087989
0000a0 2f cc 5f 3e dd d1 a5 be 32 18 0f 3e 87 31 e3 be
       0.21855234 -0.32386675 0.13974074 -0.44373724
0000b0 f8 28 d2 be 33 c2 ac 3d 79 e6 7b 3e 56 b4 35 3e
       -0.41046882 0.08435478 0.24599637 0.17744574
0000c0 1f 00 92 3e 01 bc 99 be 0c 4f 05 be b9 45 af bc
       0.28515717 -0.30026248 -0.13018435 -0.021395551
0000d0 c9 2f 85 3d 61 1b 19 3e b5 4a af 3d 64 bd db 3c
       0.06503255 0.1495185 0.08559171 0.026823707
0000e0 64 52 a3 bc ef f8 34 3e 35 42 4c be 83 97 06 3d
       -0.019936748 0.17673086 -0.19947131 0.032859337
0000f0 23 41 b0 bc 6c 60 01 be 6a 9d f1 3d bb 60 3a be
       -0.021515435 -0.12634438 0.117976025 -0.18200962
000100 db c6 eb 3d b4 40 c3 3e 56 49 90 3e 72 8b 19 3e
       0.11512538 0.38135302 0.2818095 0.149946
000110 59 3c 01 be db 0a 32 be c4 44 64 3d 6f c8 11 3e
       -0.12620677 -0.17386954 0.055729643 0.14236616
000120 b4 e3 ca bd ee 3a d1 3e a2 e8 52 3c c0 5b 96 3e
       -0.09906712 0.40865272 0.012872847 0.29366875
000130 eb b9 9e bd c0 26 82 3e 19 87 41 be ec 17 d3 be
       -0.07750305 0.2542019 -0.18899192 -0.41229188
000140 c1 e8 01 3a 4b 81 f1 3d ce 98 51 3e 18 c7 f6 bd
       0.00049556425 0.11792239 0.20468447 -0.12049693
000150 69 2e 6b be 4d bb ea be 7d 48 d9 3d c2 4b 58 bd
       -0.22966923 -0.45846024 0.10609529 -0.052806623
000160 7a 02 08 be 9a 98 46 be ed 10 97 be 8c 8a 09 3e
       -0.13282195 -0.1939415 -0.295051 0.13431758
000170 8e 31 7d bc c6 41 cf 3e 22 bc 12 3e 6e f1 2f be
       -0.015453709 0.4047987 0.1432958 -0.17181942
000180 df a9 31 3e 18 c8 06 bd 64 38 c3 3c 64 b0 6c bd
       0.17349957 -0.032905668 0.0238306 -0.057785407
000190 08 6e da bc cb 19 4f bd 72 d1 f1 bd 68 c9 9a 3d
       -0.026663795 -0.050561707 -0.11807527 0.075579464
0001a0 e3 e5 bd 3e a8 62 75 be 33 9f 8e bd fc 42 2e 3e
       0.37089452 -0.23963416 -0.069639586 0.1701774
0001b0 e5 5e f8 be ee e0 4e bd 93 1b b6 3c 64 5b 99 bd
       -0.485099 -0.05050748 0.022229945 -0.074881345
0001c0 1d d0 19 3d 50 9e d9 3e 62 88 b6 3e 1e 76 bd 3d
       0.037551988 0.42503595 0.35650927 0.09251045
0001d0 a8 5f 4d 3e dc 55 ab be c1 19 aa be b3 cf 9f be
       0.20056021 -0.33463943 -0.33222774 -0.3121315
0001e0 6e 44 a3 be 85 a0 12 3d 4d 86 76 be fe 74 22 be
       -0.31888145 0.035797615 -0.24074669 -0.15864941
0001f0 e5 46 6a be 56 32 2f 3e 0b 25 32 3e 7a 48 17 3e
       -0.22878607 0.17109045 0.17396943 0.14773741
000200 04 4a 6d 3d 30 22 b1 3b 44 20 8e 3e 8c 44 c5 3e
       0.057931915 0.005405687 0.27758992 0.3852886
000210 c8 75 0d 3d 2c 57 6d bd ea fd 51 be 4f c7 8c 3d
       0.034536153 -0.05794446 -0.20507017 0.068739526
000220 c5 25 e3 bd 93 b7 10 3d b2 77 94 3d 3e 97 46 3d
       -0.11091188 0.03533132 0.072493926 0.04848408
000230 d2 d6 40 be 9f b9 8f 3e 4a 12 bc 3e 50 3b 7d 3e
       -0.18831947 0.28071305 0.36732703 0.24729657
000240 a4 ac e2 bd c2 43 5a be 10 e6 26 bf 2b dc 04 bf
       -0.11068085 -0.2131491 -0.651948 -0.5189845
000250 66 32 d1 bc 08 cb e1 3e df c2 9f 3d 6a 76 7f 3e
       -0.025536727 0.44100213 0.078008406 0.24947515
000260 09 a3 71 bc 6e 2f 9e be 49 e5 20 3c 76 39 4c 3e
       -0.014748343 -0.3089556 0.009820291 0.19943795
000270 6d e2 d1 bd 80 6b 9f be a0 fb d0 bd 20 49 de be
       -0.102482654 -0.31136703 -0.10204244 -0.43415165
000280 f2 f0 85 3e 19 37 0f 3f 7a 1e 86 be 93 3d 60 3e
       0.2616039 0.5594345 -0.26195127 0.21898489
000290 41 3d 23 bf 60 2e 05 3d bb 80 01 bc da dd 0a 3e
       -0.6376534 0.03251493 -0.007904227 0.13561192
0002a0 39 24 90 be 42 f9 dd bd c8 a9 06 3f 22 f1 d7 be
       -0.28152636 -0.10838558 0.52602816 -0.42176157
0002b0 fd 46 00 be df 8b a9 3c 6f cf 61 be a4 03 12 bd
       -0.1252708 0.020696579 -0.22051786 -0.035648003
0002c0 2b 24 4a 3e 75 2e b3 3e 06 cb e6 3d d7 bd 21 be
       0.1974036 0.3499638 0.112691924 -0.15795074
0002d0 9d e3 66 be bb 77 9e 3c 41 a0 88 3d 4a 59 4b be
       -0.22547765 0.019344201 0.06671191 -0.1985828
0002e0 38 79 6b bd 21 e1 1a be f2 6f 8f be f8 26 0b 3f
       -0.05748865 -0.15124942 -0.28015095 0.54356337
0002f0 a4 f1 c0 bd 09 e1 cb be 69 47 95 3e 10 23 09 bf
       -0.09421089 -0.39820126 0.29156044 -0.53569126
000300 73 56 24 be 15 92 94 3e cc 5c be be d5 db 14 be
       -0.16048603 0.29017702 -0.37180173 -0.14536984
000310 59 8a 69 bd d7 6e f3 3d bf 39 18 bf 96 4e 09 3d
       -0.057016704 0.118863754 -0.59463114 0.03352221
000320 2a 41 69 3e 9e be cc 3e 64 41 a7 3d e0 42 07 3e
       0.22778764 0.3998918 0.08166769 0.13209105
000330 9f 68 2c bd 10 25 70 3e 75 a2 34 3d 08 00 0c 3d
       -0.042091962 0.23451638 0.044100244 0.034179717
000340 8d 26 d0 bd 7e 84 9b 3e 9b a6 3a be 0a 00 00 be
       -0.10163603 0.3037452 -0.18227617 -0.12500015
000350 f7 43 d1 be 07 5f ab 3e 6d 2d c8 3e 83 b7 c5 bd
       -0.40872166 0.33470938 0.39097157 -0.09654143
000360 3a 21 03 be 8a d0 0c 3f ef e9 f8 be 67 45 1d 3e
       -0.12805644 0.55005705 -0.48615977 0.15358506
000370 fb e2 44 be 5f 12 02 3e 72 a9 12 bf f4 0d f1 3d
       -0.19227211 0.1270232 -0.57289803 0.117702395
000380 a4 a8 2b 3e 3c 1b e6 be 5a 98 90 3e 8a ac f1 3d
       0.1676355 -0.44942653 0.28241235 0.11800487
000390 8b 95 8b be e8 ec 86 3e 3d c7 ae 3d ee 56 3e 3d
       -0.2726253 0.2635262 0.085340954 0.04646962
0003a0 6e 7d 3a be 39 92 13 3e 5e bc 92 3e ae 59 ae 3b
       -0.1821191 0.14411248 0.28659338 0.0053207492
0003b0 70 b4 4a be f1 25 2c be 90 78 77 3c 3b f9 f0 3c
       -0.19795394 -0.16811348 0.015104428 0.029415717
0003c0 21 a0 3a 3d 62 f0 c5 3e 09 0d a9 3d 0f 24 61 be
       0.045562867 0.3865996 0.082544394 -0.21986412
0003d0 1c f2 00 3f d3 f1 b0 be 84 12 b6 bd eb 15 cb be
       0.5036943 -0.34559497 -0.0889025 -0.3966516
0003e0 ea e4 75 3e 75 d3 65 3e 58 41 a2 be 83 5b 00 bd
       0.24013105 0.22443946 -0.31690478 -0.031337272
0003f0 49 61 2d 3e 58 9c 8c 3d 73 59 67 3c d7 4e b2 3d
       0.16931643 0.06865758 0.014120447 0.08706444

stage_1_model.linears.4.bias f4 [48]
000000 94 53 7b bc de d1 c9 3c e9 52 e5 bc 9e 4f ca bc
       -0.015339751 0.024636205 -0.027993636 -0.024696168
000010 0b d5 2a bd 46 07 1e 3d 16 49 19 bd 2b ae d8 3c
       -0.04170708 0.038581155 -0.037423216 0.026450237
000020 9f 5b 43 3c 9d 8b dc 3c fb 0d da 3c 65 77 30 bd
       0.0119237 0.026922042 0.026617995 -0.043082613
000030 d9 ad 04 bc 77 dd d4 3c 33 42 db 3c bc f8 34 bd
       -0.008098089 0.025984509 0.026764965 -0.044182524
000040 40 6a 32 bc 77 e9 1a 3d 9b 46 18 bd bc 37 83 3d
       -0.01088959 0.037820306 -0.03717671 0.06407115
000050 a8 28 eb bc b7 74 aa bd 25 2f 8a bc d1 37 1b bd
       -0.02870591 -0.08323043 -0.016868183 -0.037895028
000060 ed 5b 3d 3d e3 7a 8a 3d 5c 54 47 bd c6 39 9d 3c
       0.046230245 0.0676172 -0.048664436 0.019192588
000070 bf 95 96 3d bd b1 ac 3b bb 93 76 3c 82 69 7f 3d
       0.073527806 0.0052702115 0.01504987 0.06235648
000080 a3 09 b0 bc 12 77 2e 3c 00 3f c1 3d 71 7b 82 bc
       -0.02148897 0.010648506 0.094358444 -0.015928002
000090 47 ab 15 bd f9 b7 27 bc 2e 99 ac bb c1 2a 86 bd
       -0.036540296 -0.010236734 -0.005267284 -0.065511234
0000a0 10 6e ce bc 9b 7a 04 3d af 69 95 bd 4c f6 87 3d
       -0.025198966 0.03234349 -0.07295548 0.06638774
0000b0 44 48 6e 3d 39 b2 1e 3d 30 79 06 3d d9 1b 7d bc
       0.058174387 0.038744185 0.032830417 -0.015448534

stage_1_model.gru.weight_ih f4 [144, 48]
000000 01 28 f4 bc 8a 2a 32 3e bb 51 cd bd 7e a4 94 3e
       -0.029804232 0.1739904 -0.100253545 0.29031748
000010 71 8e 96 3e 5e 2a 29 3e d7 66 cd bd 56 56 7c bd
       0.2940555 0.16520068 -0.10029381 -0.061605774
000020 4b 20 d4 3d a4 0b 8d be fa fd a3 bd 7b 86 13 3c
       0.10357722 -0.27547944 -0.080074266 0.009004231
000030 1f b5 71 be f3 5f cf be 0e eb 1b 3d 2c 29 37 3c
       -0.23604248 -0.4050289 0.038065962 0.01117925
000040 93 8f 8f 3e 55 99 19 be 4e 6b 80 3d 9f f7 c1 be
       0.28039226 -0.14999898 0.06270467 -0.37884232
000050 84 84 ee bd e3 81 fe bd d0 61 68 be b8 a0 2f 3e
       -0.11646369 -0.12427118 -0.22693563 0.17151153
000060 1a 48 18 bd 13 28 15 3e a9 e3 b8 3e 72 1c 65 be
       -0.037178136 0.14566068 0.3611119 -0.22374132
000070 01 33 ba 3d 98 fc 2b 3d 33 94 01 be 58 5c bd 3e
       0.090917595 0.04198894 -0.1265419 0.36984515
000080 3c 70 a9 bc 3f 4a 99 3e d1 93 15 3e a6 dc 5d be
       -0.0206834 0.29939458 0.14607169 -0.21666202
000090 66 e0 38 3e 25 ec c4 bd 52 c7 c8 bd 4f f7 a5 bd
       0.18054351 -0.096153535 -0.09803642 -0.08103811
0000a0 5f 71 cb 3d 3d 64 95 be 3a fe 75 be ce d0 5f bd
       0.09933733 -0.29178038 -0.24022761 -0.05464249
0000b0 22 5a 9f 3d 78 bc 05 be 63 7f 9e be d2 ad c9 be
       0.07780863 -0.13060176 -0.30956563 -0.39390427
0000c0 0f 6b 02 be ab ff 7c 3e 31 3b 6a 3e cf 05 b0 3c
       -0.12736152 0.24706905 0.22874142 0.021487145
0000d0 3e 93 ee be 67 57 f8 bd 08 ab 16 3e 2d 39 9c 3e
       -0.46596712 -0.12126046 0.1471368 0.30512372
0000e0 51 65 3d be fc 55 21 be ae 31 da bd ce 80 13 3e
       -0.1849568 -0.15755457 -0.10654007 0.14404604
0000f0 80 8d 63 be 55 02 16 3d 96 3c 35 3e 0b dc c3 be
       -0.22221947 0.036623318 0.17698893 -0.38253817
000100 bc 4f 05 3f 9d cb 81 be 86 fa a9 3d 2c 4d a8 bd
       0.5207479 -0.25350657 0.08299737 -0.08217844
000110 87 0a 8a bd 56 b0 18 be 63 35 84 be 67 49 49 3e
       -0.06740289 -0.14911017 -0.2582198 0.19656907
000120 9f 6f c1 3d 06 ad f0 3d f3 94 59 be 50 34 93 3e
       0.09445118 0.117517516 -0.21248226 0.2875085
000130 6b 79 fc 3d a7 7d 58 3e e3 05 dd 3d 91 fe 13 3e
       0.12327846 0.21141683 0.107921384 0.14452578
000140 48 f7 ae be e8 f0 b0 3d a2 81 11 3c c3 14 09 3e
       -0.34173036 0.08639699 0.0088810045 0.13386826
000150 70 5c ca bb 6d dc 07 3e 5b 66 e0 3d f5 e2 54 3e
       -0.00617557 0.1326768 0.10957023 0.20789702
000160 21 af 5f be 7a 98 ea 3d ca e0 3b 3e 02 f9 c4 3c
       -0.2184415 0.11454864 0.18347469 0.024044517
000170 ba f7 fa bb fa a2 b5 3e 18 be 8e 3e 3d ef 54 be
       -0.007658926 0.35475904 0.27879405 -0.20794387
000180 33 d2 ab 3e 47 26 ec bd 32 6e 0f be 50 74 12 bd
       0.33558807 -0.11530738 -0.1400688 -0.035755455
000190 3e f7 9c bd c1 f8 bf 3d 5e 23 c4 3d c0 67 61 3e
       -0.07664345 0.09373618 0.09577058 0.22012234
0001a0 77 d1 93 bd 56 63 5c be ca 94 52 3e 65 6d 73 3e
       -0.072176866 -0.21522269 0.20564571 0.237722
0001b0 dc ac 03 be 00 de cf bd 7d d3 b5 be d8 a1 c9 3d
       -0.1285891 -0.10149765 -0.35512915 0.09845322
0001c0 ed be 5e 3e d8 c0 d6 bc 5f 8a e2 3e b4 ca 9d bd
       0.2175252 -0.026215002 0.44246194 -0.07704678
0001d0 f8 7d 88 be 23 19 a0 3e b5 74 56 3d cc 36 e4 3e
       -0.26658607 0.31269178 0.052357394 0.44573057
0001e0 ec 0d 44 be 41 ad ac be c9 e1 45 be 58 e0 e5 bc
       -0.19145936 -0.33725932 -0.19324411 -0.028061077
0001f0 db 94 bf bd 33 27 77 bd 06 29 96 be 19 47 81 be
       -0.09354564 -0.060340118 -0.29328173 -0.25249556
000200 de bf 71 bc 5c fa 1b be 0d 9f 6c be cb 6b ca bd
       -0.014755217 -0.15232223 -0.23107548 -0.09883841
000210 32 3d c3 be 0f ec f1 3e 7c af 90 3e 65 70 d7 3d
       -0.38132626 0.4725041 0.28258884 0.105194844
000220 dc 40 a0 bd a1 d8 ec be dd 13 99 bd d7 6d e8 3b
       -0.07824871 -0.46259025 -0.07474492 0.007093172
000230 2f 4b 81 be 34 43 a9 bd 1b 38 73 be 03 4e 21 3e
       -0.25252673 -0.08264771 -0.23751871 0.15752415
000240 9a d7 2c 3e 0f 3d 8d be de 8d a9 3d 70 14 66 be
       0.1687912 -0.27585647 0.08279012 -0.22468734
000250 5b de 9a 3e 86 d5 6a be dc 4d 95 3e b5 1e 0c 3e
       0.3024777 -0.22933015 0.29160964 0.13683589
000260 d4 f7 58 3d a3 fb 92 3d 41 4b 7e bd 26 94 c3 bd
       0.052970722 0.07176902 -0.062083486 -0.095497414
000270 e0 38 83 3e 98 ab c9 bb a9 e5 e4 be a8 19 7c 3e
       0.2562933 -0.006154489 -0.44706467 0.24619162
000280 d9 5c 9f 3d b0 6d 8a 3d 01 27 ad 3d 98 1e 5d be
       0.07781381 0.067592025 0.08454705 -0.21593702
000290 e3 a6 b1 3e ec 28 68 3e c1 60 ca be d1 27 7c 3e
       0.34697637 0.2267186 -0.39526942 0.24624564
0002a0 db 1f 1f bd 14 11 29 3e 71 ac 1d 3e 9e 9a 97 3e
       -0.03884874 0.16510421 0.15397812 0.2961015
0002b0 d0 94 a2 bc e1 f4 d8 be e2 e3 9f 3e ae d7 69 be
       -0.01984635 -0.42374328 0.31228548 -0.22836182
0002c0 49 ac 9c 3e be f0 50 bd 4c 29 cf 3d ac ab f8 3d
       0.30600193 -0.05101084 0.10115299 0.12142119
0002d0 69 f1 0b bf 68 dc 23 bd 17 3a 8c be a3 7b 4f be
       -0.5466524 -0.040005118 -0.2738807 -0.20262007
0002e0 64 e4 80 3e 6b 59 4a 3e 57 59 b9 be f4 54 7d be
       0.25174248 0.19760673 -0.36200973 -0.24739438
0002f0 f9 cd 45 be 16 dc 90 3c 09 12 50 be ec 12 a8 be
       -0.19316854 0.01768307 -0.2031938 -0.32826936
000300 f1 7e 39 be f5 6a 54 3e 10 26 4b 3e 9b c3 90 be
       -0.1811483 0.20743926 0.19838738 -0.28274235
000310 8a 01 00 3d 19 ff ee bd 25 92 8c be 6f 2c 8d be
       0.031251468 -0.1166975 -0.2745525 -0.27572963
000320 10 85 3c 3d 44 8c 79 3e 85 f5 2a 3c 39 24 95 3d
       0.046025336 0.24369913 0.010434513 0.072822995
000330 2f e8 20 be 19 4d 80 3e 05 99 0b 3e ca b1 92 bd
       -0.15713571 0.2505882 0.13632591 -0.07162817
000340 4e b1 0c 3e b6 41 69 3d ee a3 10 bd 7d d4 f6 bd
       0.13739511 0.056947432 -0.035312586 -0.12052248
000350 70 78 35 3e 7c e4 36 3e 7d ff 3f bd 66 50 2e 3e
       0.17721725 0.17860597 -0.046874512 0.17022857
000360 f9 4b 08 3e 40 39 df 3d 16 1b 40 be c6 86 21 3e
       0.13310231 0.108995914 -0.18760332 0.15774068
000370 2f 3a 55 3e 5c 2f c0 bd be 06 7a 3c 0f 86 c7 be
       0.20822977 -0.09384033 0.0152603965 -0.38969466
000380 c3 13 c5 3c ef 07 fc 3d cb 1f a4 be bb e6 4f 3e
       0.024057275 0.12306201 -0.32055506 0.2030286
000390 0f f4 56 3e f4 31 95 bd 67 a6 87 be a0 3b a8 3e
       0.20991538 -0.072849184 -0.26494142 0.3285799
0003a0 55 99 c2 be f1 d0 81 be 80 c9 8b 3e 1c 64 37 3e
       -0.38007608 -0.25354722 0.2730217 0.17909282
0003b0 b2 83 95 be f1 a5 5e be 3d 19 3b be 0f 0b 2c 3e
       -0.29202038 -0.21742989 -0.18271346 0.16801094
0003c0 e7 f3 83 3d 41 bb 26 bc 2e 5a 03 3f 25 b0 e9 3d
       0.06443005 -0.010176481 0.5130948 0.1141055
0003d0 c6 58 38 bc be d8 0e 3e de 7a 2f be 31 1b 3e ba
       -0.011251634 0.13949868 -0.17136714 -0.00072519766
0003e0 0d b9 9d bc aa 3c 7d 3e ea bf 27 3f 8a 22 6a be
       -0.019253278 0.24730173 0.6552721 -0.22864738
0003f0 6e d4 d7 bd 0a 48 a7 3e 84 75 8c bd 8c 56 b6 bc
       -0.105385646 0.3267215 -0.06858352 -0.022258066
