GNN_DTI/model/20221121_154002_GNNDTI_repeat0/model/epoch-436, train_loss-1.3832, train_rmse-1.1761, valid_rmse-1.3019, valid_pr-0.7103.pt (torch, 879432 bytes, 24 tensors)

gconv1.0.A f4 [140, 140]
0	0xbcf13788	-0.029445425
1	0x3d08456c	0.03326933
2	0xbca48bc3	-0.020086175
3	0x3ce40652	0.027835045
4	0x3c105b98	0.0088109
5	0x3c95eb90	0.018300802
6	0xbc253f0a	-0.01008583
7	0x3caa5c4e	0.020795967
8	0x3cc3393a	0.023830999
9	0x3bff7553	0.0077959686
10	0x3d1bad73	0.03800721
11	0xbd03d88a	-0.03218893
12	0x3d292b6b	0.041301172
13	0xbcbbdf05	-0.022933492
14	0x3cfb36e1	0.030665817
15	0x3b9a50f6	0.0047093583
16	0xbce1d23e	-0.027566072
17	0xbcb49bef	-0.022047011
18	0xbb2ed68e	-0.0026678178
19	0x3bb9d067	0.0056705954
20	0x3cccddb8	0.025008067
21	0x3c78a67c	0.015176412
22	0x3d2789d9	0.040902946
23	0xbccbfb5d	-0.024900133
24	0xbc916f12	-0.017753158
25	0x3c9c6f91	0.019096168
26	0x3cd173df	0.025567947
27	0x3b7c6237	0.003851069
28	0x3a07d730	0.0005181907
29	0xbc1f6d63	-0.00973067
30	0x3c66ee7d	0.014094946
31	0x3b59914c	0.0033198176
32	0x3c498634	0.012300063
33	0x3c463b15	0.012099047
34	0xbbabca72	-0.005242639
35	0x3b816af2	0.0039495165
36	0x3cc32b5b	0.023824384
37	0x3c98dda0	0.018660367
38	0xbccbe5db	-0.024889877
39	0xbcd484ff	-0.025942324
40	0x3c94a42f	0.018144695
41	0x3cbc768f	0.023005752
42	0x3ca64a2d	0.020299042
43	0x3b5352e0	0.0032245442
44	0x3c9f964f	0.019480852
45	0x3cd7b692	0.026332173
46	0xbc0f36a4	-0.008741055
47	0x3c3aa998	0.011392973
48	0xbced8632	-0.028994653
49	0x3c76660e	0.01503898
50	0x3c803974	0.015652396
51	0xbb96f446	-0.0046067564
52	0x3c638e5b	0.013888921
53	0x3cc9c438	0.024629697
54	0x3c5b1144	0.013370816
55	0xbcc05124	-0.02347619
56	0xbc962c07	-0.01833154
57	0x3c852ff1	0.016258212
58	0x3cefe72b	0.029285034
59	0x3c81ef6e	0.01586124
60	0xbc8390ff	-0.01606035
61	0xbc92d946	-0.01792587
62	0x3be62e9f	0.0070246006
63	0x3c1b2cce	0.0094711315
64	0xbbd036bc	-0.006354181
65	0x3d079ac9	0.0331066
66	0xbc3e524d	-0.011616302
67	0xbc8b36db	-0.01699393
68	0x3bd25a00	0.0064194202
69	0x3cb94b0e	0.022618797
70	0xbcc1fd08	-0.023680225
71	0xbcbc9637	-0.023020847
72	0x3b0568e0	0.00203567
73	0xbc7d8e6a	-0.015475849
74	0x3cadf4c8	0.021234885
75	0x3c544b5c	0.01295742
76	0xbc327e68	-0.010894395
77	0x3c03a8af	0.008035823
78	0x3cb1098a	0.021610994
79	0x3ca8baf8	0.020596966
80	0x3c88b440	0.016687512
81	0x3c19b6e7	0.009381986
82	0xbd040cae	-0.032238655
83	0x3c981c6c	0.01856824
84	0x3cac5299	0.02103548
85	0xbc500172	-0.012695657
86	0xbccc3531	-0.024927707
87	0x3b4d5f27	0.0031337233
88	0x3b253640	0.0025209337
89	0x3ca6cdd2	0.020361815
90	0x3c82eb7e	0.015981432
91	0x3c397eab	0.011321704
92	0x3b860b29	0.004090686
93	0x3cf08889	0.02936198
94	0x3cde0edc	0.027106695
95	0x3cdd9f95	0.027053634
96	0x3c858a5e	0.01630133
97	0x3d10a903	0.035317432
98	0x3caa664e	0.020800736
99	0x3cb43d79	0.022001969
100	0xbccfdebf	-0.025374768
101	0xbce14448	-0.02749838
102	0x39f21bd7	0.0004617858
103	0x3cbee94e	0.023304608
104	0x3c29dda2	0.010367783
105	0x3c6243a0	0.013810068
106	0xbc513427	-0.012768782
107	0xbcc04ef3	-0.023475146
108	0xbc502059	-0.012703025
109	0xbc4164e8	-0.011803843
110	0xbc9e7cac	-0.019346558
111	0x3bdfecaa	0.0068336325
112	0xbce37ac4	-0.0277685
113	0x3cb31de0	0.021864831
114	0x3ccde862	0.025135223
115	0x3c9c1f0d	0.019057775
116	0xbcc0e548	-0.02354683
117	0x3bd94937	0.0066310423
118	0x3c4c4433	0.012467432
119	0x3a2d4e82	0.0006611125
120	0x3cab9345	0.020944247
121	0xbacedfdd	-0.0015783269
122	0xbc5bd871	-0.013418303
123	0xbc0b0b23	-0.008486542
124	0xbc810612	-0.015749965
125	0xbc57b36c	-0.013165336
126	0xbbf4928e	-0.0074637597
127	0xbd02a033	-0.03189106
128	0xba9f1874	-0.0012138025
129	0x3a2da226	0.0006623588
130	0x3cb1f4c6	0.021723162
131	0x3c8668b9	0.016407358
132	0xbb9f1fda	-0.004856092
133	0xbbaca9b4	-0.0052692536
134	0x3c45c666	0.012071228
135	0x3ce6b02f	0.028160183
136	0x3cc0bb6b	0.023526868
137	0x3cae50f7	0.021278841
138	0x3c5a15e3	0.013310882
139	0x3c4aeb6b	0.01238523
140	0x3d07f9f0	0.033197343
141	0x3c8abf67	0.01693697
142	0x3cdadfdf	0.026718078
143	0xb9c5805b	-0.000376704
144	0xbc7042bb	-0.014664347
145	0xbba64b92	-0.0050749267
146	0x3cad86e1	0.02118248
147	0xbb03487a	-0.0020032213
148	0x3c1d6f43	0.009609046
149	0xbb26a9a3	-0.0025430701
150	0xbcd38cb6	-0.025823932
151	0x3c0b6f37	0.008510402
152	0x3cb51a3c	0.022107236
153	0x3c88dc8a	0.016706724
154	0x3bc6ce8f	0.006067104
155	0xbc1bf837	-0.009519628
156	0x3d074da9	0.033033047
157	0x3c2c535a	0.010517919
158	0xbcb16763	-0.021655744
159	0xbcc49157	-0.023995085
160	0x3cc27890	0.02373913
161	0x3b80cfd5	0.0039310255
162	0x3c9e5917	0.01932959
163	0x3c9d37a4	0.01919157
164	0x3c92591e	0.01786476
165	0x3b0879a6	0.0020824461
166	0x3c894f4d	0.016761446
167	0xbc238c7c	-0.009982225
168	0xbbf764c7	-0.0075498554
169	0xba8c958d	-0.0010725722
170	0x3c22e072	0.009941207
171	0x3cd5102f	0.026008694
172	0xbb23bc06	-0.0024983897
173	0x3c09dcfa	0.008414501
174	0x3b7fb97f	0.0039020476
175	0x3c161fcd	0.009162855
176	0x3cd59457	0.02607171
177	0x3d0456b2	0.03230924
178	0x3c60a154	0.013710339
179	0x3cdd4999	0.027012633
180	0xbc045a80	-0.0080782175
181	0x3c8af50d	0.016962552
182	0x3b6030b7	0.0034208724
183	0x3c1d377e	0.00959575
184	0x3c9fffc3	0.019531136
185	0xbc0ccd8e	-0.00859393
186	0x3c55e964	0.013056133
187	0xbccb2227	-0.024796559
188	0x3d0471dc	0.032335147
189	0x3ca1a39f	0.01973134
190	0xbd287763	-0.04112948
191	0x39d10449	0.0003986678
192	0x3c0536ba	0.008130724
193	0x3cbc9837	0.0230218
194	0xbc995505	-0.018717298
195	0xbbda33b0	-0.0066589937
196	0x3c50b9a2	0.012739571
197	0x3c948e27	0.01813419
198	0x3c897b0b	0.016782304
199	0x3be79e6f	0.0070684473
200	0xbc6c0c14	-0.0144071765
201	0xbbbd741b	-0.005781663
202	0xb83e6775	-4.5395882e-05
203	0xbbba2be2	-0.005681501
204	0x3c5a87dd	0.013338056
205	0xbc20b78a	-0.009809384
206	0xbd0f70fa	-0.035019852
207	0x3c1506e2	0.009095879
208	0xbc7ac6cc	-0.015306186
209	0xbc02e306	-0.007988697
210	0x3cd62e91	0.026145251
211	0x3cd237e4	0.025661416
212	0xbc208084	-0.0097962655
213	0xbc7fcee3	-0.0156132905
214	0x3c6be2d0	0.014397338
215	0xbae413e8	-0.0017400952
216	0x3ca3644f	0.019945292
217	0x3c28631b	0.010277535
218	0xbbd53382	-0.0065063844
219	0xbc6bc11e	-0.014389304
220	0x3c6e0504	0.014527563
221	0xbbded3e8	-0.0068001635
222	0x3cb21731	0.021739574
223	0xbcb4ce4b	-0.022071024
224	0xbd022fb8	-0.03178379
225	0xbb5f3738	-0.0034060013
226	0x3cd58d03	0.026068216
227	0x3cf0a671	0.02937624
228	0xbb11da31	-0.0022255296
229	0xb90389bf	-0.00012544448
230	0xb7f656e7	-2.9365952e-05
231	0x3c546be6	0.012965178
232	0xbcd81879	-0.026378857
233	0xbba2b1f4	-0.0049650613
234	0xbcc3e570	-0.023913115
235	0xbc37a375	-0.011208405
236	0x39e6e42c	0.0004403902
237	0x3cb41df0	0.021986932
238	0x3b8cb9d5	0.004294614
239	0xbcd5564d	-0.026042128
240	0xbc42153c	-0.011845883
241	0x3bd9cc4a	0.0066466676
242	0x3c24255b	0.010018672
243	0x3c3e9805	0.011632924
244	0xbce14a26	-0.027501177
245	0xba740752	-0.0009308952
246	0x3d030145	0.031983633
247	0x3d3378ef	0.043816503
248	0xbc59a98e	-0.013285054
249	0x3a60e13e	0.00085784856
250	0x3cdb7afc	0.026792042
251	0xbd06f8c9	-0.032952104
252	0x3d095ae1	0.033533935
253	0xbcbc2880	-0.02296853
254	0x3bc108bf	0.005890935
255	0x3ba5a135	0.0050546178

gconv1.0.W.weight f4 [140, 140]
0	0xbbdc771e	-0.006728067
1	0x3d7b8cec	0.06141369
2	0x3c9137a1	0.017726721
3	0x3d83df53	0.0643908
4	0x3be3e5aa	0.0069548683
5	0xbc408dbe	-0.011752544
6	0xbd5cf5e9	-0.053945456
7	0x3b20f3f5	0.0024559472
8	0x3de02372	0.10944261
9	0xbca5f946	-0.020260464
10	0xbd3c46ec	-0.045966074
11	0xbd1fcd23	-0.039013993
12	0x3c4361e0	0.011925191
13	0x3d868a4b	0.06569346
14	0x3d8ebde4	0.069698125
15	0xbd8c2fea	-0.068450764
16	0x3d0a9fc2	0.033843763
17	0xbdb37e41	-0.087643154
18	0x3c9a36c1	0.018824937
19	0xbca03d81	-0.019560577
20	0x3d24866b	0.040167253
21	0xbbc22d9c	-0.005925847
22	0xbd9282f7	-0.07153886
23	0xbd92cae9	-0.07167608
24	0x3d133f8a	0.035949267
25	0xbd54420f	-0.05182081
26	0xbd8e9cd9	-0.0696351
27	0x3da686a0	0.081311464
28	0x3db0755e	0.08616136
29	0xbdda3056	-0.106537506
30	0xbcbcbc0c	-0.023038886
31	0xbd6f2e73	-0.058393907
32	0x3d198eeb	0.037489813
33	0xbd273320	-0.04082024
34	0xbd93733b	-0.07199713
35	0x3d440b9e	0.04786264
36	0x3d051d57	0.032498684
37	0x3ddbcbac	0.10732207
38	0xbcef7bc7	-0.029233826
39	0xbdd64cb3	-0.10463848
40	0x3d3413ed	0.043964315
41	0xbd52f150	-0.051499665
42	0xbd939d61	-0.07207752
43	0xbdbdcc5c	-0.09267494
44	0xbd886e54	-0.066616684
45	0x3db85217	0.090000324
46	0x3cd77955	0.026302973
47	0xbdaefabb	-0.08543917
48	0x3db797c1	0.08964492
49	0xbd13cecd	-0.036085892
50	0x3d1d408b	0.03839163
51	0x3d000db3	0.031263065
52	0x3d682c59	0.05668292
53	0x3d947d41	0.07250453
54	0xbd1b0188	-0.037843257
55	0x3c8123bb	0.015764108
56	0x3ba26ef6	0.004957075
57	0x3d002a0d	0.031290103
58	0x3ce10cdb	0.02747195
59	0x3d9476c1	0.07249213
60	0x3ca62959	0.020283388
61	0xbcb62fe8	-0.02223964
62	0x3dce1b11	0.10063756
63	0xbddb9dfa	-0.10723491
64	0x39c02813	0.0003665095
65	0xbd1548d6	-0.036446415
66	0xbd0e3f0b	-0.03472809
67	0x3d522cf2	0.051312394
68	0x3c8b7e6b	0.017028054
69	0xbdc6d3bb	-0.09708353
70	0xbdbd09a9	-0.09230358
71	0xbdce2f79	-0.100676484
72	0x3d314b90	0.043284953
73	0x3d859cbc	0.06524035
74	0x3dc1ca83	0.09462454
75	0x3db4ac2c	0.08821902
76	0x3d716b4c	0.058940217
77	0xbdcd62de	-0.10028623
78	0xbcec8441	-0.028871657
79	0x3d893c4c	0.06700954
80	0xbc64bc77	-0.013960949
81	0xbd5947b7	-0.05304691
82	0xbd202f74	-0.039107755
83	0xbd16b8f0	-0.036797464
84	0xbdb953d3	-0.09049191
85	0x3d8c2a2b	0.068439804
86	0xbda66276	-0.08124249
87	0x3d32859a	0.043584444
88	0xbcf7c6c0	-0.030246139
89	0x3d2ffa67	0.04296341
90	0x3d0cb739	0.034354422
91	0xbe0239e1	-0.12717392
92	0x3d588a93	0.05286653
93	0xbb96a470	-0.004597239
94	0x3d9c4cbf	0.07631826
95	0x3d9b8261	0.07593227
96	0x3d53f6f5	0.05174919
97	0x3d76028f	0.060061034
98	0xbd4a4d34	-0.049390033
99	0x3da4a4be	0.080392346
100	0xbca65a62	-0.02030677
101	0xbde111be	-0.10989712
102	0xbce111af	-0.027474253
103	0xbd2d3443	-0.04228617
104	0x3d443ab5	0.04790755
105	0x3d236849	0.039894376
106	0xbca876e3	-0.020564502
107	0xbd821d8b	-0.06353291
108	0xbc1cfeec	-0.0095822625
109	0xbd917d9d	-0.07104037
110	0x3d49c50c	0.049260184
111	0xbcbf37a1	-0.023341956
112	0xbbc895ec	-0.0061213877
113	0x3d90c2f7	0.070684366
114	0xbde695f4	-0.1125907
115	0x3dd23bb1	0.102652915
116	0x3d77bc1e	0.060482137
117	0x3d12a6c8	0.035803586
118	0x3d2092a4	0.039202347
119	0xbd7bf2c6	-0.061510824
120	0xbd797821	-0.06090558
121	0x3d9a51e6	0.07535152
122	0x3d776b12	0.060404845
123	0xbd16f38b	-0.036853354
124	0x3d8b7bd6	0.06810729
125	0x3d06a895	0.032875616
126	0xbd1cebc8	-0.038310796
127	0xbd45186b	-0.04811899
128	0x3d89ed87	0.06734758
129	0x3da52038	0.08062786
130	0xbbef63ac	-0.007305583
131	0xbcc1c24a	-0.023652215
132	0xbd6b890a	-0.057503738
133	0xbb7d3576	-0.0038636602
134	0x3d79a5aa	0.060949005
135	0xbd52515f	-0.051347133
136	0x3dee017f	0.11621379
137	0xbcef0889	-0.029178875
138	0xbc33e144	-0.0109790005
139	0xbd92d647	-0.071697764
140	0xbd80ce48	-0.06289345
141	0x3cf01d0b	0.029310724
142	0xbc0ca365	-0.008583878
143	0x3d5c5e02	0.05380059
144	0xbc7ae838	-0.015314154
145	0xbcf85214	-0.030312575
146	0x3c9cb9e2	0.019131605
147	0x3d4885e6	0.04895582
148	0xbdb1bc15	-0.08678452
149	0x3c73ab7d	0.014872429
150	0x3d8a2b22	0.06746508
151	0x3d6c365a	0.05766902
152	0x3cc8d3ed	0.024515117
153	0x3dd706b2	0.10499324
154	0x3d56de0b	0.05245785
155	0x3d993035	0.07479898
156	0x3d03876b	0.032111567
157	0xbca78fee	-0.020454373
158	0x3d4d89b5	0.050180156
159	0xbd8a572b	-0.06754907
160	0xbcadd033	-0.021217441
161	0xbd1a8ed0	-0.037733853
162	0x3d3f41bc	0.04669355
163	0xbcbcd145	-0.023049006
164	0x3c97b935	0.01852093
165	0x3c9baea8	0.019004181
166	0xbd93eec3	-0.072232746
167	0x3d9fc26b	0.07800754
168	0xbd9cd4c1	-0.07657767
169	0x3dad199b	0.084521495
170	0xbd7e5b07	-0.06209853
171	0x3b127f52	0.002235372
172	0x3c98d219	0.01865487
173	0x3d75c67e	0.06000375
174	0x37d8bc56	2.5836907e-05
175	0x3bf5881b	0.0074930317
176	0xbd2da0fa	-0.042389847
177	0xbda19ce8	-0.078912556
178	0xbb59b79b	-0.003322101
179	0x3d8e739d	0.06955645
180	0x3d9a367f	0.075299256
181	0xbd688b39	-0.056773398
182	0x3d2d849d	0.042362798
183	0x3d9253f3	0.07144918
184	0xbda9939d	-0.08280108
185	0xbca2e39e	-0.019883927
186	0xbcf08191	-0.029358657
187	0xbd8a6d85	-0.067591704
188	0x3c9cdc88	0.019148126
189	0x3cd099d5	0.025463978
190	0xbd4d4100	-0.050110817
191	0x3dce789e	0.100816
192	0xbdaa54b1	-0.08316935
193	0xbc8a7da8	-0.01690562
194	0x3b7645a0	0.003757812
195	0x3d8b9f4e	0.06817494
196	0x3d82f285	0.06393913
197	0xbdd37aba	-0.103261426
198	0x3d886397	0.0665962
199	0xbd84a77b	-0.06477257
200	0x3dab5047	0.08364921
201	0x3b5e399e	0.0033908854
202	0x3cffc75f	0.031222997
203	0x3c537dab	0.01290838
204	0xbd7f4e70	-0.062330663
205	0xbda5dffa	-0.08099361
206	0xbd4df27a	-0.05028007
207	0xbcb93739	-0.02260934
208	0x3c73845c	0.0148631
209	0x3cd7cd9d	0.026343161
210	0x3b1e5723	0.0024160824
211	0x3d0a45ed	0.033758093
212	0x3d56b077	0.052414384
213	0x3c529bbc	0.012854513
214	0xbd8612b3	-0.06546535
215	0xbd5c23fa	-0.053745247
216	0xbc5a30fd	-0.013317344
217	0xbd3a6955	-0.04551061
218	0x3bd8c49a	0.0066152336
219	0x3cbae791	0.022815498
220	0x3b456c33	0.0030124306
221	0xbda91569	-0.08256037
222	0x3dad5a5f	0.084645025
223	0xbd9646da	-0.073377326
224	0x3cf43bf2	0.02981374
225	0xbcff312c	-0.031151377
226	0xbd93261b	-0.071850024
227	0xbdcc7abc	-0.09984347
228	0xbda6ab88	-0.08138186
229	0xbb270d00	-0.0025489926
230	0xbd82bf75	-0.06384174
231	0xbd4ea17d	-0.050446976
232	0xbdd42915	-0.10359398
233	0xbd7f024b	-0.062258046
234	0xbdb6d36e	-0.08927046
235	0xbd900c69	-0.07033617
236	0xbcf61d8f	-0.030043392
237	0x3d8ea739	0.06965489
238	0x3a8b8a08	0.0010645995
239	0x3db49b62	0.088186994
240	0x3bd96e01	0.006635428
241	0xbd870fbe	-0.065947995
242	0x3d899223	0.067173265
243	0x3b42a72c	0.0029701693
244	0x3d58ec17	0.052959528
245	0x3c837daa	0.016051132
246	0xbcebd2a4	-0.028786965
247	0x3dc30dae	0.095240936
248	0x3db8733d	0.09006355
249	0x3da5a11e	0.08087371
250	0x3d6b75aa	0.05748526
251	0xbcd717e2	-0.026256505
252	0xbcd1ee9f	-0.025626479
253	0x3da5d181	0.080966
254	0xbd33665f	-0.0437988
255	0x3bac18da	0.005251986

gconv1.0.W.bias f4 [140]
0	0x3d404ba2	0.04694713
1	0x3cfb26c5	0.030658135
2	0xbd3f3418	-0.04668054
3	0x3d9f529e	0.0777943
4	0xbcb97afb	-0.02264165
5	0x3ca93e36	0.020659547
6	0x3db3ff4e	0.0878893
7	0x3cff4359	0.031160044
8	0x3d258aed	0.040415693
9	0x3d688f5c	0.056777343
10	0x3b697d49	0.0035627654
11	0xbdb6d2f3	-0.08926954
12	0x3d646994	0.05576475
13	0xbd2c5d4a	-0.042081155
14	0x3d40bf20	0.04705727
15	0xbda4ab92	-0.08040537
16	0xbc918701	-0.01776457
17	0x3dadf1df	0.08493399
18	0x3c8b51f6	0.017006855
19	0xbc3097be	-0.010778366
20	0xbc0e58b9	-0.008688145
21	0x3d9c1914	0.07621971
22	0x3d67c65e	0.056585662
23	0x3d2f29e6	0.042764567
24	0x3b928ac0	0.0044721067
25	0x3ca9b0aa	0.020714123
26	0xba0fcf0e	-0.00054858706
27	0x3d2e0da1	0.042493466
28	0xbd835d34	-0.064142615
29	0x3d936522	0.07197024
30	0xbd7b652b	-0.06137578
31	0xbca62117	-0.02027945
32	0x3cc2be76	0.02377246
33	0xbd2c3665	-0.042044062
34	0x3d8c1471	0.068398364
35	0x3d4a27eb	0.049354475
36	0x3cfae6ee	0.030627694
37	0x3b7bdc9e	0.0038431059
38	0x3c2a5993	0.010397333
39	0x3d996bf2	0.07491292
40	0xbce09561	-0.02741498
41	0x3d49a44e	0.04922896
42	0x3cf3d40c	0.029764198
43	0x3b20591c	0.0024467176
44	0xbc6b2972	-0.014353143
45	0x3cc16d4c	0.023611687
46	0x3d2c972b	0.042136353
47	0xbd22f3e4	-0.039783373
48	0x3d140f72	0.036147542
49	0x3d873be6	0.066032216
50	0xbd583281	-0.05278254
51	0x3c64a693	0.01395573
52	0x3d68b6f4	0.056815103
53	0x3d8a8034	0.06762734
54	0xbd346360	-0.044040084
55	0xbdbc8a69	-0.09206087
56	0xbd69d7c8	-0.05709055
57	0x3d237114	0.03990276
58	0x3d0ec04b	0.034851354
59	0x38ca2a80	9.640027e-05
60	0xbd6bfe75	-0.057615716
61	0xbc8adfb6	-0.016952377
62	0x3c34b2cc	0.011028957
63	0x3d84b7c0	0.0648036
64	0xbdb24054	-0.08703676
65	0x3d4a9026	0.049453877
66	0xbd9264e4	-0.071481496
67	0x3d28bcbd	0.04119562
68	0xbd57ab22	-0.05265344
69	0x3c9e0e06	0.019293796
70	0xbcea55ea	-0.02860542
71	0xbd29650e	-0.04135614
72	0x3dc1a542	0.094553486
73	0x3d4fce8c	0.050734088
74	0x3d4af82d	0.049553085
75	0x3d0f9e37	0.035062995
76	0xbb6ea26b	-0.0036412727
77	0x3d3b9deb	0.0458049
78	0x3c5d610e	0.013511909
79	0x3d916ffb	0.07101437
80	0xbd618f02	-0.055068024
81	0x3da46d55	0.08028666
82	0xbd03deec	-0.032195017
83	0x3ce79682	0.02827001
84	0xbda8de44	-0.08245519
85	0xbb89b13b	-0.0042020357
86	0x3b81a5bd	0.003956525
87	0x3d9611ff	0.07327651
88	0x3d817fc8	0.063232005
89	0xbc9def7f	-0.01927924
90	0x39420fca	0.00018507164
91	0x3d9c1b3f	0.07622384
92	0xbd238c12	-0.039928503
93	0x3c6d8748	0.014497586
94	0x3db92d6f	0.09041869
95	0x3d81a9c9	0.06331212
96	0xba0ec30e	-0.00054459355
97	0x3d68d77d	0.05684613
98	0x3d9b48ab	0.0758222
99	0xbd561384	-0.052264705
100	0xbd95ffba	-0.073241666
101	0xbbc66dd5	-0.0060555735
102	0xbd3d7b4a	-0.046260156
103	0x3d278c8c	0.04090552
104	0x3c9ad35c	0.018899612
105	0xbd849757	-0.06474178
106	0xbcffc98b	-0.031224033
107	0xbcdf1ec2	-0.027236346
108	0xbdd1d230	-0.10245168
109	0x3cacb1c5	0.02108086
110	0xbcf3c3ad	-0.029756391
111	0xbdb7b686	-0.089703605
112	0x3cc7807c	0.024353258
113	0xbce2b192	-0.027672563
114	0x3cda802c	0.026672445
115	0xbd99265b	-0.07478019
116	0x3d695927	0.056969788
117	0x3dbd7912	0.09251608
118	0xbc616c4a	-0.013758728
119	0x3d14be2b	0.03631417
120	0xbd7a7951	-0.061150853
121	0x3b7e3dce	0.0038794163
122	0xbd5e7184	-0.054307476
123	0x3d908da7	0.07058268
124	0xbd59c61d	-0.05316745
125	0x3c7c5915	0.015402098
126	0xbd866fcc	-0.06564292
127	0xbcde44c8	-0.027132407
128	0xbd8c34dd	-0.0684602
129	0xbd303026	-0.043014668
130	0x3dac75f3	0.084209345
131	0xbd52b219	-0.05143938
132	0xbd15bcba	-0.036556937
133	0xbd064950	-0.03278476
134	0xbc2073b5	-0.009793212
135	0x3cff85be	0.031191703
136	0x3d47f090	0.048813403
137	0x3c55c429	0.0130472565
138	0xbb8f5b3e	-0.0043748906
139	0xbd4ed287	-0.050493743

gconv1.0.gate.weight f4 [1, 280]
0	0x3de0b8ed	0.10972772
1	0xbd881e50	-0.06646407
2	0x3be9de5b	0.0071371025
3	0xbcec4907	-0.028843416
4	0x3debf266	0.11520843
5	0xbd22b6ab	-0.039724987
6	0x3dd52319	0.10407085
7	0x3d77a5dc	0.06046091
8	0x3ce51da2	0.027968232
9	0x3d9cbf28	0.07653648
10	0xbd410880	-0.047127247
11	0x3bd20658	0.0064094476
12	0xbe01ef0e	-0.12688848
13	0xbd60573e	-0.0547707
14	0xbce2a33d	-0.027665729
15	0xbd5082b3	-0.050905894
16	0xbe1b3cb5	-0.15159877
17	0x3a98e0ed	0.0011663713
18	0xbd44bfa1	-0.048034314
19	0xbc907929	-0.017635899
20	0xbd100d1b	-0.03516875
21	0x3d5e4c61	0.05427206
22	0xbde414ad	-0.11136756
23	0xbc6a1dd4	-0.014289338
24	0xbbc44ba3	-0.005990462
25	0x3d1b275a	0.037879325
26	0xbcf2ff93	-0.029662883
27	0xbd0695ef	-0.03285783
28	0x3d1ea7a2	0.038734086
29	0x3cce280c	0.02516558
30	0xbd2e21e8	-0.042512804
31	0xbd9d853c	-0.07691428
32	0x3de8c8d9	0.11366434
33	0xbdd010e8	-0.101594746
34	0xbd87dea7	-0.066342644
35	0xbdbc6560	-0.09199023
36	0x3df48380	0.11939144
37	0xbcb37c88	-0.021909967
38	0xbdd45de7	-0.10369473
39	0xbe1444bb	-0.14479344
40	0xbd116a7c	-0.035501942
41	0xbce6d10d	-0.028175855
42	0x3d7d524e	0.06184607
43	0xbc09363a	-0.008374745
44	0x3dfba302	0.12286951
45	0xbcc416eb	-0.02393671
46	0x3cd748a2	0.026279751
47	0x3cd0ba8e	0.025479581
48	0x3dd9f0d6	0.10641639
49	0x3db57cf3	0.08861723
50	0xbdae4753	-0.08509698
51	0x3d0fb59a	0.035085298
52	0x3d0651a8	0.032792717
53	0x3d813962	0.06309773
54	0xbdb51693	-0.08842196
55	0xbe0c249e	-0.13685843
56	0x3d15b69f	0.036551114
57	0x3ddc3cce	0.10753785
58	0x3cf503e4	0.029909082
59	0xbda42661	-0.08015133
60	0xbe0058cf	-0.12533878
61	0xbd5285e4	-0.05139722
62	0xbca4d5fc	-0.020121567
63	0xbdf6e353	-0.120550774
64	0xbd8f91fb	-0.070102654
65	0xbd69c492	-0.05707223
66	0x3cc32f6b	0.023826322
67	0x3c0bd033	0.008533525
68	0x3cf4bb35	0.029874424
69	0xbdc875ed	-0.097881176
70	0xbbd97ee2	-0.00663744
71	0xbd85923b	-0.06522032
72	0xbd8f6159	-0.070009895
73	0x3cba8a47	0.022771014
74	0x3daa43d9	0.08313722
75	0xbcab9b71	-0.020948144
76	0xbdb97e57	-0.090573005
77	0xbc1867dd	-0.009302107
78	0x3dd732a8	0.10507709
79	0xbd728140	-0.059205294
80	0xbdc1c77b	-0.09461876
81	0xbd42e916	-0.04758557
82	0xbdd5d786	-0.104414985
83	0x3cf62151	0.030045183
84	0xbd8d5152	-0.06900276
85	0x3cd5fe14	0.02612213
86	0x3cfa8a5c	0.030583553
87	0x3d553247	0.0520499
88	0xbdab7c9f	-0.08373379
89	0x3d781846	0.060570024
90	0xbcf93cc5	-0.030424485
91	0xbd7e1692	-0.062033243
92	0x3cb1ac96	0.02168874
93	0x3e07990d	0.13241978
94	0x3d8b75a3	0.06809547
95	0x3e185112	0.14874676
96	0x3d0d491c	0.03449355
97	0x3caaca36	0.020848375
98	0x3d948afb	0.07253071
99	0x3cdf64e5	0.02726979
100	0xbb9ec855	-0.004845659
101	0xbd39853e	-0.045293085
102	0xbc87c41c	-0.016573004
103	0xb97c8399	-0.00024081617
104	0x3df6f8c4	0.12059167
105	0x3dcb689c	0.09932062
106	0x3ceab342	0.02864993
107	0xbdc000fb	-0.09375187
108	0x3c723a7e	0.014784453
109	0xbda0c9a7	-0.07850962
110	0xbba498bb	-0.0050230897
111	0x3d555e67	0.052091982
112	0xbc75499e	-0.014971165
113	0x3d69884b	0.057014745
114	0xbdc98b6a	-0.09841044
115	0x3ca4fd19	0.020140218
116	0x3d1b32c9	0.03789023
117	0x3bdbaabc	0.0067037027
118	0x3cd52775	0.026019791
119	0x3db20d74	0.08693972
120	0x3ce9f83c	0.02856075
121	0xbdfdb9f2	-0.12388982
122	0xbd613a48	-0.054987222
123	0xbdee62e4	-0.11639956
124	0x3cf8df17	0.030379815
125	0xbd974b12	-0.073873654
126	0x3dc7b1b5	0.09750692
127	0x3c8c7eda	0.017150331
128	0xbdadba4e	-0.084828004
129	0x3d6f17f7	0.058372464
130	0x3d02461a	0.031805135
131	0xbd84dffe	-0.064880356
132	0x3d490c5a	0.049084045
133	0x3d959af4	0.073049456
134	0x3cba2854	0.022724308
135	0xbbb654de	-0.005564316
136	0x3dc54bd0	0.09633601
137	0xbc1018b1	-0.008794949
138	0x3cd9d169	0.026589112
139	0x3d903462	0.07041241
140	0x3d8e10dc	0.069368094
141	0xbd931428	-0.07181579
142	0x3caa2ab2	0.020772312
143	0xbdca2782	-0.09870817
144	0xbd9a999b	-0.07548829
145	0x3c67fe91	0.014159814
146	0xbd4fdade	-0.050745837
147	0xbde41855	-0.111374535
148	0xbd984bdc	-0.07436344
149	0x3da3dd8f	0.08001243
150	0xbd5db921	-0.05413163
151	0xbcf485ba	-0.029848922
152	0xbdcf24ea	-0.10114463
153	0x3da974d9	0.0827424
154	0xbc3921d8	-0.011299573
155	0xbd065d99	-0.032804105
156	0xbd22364b	-0.03960256
157	0x3a43f909	0.0007475769
158	0xbe2e4966	-0.17020187
159	0xbd5dde3a	-0.05416701
160	0xbd175a74	-0.036951497
161	0xbd8b92e1	-0.06815124
162	0xbcb629ab	-0.022236666
163	0x3d8c1563	0.06840017
164	0x3c5dfe81	0.013549448
165	0xbd840378	-0.06445974
166	0xbcc2efda	-0.02379601
167	0xbd12457b	-0.035710793
168	0xbd72fe89	-0.059324775
169	0xbd8bd8a6	-0.06828432
170	0xbc88c164	-0.016693778
171	0xbd761829	-0.060081635
172	0xbd9be3bf	-0.076117985
173	0x3d05b323	0.03264154
174	0xbd1d7354	-0.038440064
175	0xbd507d75	-0.050900895
176	0xbd76b21d	-0.060228456
177	0xba80f264	-0.0009837863
178	0x3d981e5e	0.07427667
179	0x3b8e8b91	0.0043501337
180	0xbe08a166	-0.13342819
181	0xbdb9f844	-0.09080556
182	0xbd862e61	-0.06551815
183	0xbe1ec68f	-0.15505432
184	0x3a25b964	0.0006321876
185	0x3bef0934	0.0072947983
186	0x3d523dee	0.051328592
187	0xbd136c40	-0.035991907
188	0x3d89ce81	0.067288406
189	0x3d177c44	0.036983743
190	0xbde9e580	-0.11420727
191	0xbe3d94c3	-0.1851378
192	0xbdc954f8	-0.0983066
193	0xbda526a1	-0.080640085
194	0xbd156cb4	-0.03648062
195	0x3ca251e7	0.019814445
196	0xbd05b67e	-0.03264474
197	0xbdca241e	-0.0987017
198	0xbd0c9011	-0.03431708
199	0xbda5220a	-0.08063133
200	0x3de60cff	0.112329476
201	0xbcf7f495	-0.030267993
202	0xbd7f2469	-0.062290583
203	0x3d3e7380	0.046496868
204	0xbd131b85	-0.035914917
205	0xbd93811c	-0.0720236
206	0xbda0bd19	-0.078485675
207	0xbd50e629	-0.051000748
208	0x3dd67710	0.10471928
209	0xbda3d6dc	-0.079999655
210	0x3d5ea960	0.054360747
211	0x3d707b17	0.058711138
212	0xbc9358d0	-0.017986685
213	0x3d7ebdad	0.062192608
214	0xbd7c842f	-0.061649498
215	0xbdd937f1	-0.10606373
216	0x3d254a83	0.040354263
217	0x3b6b748d	0.0035927624
218	0xbdeb0f95	-0.114775814
219	0xbcde251f	-0.02711731
220	0x3d7186fd	0.058966625
221	0xbd8d2a55	-0.0689284
222	0x3bc3d591	0.005976387
223	0xbd8f7fa9	-0.07006771
224	0xbbd9ab21	-0.0066427146
225	0xbda164ac	-0.0788053
226	0xbcf20628	-0.029543951
227	0xbb76fe32	-0.0037688133
228	0xbd870f6a	-0.06594737
229	0xbdb87406	-0.09006505
230	0x3cd18ba3	0.02557928
231	0xbd20bf58	-0.03924498
232	0xbdcf5253	-0.10123124
233	0xbd8251bc	-0.06363246
234	0xbd9613b7	-0.07327979
235	0xbd3dc5ec	-0.04633133
236	0xbe0c2052	-0.13684204
237	0x3b065c84	0.002050192
238	0xbde31a46	-0.11088996
239	0xbd9db89f	-0.07701229
240	0xbdbff2ac	-0.09372458
241	0xbc8e7114	-0.017387904
242	0xbd7190c6	-0.058975957
243	0xbda860f6	-0.08221619
244	0xbc4ee68d	-0.01262821
245	0xbde5e8e2	-0.112260595
246	0xbf016c8a	-0.5055624
247	0x3d857c72	0.06517877
248	0xbe0319a0	-0.12802744
249	0x3d04ec0a	0.032451667
250	0x3cd04422	0.025423113
251	0x3e099a46	0.13437757
252	0x3d9bfddf	0.076167814
253	0xbcbcbf7c	-0.023040526
254	0xbd27dfc9	-0.040984903
255	0xbd26ee42	-0.040754564

gconv1.1.A f4 [140, 140]
0	0xbc1ab8a9	-0.0094434405
1	0x3cd51f0d	0.026015783
2	0x3c8ecdeb	0.017432174
3	0x3c118df1	0.008883939
4	0xbc25fdf5	-0.010131349
5	0xbd05203d	-0.032501448
6	0xbc50c306	-0.01274181
7	0xbbc561fc	-0.0060236435
8	0xbc89090e	-0.01672795
9	0xbd0bfe0e	-0.034177832
10	0xbcdef654	-0.027217068
11	0xbcf8b9f5	-0.030362109
12	0xbb300fd4	-0.0026864903
13	0x3c94b53a	0.018152822
14	0x3bdabc41	0.0066752736
15	0xbcdc61b9	-0.026902067
16	0xbc609440	-0.013707221
17	0xbb98c26e	-0.0046618497
18	0xbd2326be	-0.03983187
19	0xbcdf4d44	-0.027258523
20	0x3c7b14dc	0.0153247975
21	0x3cb00598	0.021487042
22	0xbc9a4bba	-0.018834937
23	0xbcb8f127	-0.022575928
24	0xbcc656c8	-0.024211302
25	0x3c66fd10	0.014098421
26	0xbaac4424	-0.0013142866
27	0xbb949d59	-0.004535359
28	0xbcf46c59	-0.02983682
29	0x3d0d3f94	0.03448446
30	0xbb67f2a0	-0.0035392419
31	0xbb326d92	-0.0027225954
32	0xbc881260	-0.016610324
33	0xbc86dadf	-0.016461788
34	0x3d55b3cb	0.052173417
35	0xbc5009b9	-0.012697631
36	0x3b2c64c7	0.0026305185
37	0x3d0dbc53	0.034603428
38	0x3cec1771	0.028819771
39	0xbc271ad0	-0.010199264
40	0xbc725cdb	-0.014792646
41	0xbd4a5768	-0.049399763
42	0x3d5106da	0.051031925
43	0xbcc1efec	-0.023673974
44	0xbd1be8a3	-0.038063657
45	0xbc857c76	-0.0162947
46	0xbba22d30	-0.0049492344
47	0x3c035875	0.008016695
48	0xbd4e0bce	-0.050304227
49	0xbbcc00d9	-0.006225687
50	0xbd088ec4	-0.033339277
51	0xbd5f816d	-0.05456679
52	0xbc6c748b	-0.014432083
53	0xbd3b1b4d	-0.045680333
54	0x3ca47e41	0.020079734
55	0x39b1d509	0.00033918794
56	0x3c8f1fdc	0.017471246
57	0xbc694beb	-0.014239292
58	0x3cc93a32	0.024563882
59	0x3b0f0cd8	0.0021827724
60	0x3ce46d51	0.027884157
61	0x3cd75a3e	0.026288148
62	0xbc5917d0	-0.013250306
63	0x3c85225e	0.01625174
64	0xbbeda8ce	-0.007252789
65	0x3b239533	0.0024960756
66	0xbb1a4d7a	-0.0023544715
67	0x3cfce34a	0.030870099
68	0x3c5c72ad	0.013455075
69	0x3c065a70	0.008200273
70	0xbd410990	-0.04712826
71	0x3d4cefdd	0.05003344
72	0xbc97c306	-0.018525612
73	0xbca077ff	-0.019588469
74	0xbcb121f5	-0.021622637
75	0xbc28087b	-0.010255928
76	0xbc9f9224	-0.019478865
77	0x3c0418bc	0.008062538
78	0x3d1991f6	0.037492715
79	0x3b237b0c	0.0024945168
80	0x3baecaa4	0.0053342152
81	0x3c795313	0.01521756
82	0xbcb206da	-0.021731783
83	0xbd2b7351	-0.04185802
84	0xbc12edc2	-0.008967819
85	0x3c9b1254	0.018929638
86	0xbcb73e75	-0.022368649
87	0xbc936947	-0.017994536
88	0xbd024a19	-0.031808946
89	0xbc9e9383	-0.019357448
90	0xbcb96821	-0.02263266
91	0x3d513242	0.05107332
92	0xbc9b053e	-0.018923398
93	0x3cf7b3cf	0.030237107
94	0x3b68ed0c	0.0035541682
95	0xbcce7556	-0.025202435
96	0x3d25a0f5	0.040436704
97	0x3d429262	0.047502883
98	0xbc586669	-0.01320801
99	0xbc0c85dc	-0.008576836
100	0xbc702bc0	-0.014658868
101	0xba74f0fd	-0.00093437714
102	0xbc8a2164	-0.016861625
103	0xbc95e338	-0.018296823
104	0x3c53a64e	0.012918068
105	0x3a8ccdf4	0.0010742531
106	0xbcec610d	-0.028854871
107	0xbc98d29a	-0.01865511
108	0xbbdca5f8	-0.006733652
109	0x3a1057bd	0.0005506238
110	0xbc4136de	-0.0117928665
111	0xbcfd0813	-0.03088764
112	0xbc9a82a1	-0.018861117
113	0xbb45d880	-0.0030188859
114	0xbc2fbdda	-0.0107264165
115	0xbc88b204	-0.016686447
116	0xbadd3f7e	-0.0016879884
117	0x3c79be0e	0.0152430665
118	0xba0444e5	-0.00050456665
119	0xbcc05d9e	-0.02348214
120	0x3c9a9c15	0.018873254
121	0x3caefaa3	0.021359747
122	0xbca5678e	-0.02019098
123	0xbc89d717	-0.016826196
124	0xbc60bd6e	-0.013717039
125	0x3c367702	0.011136772
126	0xbb2bb9f5	-0.0026203368
127	0x3c48b52d	0.012250227
128	0xbd1a04eb	-0.037602346
129	0xbccd50b5	-0.025062898
130	0xbc3b8749	-0.011445829
131	0x3d231744	0.03981711
132	0xbc8a77d0	-0.016902834
133	0xbc137ae9	-0.009001472
134	0xbcda62b5	-0.026658395
135	0xbcb6e702	-0.02232695
136	0xbc7ab6a3	-0.015302333
137	0xbcda98a6	-0.026684117
138	0x3c70e040	0.014701903
139	0xbbff6ef2	-0.007795208
140	0x3cd4d961	0.02598256
141	0xbcc1f323	-0.023675507
142	0xbc8395a7	-0.01606257
143	0xbd16da64	-0.036829367
144	0x3a4f94d0	0.0007918598
145	0xbc155f8c	-0.009117018
146	0x3b42e0c6	0.0029736026
147	0x3cf727a5	0.030170271
148	0x3c4c2b06	0.012461429
149	0xbc37650b	-0.011193524
150	0x3cb75353	0.0223786
151	0xbc28b912	-0.01029803
152	0xbd52f5ed	-0.051504064
153	0x3c8a9a07	0.01691915
154	0x3cd2cf51	0.025733622
155	0xbb8c9a39	-0.0042908457
156	0x3c1d34a7	0.009595073
157	0x3cda4160	0.026642501
158	0x3b27f9b3	0.002563101
159	0x3b06a29a	0.0020543695
160	0x3c7f9f0e	0.015601886
161	0xbaa4dae7	-0.0012577445
162	0x3a288432	0.000642839
163	0x3beaf6c6	0.007170531
164	0x3ca341d6	0.019928854
165	0x3d08fa6c	0.033441946
166	0x3ca91669	0.020640569
167	0x3d1be838	0.038063258
168	0x3c844e14	0.016150512
169	0xbca27dde	-0.019835409
170	0x3cf1763b	0.029475322
171	0x3d1959a7	0.037439015
172	0x3b8a7256	0.0042250557
173	0x3cb88c1e	0.02252775
174	0xbd1245b4	-0.035711005
175	0xbc9d02c8	-0.019166365
176	0x3ab473fc	0.0013767476
177	0x3d0730e1	0.0330056
178	0x3c4803e7	0.012207962
179	0xbd531ffb	-0.05154417
180	0xbba76d32	-0.0051094526
181	0xbafe9c05	-0.001942516
182	0x3cd50811	0.026004823
183	0xbb9f9b7e	-0.004870831
184	0xba032c6e	-0.0005003874
185	0x3c180b1a	0.009279991
186	0x3c98b74b	0.018642088
187	0xbd4d22ad	-0.050081898
188	0x3d40225d	0.04690777
189	0x3d22e70f	0.039771136
190	0xbc43ece6	-0.011958336
191	0x3b840996	0.004029463
192	0xbbcfca0e	-0.0063412255
193	0xb92fda43	-0.0001677061
194	0x3c38cc91	0.011279241
195	0x3c5abc69	0.013350585
196	0x3c6b4fa3	0.014362249
197	0x3c018ce6	0.007907128
198	0xbb18a68b	-0.0023292627
199	0xbc348a48	-0.011019297
200	0x3ce92a0a	0.028462429
201	0xbc63a428	-0.013894118
202	0x3acc3378	0.0015579304
203	0xba94adcd	-0.00113433
204	0x3cce1672	0.025157187
205	0x3bca294d	0.006169474
206	0xbb05eb75	-0.0020434533
207	0xbcb50c4e	-0.022100594
208	0x3c169757	0.009191356
209	0x3ba3abd2	0.004994848
210	0xba898cc4	-0.0010494222
211	0xbc90cda0	-0.017676175
212	0x3c0e46f6	0.008683911
213	0x3c7fc620	0.0156112015
214	0x3c6e5375	0.014546265
215	0x3bfb0e99	0.0076616523
216	0xbac9c898	-0.0015394865
217	0x3c3660dc	0.0111314915
218	0xbd29852b	-0.041386764
219	0x3c04648c	0.008080613
220	0xbc589653	-0.013219434
221	0x3cafe846	0.021473061
222	0x3d29fde3	0.04150189
223	0x3c9fdf68	0.019515708
224	0x3babf0e4	0.0052472223
225	0xbcb0f022	-0.02159888
226	0xbc2d513b	-0.010578449
227	0x3d22322b	0.039598625
228	0x3c9d4e29	0.019202309
229	0x3c88ab70	0.01668331
230	0x3ca0c099	0.019623088
231	0xbb8af579	-0.0042406884
232	0xbb353add	-0.0027653493
233	0xbd4874ce	-0.04893952
234	0x3cbf47a4	0.02334959
235	0x3c96c3c6	0.018403899
236	0x3c3094c7	0.010777659
237	0xbbb6eea9	-0.0055826497
238	0x3c58ae64	0.013225172
239	0xba67ee38	-0.0008847448
240	0x3cbb3c39	0.022855865
241	0x3cfa794d	0.030575419
242	0x3cc47948	0.023983613
243	0x3ce7bd74	0.02828858
244	0x3c11290d	0.008859885
245	0xbb4affdf	-0.0030975265
246	0x3c1cb586	0.009564763
247	0xbc6ccd65	-0.014453267
248	0x3baaa3a9	0.005207498
249	0x3cbb79d7	0.022885246
250	0xbb56fb55	-0.0032803614
251	0x3bdf41d2	0.0068132663
252	0xbc7be6b8	-0.015374832
253	0xbbd3df8e	-0.006465859
254	0x3c65f3d7	0.014035187
255	0x3c918d23	0.017767495

gconv1.1.W.weight f4 [140, 140]
0	0x3d1a2bbf	0.037639376
1	0xbdbf506b	-0.093415104
2	0x3d0c4b7f	0.034251686
3	0xbda1b51d	-0.07895873
4	0x3c767b70	0.015044078
5	0x3ab1ed92	0.001357483
6	0xbd152f42	-0.03642202
7	0xbc972c46	-0.018453728
8	0x3d3dc623	0.046331536
9	0x3d951c47	0.07280784
10	0x3d3013be	0.042987578
11	0xbcc4cd62	-0.024023715
12	0xbc4144d8	-0.011796199
13	0xbdb7b542	-0.08970119
14	0xbdffd643	-0.12492039
15	0x3d82ea24	0.06392315
16	0x3d911fae	0.070861205
17	0x3c40eb44	0.011774842
18	0x3c903873	0.017605042
19	0x3d8a6386	0.06757264
20	0xbb705278	-0.003667025
21	0x3d7e2fbf	0.062057253
22	0xbdc508ad	-0.096207954
23	0x3c5c989b	0.013464118
24	0x3d4863cd	0.048923302
25	0x3e19d12c	0.15021199
26	0xbd6a3cca	-0.05718688
27	0xbd33d144	-0.043900743
28	0x3d5ecc2c	0.054393932
29	0xbb400837	-0.0029301771
30	0xbd675348	-0.056475908
31	0xbb52a420	-0.0032141283
32	0xbd818936	-0.06324999
33	0xbd5af4f7	-0.053456273
34	0x3dbd315e	0.09237932
35	0xbe3091a7	-0.17243062
36	0xbd92f7eb	-0.07176193
37	0x3d20aed5	0.039229233
38	0xbd07e10c	-0.033173606
39	0xbdbaaf71	-0.09115494
40	0x3b16f7ba	0.002303584
41	0x3ce4ab35	0.02791367
42	0x3cdcf1b3	0.02697072
43	0xbc8cf632	-0.017207239
44	0x3d1738d7	0.03691944
45	0xbb738f2f	-0.0037164201
46	0xbd1374a9	-0.035999928
47	0xbd1adcb2	-0.037808128
48	0xbccb8db9	-0.024847852
49	0x3cc55ae1	0.024091186
50	0x3dfd1688	0.12357813
51	0xbc606619	-0.013696217
52	0x3d01a87b	0.031654816
53	0x3d27fd3f	0.041013
54	0x3d12f189	0.035874877
55	0xbdda7826	-0.10667448
56	0x3d85f443	0.0654073
57	0xbcc08b99	-0.023504065
58	0xbdc13595	-0.09434048
59	0xbd0af0d6	-0.033921085
60	0x3e23b048	0.15985215
61	0x396f20f0	0.00022805086
62	0x3d4c177a	0.049827076
63	0xbd5b8995	-0.053598005
64	0xbcf594a7	-0.02997811
65	0xbdc55d2a	-0.0963691
66	0xbc78030f	-0.015137448
67	0x3cd6e1d1	0.026230725
68	0xbda2024e	-0.07910596
69	0x3dead55b	0.114664756
70	0xbd3806de	-0.044928424
71	0xbd446b7f	-0.04795408
72	0xbafe85df	-0.0019418559
73	0xbdd14f10	-0.10220158
74	0xbdead9e5	-0.11467341
75	0xbddd6fec	-0.10812363
76	0xbd96172a	-0.07328637
77	0xbe08f610	-0.13375115
78	0x3a857e23	0.0010184686
79	0x3d32570d	0.04354005
80	0xbd4714db	-0.048603874
81	0xbd0160b8	-0.03158638
82	0x3d2668b7	0.040627208
83	0x3c223d80	0.009902358
84	0x3dc26b28	0.09493095
85	0xbd86d864	-0.06584242
86	0x3cce1029	0.02515419
87	0xbd2363cb	-0.039890092
88	0x3c69867a	0.014253253
89	0xbc8a7e0f	-0.016905813
90	0x3e369f94	0.17834312
91	0xbd053119	-0.032517526
92	0x3d9fdecc	0.07806167
93	0xbdaedd58	-0.08538312
94	0xbda10b1f	-0.07863449
95	0x3d7eef80	0.062240124
96	0xbd0b36db	-0.03398786
97	0xbdd6ea98	-0.10493964
98	0xbd913efd	-0.07092092
99	0xbae3b3f2	-0.0017372353
100	0xbcc03aa7	-0.023465468
101	0xbd62d9e3	-0.055383574
102	0x3db9b6f9	0.090681024
103	0xbde7a48e	-0.11310683
104	0x3d915348	0.07095963
105	0xbd3e45b1	-0.04645318
106	0x3dc3b0df	0.0955522
107	0x3cde3afd	0.027127737
108	0xbe22b9b0	-0.15891147
109	0xbd88919e	-0.06668399
110	0xbd858726	-0.06519918
111	0xbc5c47fd	-0.013444898
112	0x3a1c2bc1	0.00059574476
113	0xbd263c47	-0.04058483
114	0xbdac464e	-0.08411847
115	0x3d6483ca	0.055789746
116	0xbc317bca	-0.010832736
117	0x3c150e91	0.009097711
118	0x3cf53135	0.02993069
119	0x3cf53367	0.029931737
120	0xbdd4e409	-0.10395057
121	0xbd679de7	-0.05654707
122	0x3d3b3346	0.045703195
123	0xbd95d390	-0.07315743
124	0x3b8073ef	0.0039200704
125	0x3d023ff8	0.031799287
126	0x3b9dae62	0.004812048
127	0x3d2eaea5	0.042647023
128	0xbd979cb7	-0.07402938
129	0x3cab649e	0.020922001
130	0x3cfd1e36	0.030898195
131	0x3d4ccb57	0.049998607
132	0xbd4d3032	-0.05009479
133	0x3aa92513	0.0012904726
134	0xbdb21f5e	-0.08697389
135	0xbd59e36b	-0.0531954
136	0x3d6f2a26	0.058389805
137	0xbd5aa520	-0.05338013
138	0x3cc1cbf0	0.023656815
139	0xbd31f0b3	-0.04344244
140	0x3d7d96b6	0.061911307
141	0x3d0fe2c7	0.03512838
142	0x3d19450c	0.037419364
143	0x3d73ee4b	0.059553426
144	0xbd88b982	-0.06676008
145	0xbb0a9501	-0.0021145942
146	0xbdb714fe	-0.08939551
147	0xbd8c7a23	-0.06859233
148	0x3c28ebb0	0.0103100985
149	0x3dbb230b	0.09137543
150	0xbd92df54	-0.07171503
151	0xbd900ca1	-0.07033659
152	0xbd88cdae	-0.06679855
153	0xbd76f137	-0.060288634
154	0xbc75e19e	-0.015007405
155	0x3a7006de	0.0009156297
156	0x3d5fd7a0	0.054648995
157	0xbdd1f55a	-0.10251875
158	0xbd6a5a6e	-0.057215147
159	0xbdb9fcb0	-0.090813994
160	0x3db2959a	0.087199405
161	0x3d0b4790	0.034003794
162	0x3ccab7ec	0.024745904
163	0xbd9cfc5d	-0.07665322
164	0xbdc6eedc	-0.097135276
165	0x3ded7dda	0.1159627
166	0xbcc0ec63	-0.023550218
167	0xbd6d663e	-0.057958834
168	0xbc9e5cad	-0.0193313
169	0xbd8d04f3	-0.068857096
170	0x3da324e0	0.07966018
171	0xbdc29f86	-0.09503083
172	0xbcddae41	-0.02706063
173	0x3bd870cc	0.0066052433
174	0x3d225b7e	0.039638035
175	0xbdc7456a	-0.097300366
176	0x3df6bf40	0.12048197
177	0x3ccb8e7f	0.02484822
178	0xbd2d0b6c	-0.04224722
179	0x3cae7c01	0.021299364
180	0x3d9a6c30	0.075401664
181	0x3d8eee36	0.06979029
182	0x3cbf4840	0.023349881
183	0x3d2ecc3d	0.042675246
184	0xbdc9d3f5	-0.09854881
185	0x3de3b304	0.11118129
186	0x3ba8a485	0.0051465654
187	0xbd4d594b	-0.050133985
188	0xbd2ea532	-0.04263801
189	0xbbae25ab	-0.005314549
190	0xbd410e7e	-0.04713296
191	0xbd8a263b	-0.06745573
192	0x3d4b167a	0.049581982
193	0xbd7d5c56	-0.061855637
194	0xbca293ab	-0.019845804
195	0x3daada3e	0.08342408
196	0xbd9df7a1	-0.07713247
197	0xbca021a1	-0.019547286
198	0x3b046ad3	0.0020205274
199	0x3dd5b9ec	0.104358524
200	0x3dc42983	0.0957823
201	0xbd8b5a88	-0.06804377
202	0xbd51db3f	-0.05123448
203	0xbcc93c68	-0.024564937
204	0xbd8c1202	-0.06839372
205	0xbc3a28c7	-0.011362261
206	0xbb62231f	-0.0034505797
207	0xbd7fca26	-0.062448643
208	0xbd321103	-0.043473255
209	0xbbbd0646	-0.00576857
210	0xbd8c320e	-0.06845485
211	0x3cc09c7d	0.02351212
212	0xbd80d810	-0.06291211
213	0xbd889fbf	-0.06671094
214	0xbd775e74	-0.060392812
215	0xbd491615	-0.049093325
216	0xbd1aa41c	-0.037754163
217	0xbde07c6e	-0.10961233
218	0xbda78f2c	-0.08181605
219	0x3b151728	0.0022749398
220	0xbc9b6732	-0.018970106
221	0xbd9395c6	-0.072063014
222	0xbbea0862	-0.0071421126
223	0x3d7edc37	0.062221732
224	0x3bcf40e0	0.0063248724
225	0xbdd4784d	-0.10374508
226	0xbca6df66	-0.020370197
227	0xbda8e1db	-0.082462035
228	0xbd9cbdb1	-0.07653368
229	0x3d511b04	0.051051155
230	0x3ccf3cd7	0.025297565
231	0xbdd70b35	-0.105001844
232	0xbc9b561b	-0.018961957
233	0x3d37b00e	0.044845633
234	0x3d9c78a8	0.07640201
235	0xbda31d67	-0.079645924
236	0xbbb344c0	-0.005470842
237	0xbc0ef6bd	-0.008725819
238	0xbd039146	-0.032120965
239	0x3d326acf	0.04355889
240	0xbbd72150	-0.0065652505
241	0xbd03a1b0	-0.03213662
242	0xbdce2650	-0.10065901
243	0x3d3fea2a	0.046854176
244	0x3dc3632b	0.09540399
245	0x3c07a016	0.008277914
246	0xbdd030cf	-0.101655595
247	0xbc372ba0	-0.011179835
248	0xbba7fb7d	-0.0051264153
249	0xbda87a8b	-0.08226498
250	0xbbc0753b	-0.00587335
251	0x3d274f66	0.040847205
252	0xbc8e4521	-0.017366948
253	0xbd842c0f	-0.06453716
254	0x3d910658	0.07081288
255	0xbc25fdb1	-0.0101312855

gconv1.1.W.bias f4 [140]
0	0xbd75eb11	-0.06003863
1	0xbd45a71d	-0.048255075
2	0xbdb88863	-0.09010389
3	0xbd8aa49b	-0.06769677
4	0x3d86335e	0.06552766
5	0xbd36f02d	-0.044662643
6	0xbc3fcbec	-0.011706334
7	0x3d1ab0c8	0.037766248
8	0xbd10075e	-0.035163276
9	0x3caa8238	0.020814046
10	0x3b30e487	0.0026991682
11	0xbcaeba4b	-0.021329066
12	0xbd8a97f0	-0.06767261
13	0x3d90b15b	0.07065078
14	0x3c8c6722	0.017139021
15	0xbda61e1e	-0.08111213
16	0xbd62bcfa	-0.055356003
17	0x3b853ad2	0.00406585
18	0xbd982a59	-0.07429952
19	0xbbab5fd3	-0.005229929
20	0xbda25481	-0.07926274
21	0x3d4d4237	0.050111976
22	0xbd160922	-0.036629803
23	0x3cae365f	0.02126616
24	0xbb58e66d	-0.003309633
25	0x3d9f66ab	0.07783254
26	0xbbb79fab	-0.0056037507
27	0x3d8492c8	0.06473309
28	0x3d1fe702	0.039038666
29	0xbcfc8b0d	-0.030828023
30	0x3d9b1360	0.07572055
31	0xbb6bcfd9	-0.003598204
32	0xbc06740a	-0.008206377
33	0x3d6b13e3	0.057392012
34	0xbc226669	-0.009912112
35	0xbd8b59a5	-0.06804208
36	0xbbe18094	-0.006881783
37	0xbae9e6ef	-0.0017845313
38	0x3ddff51d	0.109354235
39	0xbdcb315c	-0.09921524
40	0xbd41eeec	-0.047346994
41	0xbdb3a5b4	-0.0877184
42	0x3db9b159	0.090670295
43	0xbd5e248b	-0.05423407
44	0xba7c713f	-0.0009629912
45	0xbd280666	-0.041021727
46	0x3d2ba5b8	0.04190609
47	0xbd721a9c	-0.059107408
48	0x3d623e83	0.055235397
49	0x3d41efa4	0.04734768
50	0xbd872120	-0.06598115
51	0x3c87b6a6	0.016566586
52	0xbd54dd34	-0.05196877
53	0x3c347f19	0.011016631
54	0x3d746935	0.059670646
55	0xbd024e76	-0.031813107
56	0x3dcdf310	0.10056126
57	0xbcc6e0fb	-0.0242772
58	0x3d2dcd0c	0.042431876
59	0x3d03798f	0.03209835
60	0x3d8863df	0.06659674
61	0x3da5c4c0	0.08094168
62	0x3b8e0a1b	0.0043347008
63	0xbd7c2b4a	-0.06156472
64	0x3d7f8e83	0.06239177
65	0xbd0cfb89	-0.03441957
66	0xbda90908	-0.08253676
67	0xbd878d8d	-0.066187955
68	0x3d31b9f0	0.043390214
69	0xbbd5c123	-0.006523268
70	0xbd9cac1c	-0.07650015
71	0xbcf2308e	-0.029564168
72	0x3b35e3f0	0.002775427
73	0x3d51a5ad	0.05118339
74	0xbaee8c7f	-0.001819983
75	0x3c18a11f	0.009315758
76	0xbda9d4ed	-0.082925655
77	0x3dae7435	0.085182585
78	0xbd8068b8	-0.062699735
79	0x3daa1171	0.08304108
80	0x3d262c25	0.040569443
81	0x3cafe1e5	0.02147002
82	0x3d210f0b	0.039320987
83	0xbd5dcab3	-0.054148387
84	0x3c822399	0.015886115
85	0xbd3f5c76	-0.046719037
86	0xbd5d4c4c	-0.05402784
87	0x3d4cfe45	0.050047178
88	0x3ca264ed	0.019823516
89	0xbd00de79	-0.031462166
90	0x3d152b77	0.036418404
91	0xbcec877f	-0.028873203
92	0xbc8cf1c2	-0.017205123
93	0xbdf68815	-0.12037674
94	0x3d54ba5f	0.05193555
95	0xbdab90a0	-0.083771944
96	0x3d28242d	0.041050125
97	0xbcf65a19	-0.030072259
98	0x3d060820	0.032722592
99	0xbda49610	-0.08036435
100	0xbc82d06a	-0.01596852
101	0x3d2f0982	0.042733677
102	0x3cd1475d	0.025546724
103	0xbd9d31d3	-0.07675519
104	0x3ced023b	0.028931728
105	0x3ab6d111	0.0013947805
106	0x3d70490a	0.058663405
107	0xbd8b2d09	-0.06795699
108	0x3d132dd1	0.035932366
109	0x3d9eb9b0	0.07750261
110	0xbd1ffcbf	-0.039059397
111	0x3cb75a8c	0.022382043
112	0xbd3fd5b9	-0.04683468
113	0xbd5f01b8	-0.054445
114	0x3d9b1483	0.07572272
115	0x3ce11e77	0.027480347
116	0x3d536f51	0.05161983
117	0x3dd87bc8	0.105704844
118	0xbd265dd6	-0.040616833
119	0x3a2bf395	0.0006559429
120	0x3d000769	0.031257067
121	0x3db95093	0.090485714
122	0x3c0d043a	0.008606965
123	0x3d02ad84	0.03190376
124	0x3cd87d2e	0.026426878
125	0xbdae6e58	-0.0851714
126	0x3d56dd95	0.05245741
127	0xbd3f3338	-0.046679705
128	0x3d346946	0.04404571
129	0x3b634ef7	0.0034684518
130	0xbcbc951a	-0.023020316
131	0x3d1b844c	0.037967965
132	0x3d59faf4	0.053217843
133	0x3c8846cf	0.016635327
134	0x3d6fe461	0.05856741
135	0x3d29bb53	0.041438412
136	0xbd35fb64	-0.044429198
137	0xbd4747ca	-0.048652448
138	0xbbb2457d	-0.0054404126
139	0x3da837f3	0.082137965

gconv1.1.gate.weight f4 [1, 280]
0	0xbe094409	-0.1340486
1	0x3c10b491	0.008832113
2	0xbda21ca8	-0.07915622
3	0x3dab63a1	0.08368612
4	0x3deeda1d	0.116626956
5	0xbdfcfccc	-0.12352905
6	0xbe1964b8	-0.14979827
7	0x3d95753b	0.072977506
8	0x3d851713	0.06498542
9	0xbd8b37b9	-0.06797738
10	0xbd0c928f	-0.034319457
11	0xbe107cda	-0.14110127
12	0x3d26d46c	0.040729925
13	0xbdbba52a	-0.09162362
14	0xbdd84812	-0.10560621
15	0x3dddc267	0.10828095
16	0xbe19afe5	-0.15008505
17	0xbe303e07	-0.17211162
18	0xbe13304f	-0.14373897
19	0xbe79c9e9	-0.24393429
20	0x3dcf9f74	0.10137835
21	0x3dab01ff	0.0834999
22	0x3d027d59	0.031857822
23	0xbdb1152e	-0.08646618
24	0xbdf669f1	-0.120319255
25	0x3e044513	0.12916975
26	0x3dfecaee	0.124410495
27	0xbd376fa5	-0.044784207
28	0x3d6c04a7	0.057621624
29	0xbd253b75	-0.040339906
30	0xbda5e92f	-0.08101117
31	0x3d56d49e	0.05244886
32	0x3da52fbc	0.08065745
33	0x3cfa5670	0.030558795
34	0x3d10f28f	0.035387572
35	0x3dfeb553	0.124369286
36	0x3d1b8a3d	0.03797363
37	0x3d38f350	0.045153916
38	0xbdcdac1c	-0.10042593
39	0xbda2b30b	-0.07944306
40	0x3dd920df	0.10601973
41	0xbd2911fb	-0.041276913
42	0x3c4be7ee	0.012445433
43	0x3dd3f3e6	0.10349254
44	0x3d330403	0.043704998
45	0x3d8e7d2d	0.06957469
46	0xbd97c46f	-0.074105136
47	0x3dd4eb89	0.10396487
48	0xbcb60c30	-0.022222608
49	0xbde68570	-0.1125592
50	0xbc83d9ec	-0.016095124
51	0x3dc7c750	0.09754813
52	0x3d6b82e9	0.057497893
53	0x3cb8de24	0.022566862
54	0x3d6080e2	0.054810412
55	0xbdf23956	-0.11827342
56	0xbd8e1014	-0.069366604
57	0x3cb5a3f2	0.022172902
58	0x3cc276f5	0.023738364
59	0x3d7f6c6a	0.06235925
60	0xbd94ec0b	-0.07271584
61	0xbddaceb1	-0.106839545
62	0x3d59645e	0.053074233
63	0xbe09a2b3	-0.13440971
64	0x3bcd818b	0.0062715462
65	0x3bafd635	0.0053661116
66	0xbdaa87b0	-0.083266616
67	0xbd2c12bf	-0.042010065
68	0x3e0a1b3e	0.13486955
69	0xbda2c5d7	-0.07947891
70	0xbe152936	-0.14566502
71	0xbdb463f3	-0.08808126
72	0xbd788b09	-0.06067947
73	0xbdb69000	-0.089141846
74	0x3da65785	0.08122162
75	0x3c326d73	0.010890353
76	0xbdd48809	-0.10377509
77	0x3c5eb407	0.013592727
78	0xbda99921	-0.0828116
79	0x3be55fe6	0.0069999574
80	0x3c0616c6	0.008184141
81	0x3d41f62a	0.0473539
82	0xbe2dbe47	-0.16967116
83	0x3dc8a95d	0.097979285
84	0x3d1e8f55	0.03871091
85	0x3e26a93a	0.16275492
86	0xbe150dd7	-0.1455606
87	0xbd597acd	-0.053095628
88	0xbe0d400a	-0.1379396
89	0x3d7ebd7d	0.06219243
90	0xbe99c00e	-0.3002934
91	0xbca59051	-0.020210417
92	0x3d8b5ba1	0.06804586
93	0x3b871965	0.0041229003
94	0x3d4f3daf	0.050595935
95	0xbdb4f224	-0.08835247
96	0x3dc03155	0.09384409
97	0x3d5c4d16	0.053784452
98	0xbc725818	-0.014791511
99	0x3d0f171e	0.034934156
100	0xbac460be	-0.0014982445
101	0xbdbf6af4	-0.093465716
102	0xbe11eef0	-0.14251304
103	0x3d1632b7	0.03666946
104	0xbd5121c6	-0.0510576
105	0x3e05bb1d	0.1305966
106	0x3cf621a8	0.030045345
107	0xbe081776	-0.132902
108	0xbcbf4917	-0.023350282
109	0x3cf98b12	0.030461822
110	0xbdf6b57c	-0.12046334
111	0xbd8f6338	-0.07001346
112	0xbe00360d	-0.12520619
113	0x3da0a61f	0.07844185
114	0xbcca36d8	-0.024684355
115	0x3d3804ed	0.044926573
116	0xbdd04dd5	-0.10171095
117	0xbd49dc3e	-0.049282305
118	0xbcc0d407	-0.023538603
119	0xbe14bf15	-0.14526017
120	0xbcd85f19	-0.026412534
121	0x3e2a2c3a	0.16618434
122	0xbe2dae83	-0.16961102
123	0xbd99297a	-0.07478614
124	0xbb80fd10	-0.0039364174
125	0xbd9a7456	-0.075417206
126	0xbdd5d564	-0.10441092
127	0xbe055029	-0.1301886
128	0xbcce33cc	-0.025171183
129	0x3d2dd9d6	0.042444073
130	0x3dafebc7	0.08589893
131	0x3d32e4eb	0.043675344
132	0xbc23c6da	-0.00999614
133	0xbe02afc0	-0.12762356
134	0x3dcba6e2	0.0994394
135	0xbd5fd11e	-0.05464279
136	0x3cf49b8a	0.029859323
137	0xbd253ee9	-0.0403432
138	0xbd428d11	-0.047497813
139	0x3dccc70c	0.09998903
140	0xbce8a4a6	-0.028398823
141	0x3dd20637	0.10255092
142	0x3bf45afa	0.0074571343
143	0x3c5985f4	0.013276566
144	0xbe2281d7	-0.15869842
145	0xbc61aaa2	-0.013773592
146	0xbdd1b225	-0.102390565
147	0xbc62bbb3	-0.013838696
148	0xbcddf6ea	-0.027095277
149	0xbe094633	-0.13405685
150	0xbdb044be	-0.086068615
151	0xbdcacc97	-0.09902304
152	0x3dea92c9	0.11453778
153	0xbd859f4b	-0.06524523
154	0x3c9d0523	0.019167488
155	0x3d1ce00d	0.03829961
156	0x3e031de3	0.1280437
157	0xbd98c224	-0.074589044
158	0xbcd4ccfe	-0.025976654
159	0xbdfd8355	-0.12378565
160	0xbd81f7d5	-0.06346098
161	0xbdc71352	-0.09720482
162	0xbdf830c1	-0.12118674
163	0xbdb1a659	-0.086743064
164	0xbd8f8b90	-0.07009041
165	0x3cffc00e	0.031219508
166	0xbd823f22	-0.06359698
167	0xbce20a25	-0.027592728
168	0x3c7cd1be	0.015430866
169	0x3c8da7df	0.017291961
170	0xbc8dc511	-0.017305883
171	0xbd91853c	-0.071054906
172	0xbd81c1cd	-0.06335793
173	0xbd954bd3	-0.07289853
174	0xbd245b69	-0.040126238
175	0xbc58f3ee	-0.013241751
176	0xbd941b7d	-0.072318055
177	0x3d15bb98	0.036555856
178	0x3b49b7b4	0.0030779662
179	0x3dea4451	0.114388116
180	0xbcfc9d48	-0.030836716
181	0xbdb95a21	-0.09050394
182	0x3c0b59f1	0.00850533
183	0xbdbf9608	-0.09354788
184	0xbdb0eaa6	-0.08638506
185	0xbdebc6ff	-0.11512565
186	0xbb88e3f5	-0.004177565
187	0xbce2fa8b	-0.027707359
188	0xbcbdffd1	-0.023193272
189	0xbdb0188d	-0.08598433
190	0x3d12b3d1	0.035816018
191	0x3cdec53b	0.027193656
192	0xbd9f36a2	-0.07774092
193	0xbe1a932d	-0.15095206
194	0x3bb1936f	0.005419187
195	0xbd98b1b5	-0.0745577
196	0x3cfbf5a7	0.030756785
197	0xbd896339	-0.06708378
198	0xbd902a52	-0.07039322
199	0x3daa8c0f	0.08327495
200	0x3d688d3a	0.05677531
201	0xbd414866	-0.047188185
202	0xbdc5b5c9	-0.096538134
203	0x3dc5bfa9	0.09655697
204	0xbc4806e9	-0.012208679
205	0xbe1846d8	-0.14870775
206	0x3dbf7e33	0.093502425
207	0x3dd50c95	0.104027905
208	0x3d9c806b	0.07641681
209	0xbd3d728c	-0.04625182
210	0xbcfa590f	-0.030560045
211	0x3da3dcfe	0.08001135
212	0xbd9dbf6c	-0.077025265
213	0xbd095f3e	-0.033538096
214	0xbd4fc96c	-0.0507292
215	0xbdcbe638	-0.0995602
216	0xbd52fd2b	-0.05151097
217	0xbd1307d8	-0.035896152
218	0xbd09083a	-0.03345511
219	0xbdb6aa04	-0.08919147
220	0xbddfb401	-0.10923005
221	0x3d335a4f	0.043787297
222	0xbc9e524f	-0.019326357
223	0x3c2badd4	0.010478456
224	0xbdd6a0a6	-0.1047986
225	0x3d017f0f	0.031615313
226	0xbc83984f	-0.016063837
227	0xbdc910c7	-0.09817653
228	0xbda3786c	-0.07981953
229	0xbce9a41c	-0.028520636
230	0xbdb93319	-0.09042949
231	0xbd58addc	-0.05290018
232	0xbdce1b31	-0.1006378
233	0xbd835e3a	-0.06414457
234	0xbcc905af	-0.024538843
235	0xbc059b0c	-0.008154642
236	0x3c943f77	0.018096669
237	0xbe4c83d7	-0.19972168
238	0xbd1463b9	-0.036227915
239	0x3e10b8b0	0.14132953
240	0x3cd5affa	0.026084889
241	0x3c82565b	0.015910318
242	0xbdc7cc12	-0.0975572
243	0xbd383dc2	-0.04498077
244	0xbd259fd3	-0.040435623
245	0x3d7c14bd	0.061543215
246	0xbd3d2b13	-0.046183657
247	0xbdb3cf0e	-0.08779727
248	0xbdcfde2a	-0.10149796
249	0xbd6b6450	-0.057468712
250	0xbdff4299	-0.12463874
251	0xbdc977c7	-0.09837299
252	0xbd019d1e	-0.03164398
253	0xbd66a37a	-0.056308247
254	0xbdc9ff65	-0.09863166
255	0xbd9c4e99	-0.07632179
