PotentialNet/model/20221121_122838_PN_repeat1/model/epoch-445, train_loss-0.8737, train_rmse-0.9347, valid_rmse-1.3809, valid_pr-0.6878.pt (torch, 330447 bytes, 49 tensors)

stage_1_model.linears.0.weight f4 [48, 48]
00000000: 99eb 4bbf ecf7 d3bc e408 613d dffa 25bb
00000010: 3ff0 10be 0acc 393e cc02 dc3e 79f5 8b3e
00000020: cb17 c63e 48b5 f13d b9ac 5a3d 834f 82be
00000030: d629 54bd 745e 5b3e ed43 9dbe d0a9 613e
00000040: c73b 303e 93ce 213e 20ea a1be 836b a83e
00000050: a910 6cbe 69f7 9d3c a00b d6bd 1b82 d93d
00000060: 8ac3 bf3d aee8 483e 44b8 973d e070 073c
00000070: c2e6 f23e 4b08 d23d b3a6 a9be 6423 d43d
00000080: e882 59bd eb8d 963e 577e 30bf 26bd b5bd
00000090: 3ee9 cf3d 2db1 a23e 4826 9cbd 42eb 3b3c
000000a0: d5c7 db3e 0984 93be 9757 cdbe 681c 2f3f
000000b0: 3233 513e bb26 243e 26ad 7b3e 2a44 06bf
000000c0: e40d 95bc 57d4 01bc 45a6 b53c ef55 0eba
000000d0: 4501 08bd a37b 34be d822 cbbd 7c21 82bd
000000e0: 5410 023e 8c08 cabe b69b a13e 6b2a 08bf
000000f0: e2b8 e1bd cc4d 58bd b69f 0cbd 5ac1 0bbe
00000100: 6a9d af3e 4c3b c1bd cc09 85be 10ac 77be
00000110: 6b9a 99be 61af 84be 15f6 7bbd a525 773e
00000120: 6848 c1bc 3f56 91be 53c6 a9be 3f84 a83e
00000130: 3da7 1dbe fc82 dabe bd95 013f 8f0f 103f
00000140: 919f bdbb a628 013e 556a 823e 8d31 cdbe
00000150: 7e53 4abc 2006 c13d 0002 30be bd48 2dbe
00000160: 24a5 4a3e 88e9 943d bdf4 f43c 8f6e d83e
00000170: 352d f53d 5eb9 c73c 4c2c 913e bb0e 81be
00000180: c3cd 5abe 62d1 5cbe 32c8 873d 86a8 febe
00000190: 911c 793e 8add 05bf f6a2 00be a0c1 3dbe
000001a0: efc2 243f 6499 be3d 62e8 7abe 1184 71bd
000001b0: 01ed 05be 9423 af3e 135f f13d e777 5cbe
000001c0: 1e6f 83be dc21 43be 4542 cabe 3a2e c13b
000001d0: 298f 68bd 8f58 8c3d 8917 b23c 0b80 c33e
000001e0: ea7e 9f3e 3d3d adbd cf29 0bbe 3907 d2bc
000001f0: fa20 863e 249b 28be 6b5b a3bd 9e40 923d
00000200: cdd5 4f3e 577c d8be 41fc 263f 127b 923e
00000210: fbb5 803e 30aa d53e 5a6b 3c3c 5e22 69be
00000220: a650 093d ab28 993d aa09 e0be cb96 a0bd
00000230: 6692 a6bc 776c e83e 728a 8b3e 2255 69be
00000240: fa1b 2f3e 1bec bfbe efc2 0a3f bad7 553c
00000250: b917 f4be f62a 17bf fd84 ed3e 6fe4 2ebb
00000260: 380f 3dbe 8316 36be 1b5e 903d 8e7b 753e
00000270: a872 e3be e210 0f3e 036a bc3d 4b9a 803e
00000280: e444 37be d551 d7be 236f b73e e0d5 85bc
00000290: 1f29 c5bd accd 573e 1f27 233e f6d7 ca3d
000002a0: 0c19 de3e 524d a33e 5e4b 8ebe a5f0 9dbe
000002b0: 3862 ff3b ecb5 9abc 9bd7 a23e db95 c5be
000002c0: bf50 16bf 1f2e 5e3f 7664 e33d 0cd4 f6bc
000002d0: 4a3f 79bc de98 08bf 45cd acbe db0f a63e
000002e0: 1a8c 20be eda0 aabb ee82 cebe f66c 6dbe
000002f0: 30e7 d83c c703 a3be 8213 673e abbc aabd
00000300: a64e b5bd b211 a3bc c070 83be 28c6 7a3e
00000310: 45d2 383c 2148 a23d 1711 fcbe 984b be3c
00000320: d48f e5bd 668f ad3d 4c27 8b3c b219 96bc
00000330: 650c ae3e 0193 0cbc 4d47 08be f9db 6a3d
00000340: 94b9 dd3e fdcb babd 9e8c c1be 112e 90be
00000350: 2d21 b1be 54c5 8b3d 29b4 023e 7927 703d
00000360: 00d5 44bf 502a a8bc 187d ee3d d471 f63d
00000370: af5a f03e 6d0e 25be a344 0d3d 1b58 86bd
00000380: 13f1 023f 6e5b 8ebe a746 6bbc f4cb e9ba
00000390: 2e8d 2ebf 8038 0dbf 8317 553e c1aa fa3e
000003a0: eef0 2c3d 1986 56be c78b c13e a62b cebd
000003b0: 6e4e 723e 6099 94be 16d4 0e3e 7806 043d
000003c0: f82d 873d 8f63 863c d92a 18bf 0608 863d
000003d0: 7b26 23be c8ba 17be 8252 ac3e 7c98 0d3e
000003e0: 67c5 203e c455 18be e182 ba3e 8453 bcbd
000003f0: b9c1 d33e 5abd 493e 3cc9 0dbe 0773 f9bd
-0.7965637 -0.025875054 0.05494012 -0.0025326533 -0.14154147 0.18144241 0.42970884 0.27335718
0.38690028 0.11802155 0.053387377 -0.25451288 -0.05179771 0.2142275 -0.30715886 0.22037435
0.17210303 0.15801458 -0.31623936 0.32894525 -0.2305323 0.019283013 -0.10451436 0.10620519
0.09363468 0.1962001 0.07408193 0.008266658 0.4744168 0.10255488 -0.33134994 0.10358313
-0.053103358 0.2940515 -0.6894278 -0.08873968 0.10151909 0.317758 -0.07624489 0.011469664
0.42925897 -0.28811672 -0.40105888 0.6840272 0.20429686 0.160304 0.2457777 -0.5244776
-0.0181951 -0.007924161 0.02217401 -0.0005429675 -0.033204336 -0.17625289 -0.09918755 -0.06354043
0.12701541 -0.39459646 0.3156411 -0.53189725 -0.11021592 -0.052808568 -0.034332 -0.13647977
0.34299785 -0.09435138 -0.25984037 -0.2418673 -0.30000624 -0.25915053 -0.06151398 0.24135454
-0.023594096 -0.28386113 -0.33159122 0.32913396 -0.15395828 -0.42678058 0.5061911 0.5627374
-0.005786844 0.12613162 0.2547175 -0.40076867 -0.012349008 0.094249964 -0.17188263 -0.16922279
0.19789559 0.07271105 0.029901857 0.4227185 0.11971513 0.024380382 0.28354108 -0.2520655
-0.21367554 -0.21564248 0.06629981 -0.49737948 0.24327303 -0.52291167 -0.12562165 -0.18530893
0.64359945 0.09306601 -0.2450271 -0.05896384 -0.13078691 0.3420683 0.11785712 -0.21530114
-0.25670713 -0.19055885 -0.39503685 0.005895403 -0.056777153 0.06852829 0.021739738 0.38183627
0.31151515 -0.08458946 -0.13590167 -0.02563821 0.26197034 -0.16465431 -0.07976421 0.07141231
0.20296402 -0.42282364 0.6522866 0.2860952 0.2513884 0.41731405 0.011500204 -0.22767016
0.033524178 0.0747846 -0.43757373 -0.078412615 -0.02033348 0.45395252 0.27254063 -0.22786382
0.17100516 -0.37484822 0.54203695 0.0130519215 -0.4767435 -0.5904993 0.46390525 -0.002668645
-0.18462837 -0.17782025 0.07049199 0.23972914 -0.44423413 0.13971284 0.09199908 0.25117716
-0.17897373 -0.4205462 0.35826978 -0.016337335 -0.09626984 0.21074551 0.15932892 0.099044725
0.43378484 0.31894928 -0.27791876 -0.3084766 0.007793691 -0.018885575 0.3180512 -0.38590893
-0.5871696 0.86789125 0.11103146 -0.030130409 -0.015212843 -0.53358257 -0.33750358 0.32433972
-0.15678445 -0.005207172 -0.40334266 -0.23186097 0.026477426 -0.3183882 0.22566035 -0.08336767
-0.088528916 -0.019905899 -0.2567196 0.24489653 0.011280601 0.07923914 -0.4923179 0.023229405
-0.11209074 0.08474617 0.016986512 -0.0183228 0.3399383 -0.00857997 -0.13308449 0.05733869
0.43305647 -0.09120939 -0.37802595 -0.28160146 -0.34595624 0.06824747 0.12764038 0.058631394
-0.7688751 -0.020527989 0.116449535 0.1203343 0.46944186 -0.16118784 0.034489285 -0.065597735
0.511491 -0.2780413 -0.014360107 -0.0017837272 -0.68184173 -0.5516434 0.2080975 0.489584
0.042221956 -0.20949592 0.37801954 -0.10066919 0.23662731 -0.29023266 0.13948092 0.03223273
0.06600565 0.016404895 -0.5944038 0.06544499 -0.15932648 -0.14817345 0.33656698 0.138277
0.15700303 -0.14876467 0.36427978 -0.09195617 0.41358736 0.19701138 -0.13846296 -0.12180143

stage_1_model.linears.0.bias f4 [48]
00000000: 0ba4 dbbc 9d03 3e3d 0b0f 1abd 4a0f c0bc
00000010: b475 873b 65de 98bd 0b71 d83c b735 643c
00000020: ec57 c53c 7750 dbbc 56cc 963c a3ec dc3b
00000030: b4e4 f93c f571 0b3c 7778 12bd 6c35 863c
00000040: e138 8d3c 9ea6 e03b de7d 31bc befe e3bc
00000050: 34a3 4f3d 7a60 bb3a c013 66bd 01c2 deba
00000060: a294 053c fd69 3cbd a0cf 1fbd 8d7c 15bc
00000070: f8b0 d73c 3e1b 40bc 0f35 03bd 5c03 f23c
00000080: 2c35 81bb f119 cd3b 3969 f03c da76 e53a
00000090: 6593 ba3c ffc2 723c 78d8 c1bc 5a4a 723d
000000a0: 59ee a33b 18fe 913c de75 a83c 9aea bbbc
000000b0: 0d93 453c f54b e53c 2c2f 8b3c 4a5a a53a
-0.02681162 0.046390165 -0.037612002 -0.02344479 0.0041339044 -0.074642934 0.02642109 0.013928822
0.024089776 -0.026771767 0.018407982 0.0067420765 0.030504562 0.008511056 -0.035759415 0.016382895
0.017239036 0.0068558 -0.010833232 -0.027831431 0.050692752 0.001429572 -0.05617118 -0.0016995074
0.008153113 -0.045999516 -0.039016366 -0.0091239335 0.026329502 -0.011725245 -0.032033022 0.029542617
-0.003943106 0.006259196 0.02934705 0.0017506734 0.022775361 0.0148169985 -0.02366279 0.05915294
0.0050027785 0.017821357 0.020564016 -0.022939015 0.012058985 0.02799032 0.016990267 0.0012615409

stage_1_model.linears.1.weight f4 [48, 48]
00000000: 0172 253e fc21 f13b 1ebd d13d e680 52be
00000010: 67f8 54be 85cc b7be 349d 893e 2ac9 78be
00000020: dcb1 acbc 9ba2 c43d 840c 00bc 39d2 f0be
00000030: e00c 513e 8879 aa3c ad7a 263f 766b 9cbe
00000040: 0afe 78be d1fc 93be 27ed 973e e326 d5bd
00000050: b0e7 903e 6b5b fe3c 335e a2be 8e8d bd3e
00000060: d4bb a03c f1ef 81bc 4c05 613e 4f93 a9be
00000070: 68d9 1abe c641 793e deb2 c2be 0733 aa3e
00000080: 0761 043e c9cd 133f 40e3 f1bd 95c5 323d
00000090: 9f77 63bd 4baf 213f 513f 3bbe f239 bd3e
000000a0: d2e2 263e f9dd 5e3e a9f8 ca3e 7dab d3bd
000000b0: 6872 8f3d a3a9 7bbe 4d41 993d bfdb a0be
000000c0: bad5 233d 3b59 c3be 4bfe cabe c16b 8b3e
000000d0: b07c fcbd 6c25 243e 3fc1 3cbe e6fc 7fbe
000000e0: fb25 c1bd e0f1 0f3e 9135 f9bd 36bb ffbc
000000f0: b544 813e 3f2f 8a3e cd5a 663d 9f8f 9fbe
00000100: c68f 1f3e 9b7f ea3d 16e8 00bf 39ef 9c3d
00000110: 44df 103f a6e3 2b3e d288 323d 204d 393d
00000120: 2c07 1dbb ec3e a4bd 21fa 1f3e d7a3 cebe
00000130: e917 043f 5ef2 40bd d3f6 953e 4ab2 eabe
00000140: a8c9 77be 28bb 3a3f 2bb9 21be 8743 70bd
00000150: 1195 2fbe 5db0 9e3e 275f cebe 1ecc bd3e
00000160: d66b 8bbe 0151 d63e 7551 1ebe 2ab7 d43d
00000170: d3ff 7cbd 1698 e5be eb4d 86be 67e5 813c
00000180: f265 933e c283 ff3d 9323 3fbc 461d 1abe
00000190: e807 64be 3079 89bd 0942 603f 2a29 a9be
000001a0: 7ee8 11be fb0d 34be f00d a6be 9431 a5bc
000001b0: f4d4 cdbb 041f 82be c06b 62bd c25f 013e
000001c0: b5ab 9bbe bc27 d03d d230 0b3e e0dd 903d
000001d0: 2c83 383e e717 66be a6ec 0cbf d2c4 acbe
000001e0: dbeb 1f3e 382c e0bd 7ff3 693e c968 37be
000001f0: 1966 5fbe 586b 643d 255b 423e a13f 3f3e
00000200: 68f3 b73d d46f 8a3e 0f51 efbd 6a97 7ebe
00000210: 8a80 acbe 8bda 6a3d 81be 30be 2580 bd3c
00000220: caf5 903e 3d0f 653e 068f 8b3d b9ae a6be
00000230: 9835 083e 5a04 2b3e a1a2 74bc 677c 943e
00000240: 0eca 9d3d 14f6 463e 5ae3 983d 3dbb f6be
00000250: b31d 8e3e defc e63d 6529 afbd 2452 75bc
00000260: eecd ef3b f43f 0fbe 8924 833d bf0f 1ebe
00000270: b427 08be 9f8e 533e 24c6 e2be 80e0 14be
00000280: f96d ee3e d1ae f63d 3e64 d93c b6dd b53d
00000290: f4f8 193e bd2b 25bf 9a95 593d 8142 a73e
000002a0: 3f3a e33d a975 debe a827 1a3e 13ff bf3b
000002b0: 96a4 d43e 369a 663c ad20 58be 5a21 433f
000002c0: d426 d3be 37ad 673e db46 5f3e e2ec 273e
000002d0: 9c45 e9bc 0047 223e 169c b93e f069 6c3f
000002e0: ab7d 9e3e da31 d53d 686a 01bf c98a d6be
000002f0: fab6 e93d c69b 0abc c4ff 343e 3225 eebe
00000300: 61fe 09be fed8 f2bd 0c66 533d d071 d6be
00000310: 3749 303e e96d ed3e 0e97 cabc 9625 aabd
00000320: f6c5 a73d 2644 6abe 46af 1cbe c88b 0ebf
00000330: a49b b73d 9949 a63d 2aa0 ebbd 7ce7 ee3d
00000340: 47fc f6bd bc7e 723e 8e9b 3c3f a9ba b93d
00000350: 73ef 093d acd2 8fbd 1cc7 97bc f9d2 3abc
00000360: 8bc6 933d 9fc5 a73e 35b6 983d 20b6 4fbe
00000370: 1549 b63c a03d 963e 7d02 b8be 411e 613e
00000380: 4fb7 a1be c626 0dbe b298 3bbd 86ae 8cbd
00000390: b66a 753e 4313 b13e 6f7c 9f3e 94d5 3ebe
000003a0: 1511 6838 3eee 6abd ad57 98bd 731b 23be
000003b0: 88e1 62bd 817a dd3e 6cb0 233e 748a 6a3e
000003c0: a464 873c e8e9 0dbe dfb3 eabd e9a8 4fbd
000003d0: 3f5f 90bd c5f6 3f3e d82b 63bd af69 98bd
000003e0: ba46 a7bd b44f 19be 8c57 58be 6b85 fe3e
000003f0: 8239 9fbe 6ab9 493d 63a8 06be da90 3bbc
0.1615677 0.0073587876 0.10241149 -0.20556983 -0.20797883 -0.35898224 0.2687775 -0.24295488
-0.021080904 0.09601327 -0.007815484 -0.47035387 0.20415068 0.020809904 0.6503094 -0.30550736
-0.24315658 -0.2890382 0.2967312 -0.10407808 0.28301764 0.03104945 -0.31712493 0.3702206
0.019620813 -0.015861483 0.21974677 -0.331202 -0.15121996 0.24341497 -0.3802709 0.33242056
0.12927638 0.5773588 -0.118109226 0.04364546 -0.055534 0.631581 -0.18285872 0.3695827
0.16297463 0.21764363 0.39642838 -0.10335443 0.07004243 -0.2457643 0.07483158 -0.31417653
0.039998747 -0.38154015 -0.39647135 0.27230647 -0.1232847 0.160299 -0.18433093 -0.24998817
-0.09431072 0.14057112 -0.1216842 -0.031217199 0.25247732 0.2698917 0.056238938 -0.31164262
0.15582189 0.1145012 -0.50354135 0.076628156 0.56590676 0.1678606 0.043587513 0.045239568
-0.0023960574 -0.08019814 0.1562276 -0.40359375 0.51598984 -0.04710614 0.29289874 -0.4583915
-0.2419802 0.7294183 -0.15793292 -0.05865815 -0.17146708 0.3099393 -0.4030697 0.37069792
-0.2723071 0.41858676 -0.15460761 0.10386498 -0.06176741 -0.44842595 -0.26231322 0.015856458
0.28788716 0.12476303 -0.011666196 -0.1505023 -0.22268641 -0.06712568 0.8760076 -0.33039218
-0.14248845 -0.17583458 -0.32432508 -0.020165242 -0.0062814895 -0.25414288 -0.05527854 0.12634185
-0.3040444 0.10163829 0.13592842 0.07073569 0.18018788 -0.22470056 -0.55048597 -0.33743912
0.15617315 -0.10945934 0.22846793 -0.17911066 -0.21816291 0.055766433 0.18980081 0.18676616
0.08981973 0.27038443 -0.116853826 -0.24862447 -0.33691818 0.057337325 -0.17260171 0.023132393
0.28312522 0.22369094 0.06814389 -0.32555178 0.13301694 0.16700879 -0.014931352 0.2900116
0.077045545 0.19429809 0.07465239 -0.48189726 0.27757034 0.11278699 -0.08552817 -0.014973197
0.00731825 -0.1398924 0.06403453 -0.15435694 -0.13296396 0.20659874 -0.44291794 -0.14538765
0.46568277 0.12045062 0.026537057 0.08880179 0.15036374 -0.64519864 0.053121187 0.32667926
0.11095094 -0.43449143 0.1505419 0.0058592646 0.4153182 0.014074853 -0.21106215 0.76222765
-0.4124056 0.2262467 0.21804373 0.16398957 -0.028475575 0.15847397 0.36251897 0.9234915
0.30955252 0.10409899 -0.5055299 -0.4190276 0.11411853 -0.008459991 0.17675692 -0.46512753
-0.13475944 -0.11857794 0.05161099 -0.41883707 0.17215429 0.46372917 -0.024730232 -0.0830795
0.08192055 -0.22877559 -0.15301237 -0.5568204 0.08965233 0.081195064 -0.11505158 0.11665246
-0.12059837 0.23681158 0.7367486 0.09068806 0.033675622 -0.07022604 -0.01852756 -0.011402839
0.072156034 0.3276796 0.07456628 -0.20284319 0.022251645 0.2934389 -0.35939398 0.21984197
-0.31585166 -0.13784322 -0.04579992 -0.06869225 0.23966488 0.34585008 0.31149623 -0.18636161
5.532902e-05 -0.05735611 -0.07438598 -0.1592844 -0.055390865 0.43257526 0.15985268 0.22904378
0.016527481 -0.1385876 -0.11460089 -0.050698195 -0.07049417 0.18746479 -0.055461735 -0.074420325
-0.08167787 -0.1497181 -0.21127146 0.49711165 -0.31098562 0.04924909 -0.13150172 -0.0114481095

stage_1_model.linears.1.bias f4 [48]
00000000: 3f44 913d 891f 353d 1c68 3e3d f1eb 5fbd
00000010: e997 84bc 7300 a8bd b7eb 1fbd 093e 5dbd
00000020: 36aa 30be 0937 dfbc d2c2 84bd d239 c83c
00000030: ccf8 ea3d b39e b4bd 5c61 ab3d 0532 313d
00000040: 48cf 103d 3db8 44bd c3bc 773d b77f 173c
00000050: cfd7 21bd a352 65bd edc7 003d d837 753d
00000060: fdda 553c 0ab6 6a3d 4654 3cbd 3447 393d
00000070: c1a1 8abd a0de 203d 4d1a 0a3d 4bcf 7c3c
00000080: 2541 88bd dd6f 763d 32f4 b53c 6594 47bd
00000090: d6b6 39bb 32e1 053d 33c8 94bb fcdf 11bd
000000a0: 50ea cc3b 6905 45bd 7d2e edbc 28a5 1f3d
000000b0: 1bf4 85bb 1827 7dbd c08d 91bd cddf 38bd
0.07093095 0.044219527 0.046486005 -0.05466837 -0.016185718 -0.08203211 -0.039043155 -0.05401424
-0.1725243 -0.027247922 -0.064824715 0.024441633 0.114732355 -0.08819332 0.08368179 0.043260593
0.03535393 -0.048027266 0.06048275 0.009246758 -0.03951245 -0.05598701 0.031440664 0.05986771
0.013052699 0.057302512 -0.045978807 0.04523392 -0.06769133 0.03927481 0.03371649 0.015430282
-0.0665305 0.060165275 0.022211168 -0.048725504 -0.0028337738 0.032685466 -0.004540467 -0.035614
0.006253518 -0.048100863 -0.028952831 0.038975865 -0.0040879375 -0.06180486 -0.07107115 -0.045135308

stage_1_model.linears.2.weight f4 [48, 48]
00000000: 334f 483e fddc fabc 7e1d bf3e 7dd3 813e
00000010: a115 513e 9c1e 0e3e 69f3 0c3e d8ff 75bd
00000020: 9932 d1bb 0986 40be da5a 0e3e 31d9 cc3e
00000030: 876c 5fbe 89ad ab3e bd21 60be c282 e93d
00000040: 4dad 82be a6cf a3be c3c8 3f3e 594d aabe
00000050: 696a d3bd 8fab a7bc c9af 153d 779c 8abe
00000060: 6cee 033d 063f ac3e 9391 f1bb eab2 78be
00000070: f073 2bbe f96a b93e f9de 04be a4e4 a4be
00000080: e8b9 31bc 0eb0 093f 7c0f 0dbe 6558 793e
00000090: 063a 22bd c0fb bfbd 36d3 043d e365 8d3d
000000a0: 4ac7 8b3d 909a 7abe 835c cb3d c7ea bc3c
000000b0: 9b77 1f3d ecea 18bc 78e8 34be 238c 7d3e
000000c0: a027 b53e ce04 b3be 2fb4 c8be 3336 43be
000000d0: 911d 9c3e 06bd 91be 8b22 be3c 02fc a33d
000000e0: abc6 2bbd 2370 fa3e 66b7 b1bd 6cd9 863c
000000f0: a625 8dbe b680 f63d bbf4 68ba 1aae dd3e
00000100: 07a5 4c3e ed33 883e 6645 16be 2dbd 4fbc
00000110: 7bf4 88bd 2b3e f23d 0409 343e b4e1 4ebd
00000120: 577b 10bf cc91 08be 5029 04bc 7f44 c03d
00000130: 2933 363e 425d 0abf 34de 02be c4e9 51be
00000140: 9410 93be 58bb f43e a088 763e a739 2a3e
00000150: 7016 d73d 6143 ef3c a8d3 de3e 16d1 b8be
00000160: fa26 7d3d 7d24 1dbf 4ec2 c03d c35c 1f3d
00000170: 098f 4c3c 3a8a 473e 4d07 1b3e f430 3b3e
00000180: e877 d23e 3b2a c2be d73a f03d 5b58 0c3d
00000190: 773c d63d 0b6f 1dbb d1d5 963d bd6a 0abf
000001a0: 33b5 8a3e 6a99 ddbd ac83 f7bd b376 98be
000001b0: cde0 cdbe 1665 f1bd c2fc a03d c04f a73e
000001c0: a012 d63d f1bc 4ebe 82c7 3f3e 5c57 6fbd
000001d0: 9b9b 03be 65e6 8e3e 31d9 58be 946a b8be
000001e0: 946b 453d c982 883e a720 77be 74c9 f1bd
000001f0: b453 2abf 33eb d53d ec57 15bd f910 45bd
00000200: 7c3e 01bf 89ce 513e c277 c13c 3a90 8c3e
00000210: 67bd aabc e405 06be bc8d bbbd e5c3 853e
00000220: fd00 c1bb b37e 2bbf 2c73 0ebf f001 9a3e
00000230: 94fc 58be 19e9 ebbe cbd4 953d 555d b4bc
00000240: 8197 7e3e f766 02be 3e8b 39be 45c0 05be
00000250: e7e8 cd3e c198 b43d 3f4e 1b3e 149c b23d
00000260: 56a0 d1be ce23 273e 8a38 a33e 402d 32be
00000270: 8903 82be 46b9 1cbe afde de3e 9691 4f3e
00000280: 4554 413b 35fe 0abe 543b 053e e9d4 e93a
00000290: 23e2 4a3e 4008 bfbc 79fa d33e 88e7 1fbf
000002a0: 154e 693d 6afd dfbd 406b 4a3e 1165 5abe
000002b0: e63b 2dbe f264 fc3d 1f24 32be 477a 923d
000002c0: ab70 4b3e 1310 08be 41e8 05be 470c 00be
000002d0: 8203 bdbb d307 37be d451 bc3d 2b21 0b3e
000002e0: c752 833e 97ee 6cbd e7c4 9bbe be92 b2be
000002f0: 6b1c 4bbe d8b4 2bbe aefd 8dbd 7b25 303e
00000300: 51e2 103d 8036 6dbe df6e abbe ae34 d4bc
00000310: adcf af3e a8a3 6e3e 5109 083d 2872 543e
00000320: 202c d23d a97b 6ebe 01b6 9f3e 2efb f23c
00000330: 07b7 ad3b 8914 96be 14e0 92bc c097 c2be
00000340: ebb9 ac3e a54d 343e d3c7 4abe 61c4 823e
00000350: 26c8 453e c0af 64be 9990 3f3e a2a1 bd3e
00000360: 5db7 6d3e abb6 053e 1fa7 1c3f 6ed1 75be
00000370: 6099 66be f62b a1be 1ba7 ca3d 8fdc e7be
00000380: f96e 0cbe ac84 51bf 2ab5 87bd 7f79 203e
00000390: 69af 883e d8bb d03d 525b 9e3e 1a68 64be
000003a0: 20dc 85bd c12b b43e 0497 813e 0241 25bf
000003b0: 93ec f43e fe71 1c3f f013 adbe 63f1 383d
000003c0: 03bb fbbe 008d 0cbf 3252 993e 403b ac3e
000003d0: e78e 0c3e df29 2f3c b399 b53e 5f3b 96bd
000003e0: 34e9 31bf cc69 00bd 5b79 c1bd 2765 703d
000003f0: 3520 2f3f 1c46 be3d 6fd5 07be 5eab 2f3e
0.19561462 -0.030622954 0.37327188 0.25356665 0.20418407 0.13878864 0.13764729 -0.060058445
-0.0063842055 -0.1880113 0.13901845 0.40009454 -0.21818744 0.33530834 -0.2188787 0.11401893
-0.25522843 -0.3199436 0.18728928 -0.33262137 -0.103230305 -0.020467548 0.036544595 -0.27072498
0.0322098 0.33641833 -0.00737209 -0.24287 -0.16743445 0.36214426 -0.12975682 -0.3220569
-0.010847546 0.53784263 -0.13775438 0.24350126 -0.039606117 -0.093741894 0.03242799 0.06904199
0.06825121 -0.24473023 0.099297546 0.02306117 0.038932424 -0.0093333535 -0.17666805 0.24760489
0.35381794 -0.34964603 -0.3919997 -0.19063644 0.30491307 -0.28464526 0.02320983 0.08007051
-0.04193751 0.4891368 -0.086775586 0.016461097 -0.27567786 0.120362684 -0.00088865653 0.4329689
0.19984828 0.26602116 -0.14674911 -0.01267938 -0.06687256 0.11828264 0.17581564 -0.050508216
-0.564382 -0.13336867 -0.00806649 0.093880646 0.17792954 -0.5404855 -0.12780076 -0.20499331
-0.28723586 0.47799182 0.24075556 0.16623555 0.105023265 0.029206933 0.43520856 -0.3609702
0.06180475 -0.613838 0.09412061 0.038906824 0.012485274 0.19486323 0.15139504 0.18280393
0.41107106 -0.37922844 0.11729973 0.03426395 0.104607515 -0.0024022486 0.07365001 -0.5406912
0.2709137 -0.10820277 -0.12085661 -0.2977806 -0.40210572 -0.11786859 0.0786071 0.32678032
0.10452771 -0.20189263 0.1872845 -0.05843292 -0.12852328 0.27910152 -0.21176602 -0.36018813
0.048198298 0.2666228 -0.2413355 -0.11806002 -0.6653397 0.10445251 -0.036460802 -0.04811189
-0.5048597 0.20488943 0.023616675 0.27453786 -0.020842267 -0.13088185 -0.09157893 0.26126018
-0.0058900104 -0.669902 -0.5564449 0.30079603 -0.21190101 -0.46076277 0.07315978 -0.02201716
0.24862482 -0.1273459 -0.18119523 -0.13061626 0.40216753 0.08818198 0.15166567 0.08721176
-0.4094264 0.16322252 0.31879073 -0.17400074 -0.25393322 -0.15305051 0.4352927 0.2027038
0.0029499691 -0.13573535 0.13010913 0.0017839941 0.19812827 -0.023319364 0.41402033 -0.62462664
0.05695923 -0.10937007 0.19767475 -0.21327616 -0.1691738 0.12323941 -0.17396592 0.07152229
0.19867198 -0.13287382 -0.13076879 -0.12504683 -0.0057682404 -0.17874078 0.09195295 0.13586871
0.25649092 -0.057844725 -0.30423662 -0.3487758 -0.1983506 -0.16768205 -0.06933151 0.17201798
0.035372082 -0.23165321 -0.33483025 -0.025904026 0.34338132 0.23304617 0.03321201 0.20746672
0.102623224 -0.2328936 0.31193545 0.029660787 0.0053013596 -0.29312542 -0.017929114 -0.380064
0.33735594 0.17607744 -0.1980279 0.2554045 0.19314632 -0.22332668 0.18707503 0.3703738
0.23214479 0.13057964 0.61192507 -0.24005672 -0.22519445 -0.31478852 0.09895154 -0.4528546
-0.13714208 -0.81843066 -0.06626351 0.15671347 0.26696327 0.10192078 0.30929047 -0.22305337
-0.06536126 0.35189632 0.25310528 -0.6455232 0.47836742 0.6111144 -0.33804274 0.04515208
-0.49166116 -0.5490265 0.29945523 0.33638954 0.13726388 0.010691135 0.35468826 -0.07335543
-0.69496465 -0.031350896 -0.09446975 0.058690216 0.6840852 0.09290716 -0.13265012 0.17155215

stage_1_model.linears.2.bias f4 [48]
00000000: fd9a e73d 5262 5ebe d7c1 03be 1295 903c
00000010: 48fe 31be 2dac 9cbd fda8 313d b2d7 3d3b
00000020: 19c8 643e 8348 353c fc2b 9a3d eb63 743e
00000030: 5e43 083e 02db 513d 8b71 953e 0a3c 67be
00000040: f4b9 47bd c5b9 a63e f0ef 7a3e 9a27 873d
00000050: 5098 813d 9e4f 02bd f8b9 f1bd 1b4a 8e3e
00000060: 429d 3bbe ae28 be3d 8f5f d63d 00c7 07bb
00000070: 18af fc3c 5f62 823e 7314 2dbe 547a 0abe
00000080: 52c9 153d a211 fdbd 8dee 7dbe 2496 debd
00000090: 8678 36be e3fb 4b3e 69ba c4be 2522 f1bc
000000a0: 7c8f 32be 2ecc 94bd fd10 44bd dcae 7c3a
000000b0: adf7 ad3d 837b 453e d4b1 3ebc ad39 10be
0.113088585 -0.21717194 -0.12866913 0.017649207 -0.17382157 -0.076500274 0.04337405 0.0028967676
0.22341956 0.011064651 0.075279206 0.2386624 0.13306949 0.051234253 0.2918819 -0.22581497
-0.048761323 0.32563606 0.24505591 0.0659935 0.063278794 -0.03181421 -0.11803049 0.27790913
-0.18321708 0.09285103 0.10467445 -0.0020717978 0.03084521 0.25465676 -0.16902332 -0.13523227
0.036568947 -0.12356879 -0.24798031 -0.10868481 -0.17819414 0.19920306 -0.3842347 -0.029435227
-0.17437547 -0.07265507 -0.047867764 0.0009639093 0.08494506 0.19285397 -0.011639077 -0.14084502

stage_1_model.linears.3.weight f4 [48, 48]
00000000: fb6d 0880 64ad 4080 143d 1e00 0e41 4300
00000010: 5101 0780 d9b2 2a00 7f2f 1a80 8e26 1f80
00000020: 2869 1a80 2008 4900 bd1b 1400 f7f9 4880
00000030: 724a 3880 a263 2080 5a25 2a00 9c7a 0f00
00000040: 5d0b 1380 81d2 2500 4cfc 4900 5038 1900
00000050: b50d 3800 0af8 1c00 2551 3700 8a71 4800
00000060: 6242 2500 27a8 0e80 8539 3d00 b2a4 3b80
00000070: 2913 2380 ad49 3f80 c2ba 2700 e18b 4900
00000080: fbbd 4500 98b9 3d00 82f6 2780 e081 3880
00000090: c6c0 1d80 f201 2400 501d 0c80 f1d8 0b00
000000a0: d2a7 1f80 a240 3e80 962c 2400 0232 3000
000000b0: 0f42 0880 f889 3380 df67 4480 c4dc 2180
000000c0: aceb 0280 0e30 0180 8b34 2600 8e87 2200
000000d0: 38f0 3c80 3a97 0880 d10f 2700 7120 1080
000000e0: 075d 3a00 9c54 4b80 2e8b 4800 96ea 2780
000000f0: 21cc 1e80 d8e5 2000 d262 4000 b188 3300
00000100: eb73 4b00 98be 0900 8949 1b00 be20 3d00
00000110: f6db 2500 c0c6 3c80 e776 0880 24a9 1080
00000120: f6e5 1d80 3bea 1400 abca 0f00 186a 2780
00000130: d317 3800 fbb5 2480 5b25 3580 eaa5 4780
00000140: 865d 0580 84c2 4800 2020 4b00 d9fb 1d80
00000150: ad7d 3c80 d1ad 3200 3b2d 4180 df4e 2980
00000160: 28bc 0980 8c16 3b80 091d 4280 98ca 1d00
00000170: 1855 3180 7e66 3980 2ca3 3b00 83cf 1080
00000180: c9c0 2780 72d7 1a00 ad81 4880 b23d 4080
00000190: cc07 1400 b5ad 4580 762f 3600 4768 3500
000001a0: c03c 3300 a712 2b00 dc0d 2880 14fc 2a80
000001b0: a66f 1c80 b783 3b00 4e23 4800 2f27 4980
000001c0: 9b6d 4180 cd83 1a00 f16b 2180 0f94 2780
000001d0: 1d7f 3000 5d43 1a00 5139 1e00 ee0b 4c80
000001e0: 168b 4800 2856 0000 f806 3e00 1604 3480
000001f0: 0545 1880 4072 1a00 a962 4200 6091 4b80
00000200: 0ecf 2e00 a130 4700 3d92 2000 4059 2200
00000210: 0cab 4900 cc52 3580 b268 2a00 66c3 1980
00000220: 2388 3c80 55a3 4280 8672 3e80 ba89 4900
00000230: d999 2e80 7285 4800 071e 1200 7a69 0480
00000240: a964 3600 f886 1680 b075 1a00 7cba 2900
00000250: fe97 1d00 66ee 4a00 3c92 2500 10f9 3600
00000260: e5bd 4300 f131 0000 8774 3b80 6224 2300
00000270: 91cc 0100 40a2 2780 2905 0200 d311 1f00
00000280: 4719 0a00 8e05 4980 200a 2180 7457 0580
00000290: df10 4700 2e6d 2d80 c47d 4980 eba8 2500
000002a0: 8c4d 4000 e4f7 2000 ad07 1f00 621d 4780
000002b0: 6667 2f00 0055 1180 7f74 2d80 9a57 2000
000002c0: 95b6 0c80 13d7 2d00 2f6a 0100 c035 2500
000002d0: 7c94 1e00 cf5f 0680 d5d6 1900 e1cd 1000
000002e0: 52a7 2000 6352 1400 7a4a 1280 fd9c 2c00
000002f0: b30b 1e80 bf3c 2480 e849 3e80 7e6c 0900
00000300: cf29 1d00 858f 3800 224e 0280 9176 2500
00000310: 2d8f 1e00 9336 4600 be12 0880 6263 1780
00000320: 5f64 3500 24b4 0700 582a 4c80 1f21 1880
00000330: 7e88 2e80 8fbf 3700 9066 0000 0193 4580
00000340: 33ec 4b00 228e 1080 04fa 0000 ce86 3500
00000350: 63cc 2300 2536 4000 39a0 0100 a8ff 3c00
00000360: a7a5 0580 eee6 0e00 70ca 4880 f75e 2180
00000370: 7f7e 2f00 fa4f 1b80 e403 2800 0e80 4100
00000380: 47ef 1480 738d 2400 a903 3200 24f7 1c80
00000390: 7231 2280 7ff0 1d00 c1d6 3400 0ccc 4b80
000003a0: e48e 4780 74e1 4880 c2f3 3a80 ba8b 1d00
000003b0: 5d46 1300 8e6d 0280 0222 3980 895e 2780
000003c0: f5eb 4100 e288 1600 1a98 4000 cf51 4200
000003d0: 141a 0e80 5840 1100 82cb 3080 831e 2900
000003e0: 9632 3980 622f 2600 f71a 0000 311f 4b80
000003f0: b080 0a80 cbc1 4880 6553 0880 3be0 0280
-7.74138e-40 -5.939673e-39 2.776976e-39 6.176315e-39 -6.43321e-40 3.921249e-39 -2.404761e-39 -2.860731e-39
-2.425446e-39 6.706906e-39 1.84666e-39 -6.701826e-39 -5.169494e-39 -2.974477e-39 3.87049e-39 1.421516e-39
-1.748951e-39 3.473428e-39 6.794498e-39 2.316089e-39 5.147705e-39 2.660374e-39 5.080061e-39 6.652886e-39
3.421727e-39 -1.346019e-39 5.6226e-39 -5.477376e-39 -3.221116e-39 -5.812066e-39 3.64858e-39 6.75417e-39
6.404801e-39 5.668544e-39 -3.670015e-39 -5.189378e-39 -2.732383e-39 3.306776e-39 -1.112541e-39 1.088014e-39
-2.907103e-39 -5.716987e-39 3.322072e-39 4.426043e-39 -7.58381e-40 -4.733104e-39 -6.282076e-39 -3.109767e-39
-2.68214e-40 -1.09074e-40 3.508598e-39 3.171035e-39 -5.596304e-39 -7.88934e-40 3.587258e-39 -1.481006e-39
5.35983e-39 -6.918014e-39 6.662084e-39 -3.665738e-39 -2.828293e-39 3.021188e-39 5.912922e-39 4.732646e-39
6.929246e-39 8.94892e-40 2.505938e-39 5.613711e-39 3.47682e-39 -5.581428e-39 -7.77338e-40 -1.530044e-39
-2.745724e-39 1.920736e-39 1.450236e-39 -3.619644e-39 5.151334e-39 -3.37136e-39 -4.880682e-39 -6.579839e-39
-4.92727e-40 6.681935e-39 6.899186e-39 -2.753575e-39 -5.555214e-39 4.654128e-39 -5.985533e-39 -3.793549e-39
-8.94017e-40 -5.426383e-39 -6.071559e-39 2.735906e-39 -4.530465e-39 -5.27139e-39 5.47683e-39 -1.543809e-39
-3.650743e-39 2.46501e-39 -6.658675e-39 -5.899604e-39 1.839507e-39 -6.398964e-39 4.976143e-39 4.904689e-39
4.705403e-39 3.955618e-39 -3.678392e-39 -3.94752e-39 -2.611446e-39 5.465545e-39 6.62482e-39 -6.718048e-39
-6.008626e-39 2.435004e-39 -3.069293e-39 -3.634698e-39 4.453703e-39 2.411888e-39 2.775626e-39 -6.983777e-39
6.66205e-39 3.0907e-41 5.6963e-39 -4.776912e-39 -2.228811e-39 2.428708e-39 6.096535e-39 -6.939813e-39
4.29871e-39 6.537765e-39 2.991196e-39 3.154424e-39 6.765351e-39 -4.896983e-39 3.894648e-39 -2.365983e-39
-5.558966e-39 -6.119735e-39 -5.734884e-39 6.753398e-39 -4.279623e-39 6.660027e-39 1.663811e-39 -4.0518e-40
4.995227e-39 -2.068799e-39 2.429941e-39 3.832153e-39 2.717754e-39 6.881348e-39 3.450372e-39 5.048464e-39
6.2211e-39 1.7916e-41 -5.460096e-39 3.227294e-39 1.6522e-40 -3.639789e-39 1.85522e-40 2.853295e-39
9.27423e-40 -6.705984e-39 -3.034204e-39 -4.9055e-40 6.526372e-39 -4.171764e-39 -6.749107e-39 3.45851e-39
5.90529e-39 3.027662e-39 2.849654e-39 -6.530861e-39 4.35336e-39 -1.591696e-39 -4.174388e-39 2.970161e-39
-1.167524e-39 4.209751e-39 1.29927e-40 3.417195e-39 2.808331e-39 -5.85383e-40 2.372955e-39 1.543223e-39
2.998759e-39 1.866265e-39 -1.679756e-39 4.097079e-39 -2.759262e-39 -3.32787e-39 -5.720313e-39 8.65439e-40
2.678227e-39 5.194273e-39 -2.117e-40 3.440447e-39 2.806427e-39 6.448062e-39 -7.41407e-40 -2.147868e-39
4.903288e-39 7.07471e-40 -6.994688e-39 -2.215934e-39 -4.273397e-39 5.11967e-39 3.6792e-41 -6.389384e-39
6.972395e-39 -1.520356e-39 8.9689e-41 4.91564e-39 3.287563e-39 5.896895e-39 1.49313e-40 5.601842e-39
-5.18602e-40 1.368539e-39 -6.684777e-39 -3.064638e-39 4.361647e-39 -2.508249e-39 3.674816e-39 6.015245e-39
-1.922546e-39 3.35682e-39 4.593088e-39 -2.660051e-39 -3.140145e-39 2.749503e-39 4.852485e-39 -6.96086e-39
-6.57158e-39 -6.693033e-39 -5.413903e-39 2.713354e-39 1.770116e-39 -2.22972e-40 -5.246823e-39 -3.615497e-39
6.053953e-39 2.069485e-39 5.932036e-39 6.09049e-39 -1.295052e-39 1.584286e-39 -4.481109e-39 3.776201e-39
-5.25277e-39 3.506747e-39 9.673e-42 -6.898852e-39 -9.6452e-40 -6.681676e-39 -7.646e-40 -2.6411e-40

stage_1_model.linears.3.bias f4 [48]
00000000: 0000 0000 0000 0000 0000 0000 0000 0000
00000010: 0000 0000 0000 0000 0000 0000 0000 0000
00000020: 0000 0000 0000 0000 0000 0000 0000 0000
00000030: 0000 0000 0000 0000 0000 0000 0000 0000
00000040: 0000 0000 0000 0000 0000 0000 0000 0000
00000050: 0000 0000 0000 0000 0000 0000 0000 0000
00000060: 0000 0000 0000 0000 0000 0000 0000 0000
00000070: 0000 0000 0000 0000 0000 0000 0000 0000
00000080: 0000 0000 0000 0000 0000 0000 0000 0000
00000090: 0000 0000 0000 0000 0000 0000 0000 0000
000000a0: 0000 0000 0000 0000 0000 0000 0000 0000
000000b0: 0000 0000 0000 0000 0000 0000 0000 0000
0.0 0.0 0.0 0.0 0.0 0.0 0.0 0.0
0.0 0.0 0.0 0.0 0.0 0.0 0.0 0.0
0.0 0.0 0.0 0.0 0.0 0.0 0.0 0.0
0.0 0.0 0.0 0.0 0.0 0.0 0.0 0.0
0.0 0.0 0.0 0.0 0.0 0.0 0.0 0.0
0.0 0.0 0.0 0.0 0.0 0.0 0.0 0.0

stage_1_model.linears.4.weight f4 [48, 48]
00000000: 79f7 dc3c dd76 513e 1bb1 d8be 33a8 5dbe
00000010: e0db 4b3c 2f63 143d b2dd fdbd 5f43 3ebe
00000020: 9f8b 023e 6c9e 33be 6f58 793e 1a04 b1bd
00000030: 3485 45bd 54d9 f03e bb3d 583d 847a 8ebe
00000040: f2d2 c0be d5e7 db3b e9f7 8b3e c41a 89bd
00000050: 9b03 8b3e b144 b63d 9c8d 95be a8da bc3d
00000060: d807 3dbd 7bd1 2cbf 8630 0b3d bc29 0fbe
00000070: 454c fbbe 0780 06bd 455b 9a3c 7275 f23e
00000080: 9f70 0b3d 8943 f83e 2d4f 1b3e 950b ca3d
00000090: ecae afbe 5ae9 7abe 1a5e d4bd abf9 263e
000000a0: e215 d53b 2eca d7bd d8bf 9abd 4cbc 103f
000000b0: 53d0 57be e3a4 c3be 88a8 27bd c13e 38be
000000c0: 95fa 513e 67f4 7a3d b068 fabd a870 e83c
000000d0: 618b f9be 9f2e 02bf 38fa 83be cf3e f63d
000000e0: d60b e9be 4640 77be 8235 b2bd 97ec 353d
000000f0: 447f 9f3e 6be0 a4bd 31b0 1abe e92d 2fbe
00000100: cf8c 4fbd 461c 353e e061 d63e e1a5 16bf
00000110: ebfe b3bd f2f1 8cbe b67f edbd e468 973e
00000120: 5313 b13d 67e1 ce3c f25c cabc 1acb 08bd
00000130: 168b e1be c56e 803e a121 89bd 4b23 003e
00000140: ee6c f8bd 45d4 43be f88b 3a3e 432f 053d
00000150: fe39 c8be 3da7 863d 9d51 12bf 04fd 783e
00000160: 810d 053d aef9 a53e 9b3f 803e 2fd7 113e
00000170: 6d84 9bbd 4142 81be 50bb e1bd dcf9 e4bc
00000180: ec33 01be 99ac 53be b384 a4be 6b87 073e
00000190: 7567 7fbe 8aab 183e 0102 933e 41ea 273e
000001a0: 6a75 24be c0d8 553d f574 493e 2e36 2bbd
000001b0: 777f 95be 93cb d8be 60b0 5a3e 2ed3 c73d
000001c0: f717 293e c9fd 85be 09e5 213f 7db0 5fbe
000001d0: bc8a a73e 4c59 71be ab1f e1bc f0a2 1539
000001e0: 1d9c b3be 66a9 6c3e 5b57 d1bb d3ee bfbd
000001f0: 71f6 493e bec0 383e c4b5 96be c5c6 fe3b
00000200: 49d6 7c3e fa5b 15bf ab46 d83e 5ee2 873e
00000210: d9d5 953d 06c8 e23e cb03 773d 871e 483e
00000220: 58bb 1ebc af2c 013e f1e5 fe3e 6f1d 803d
00000230: e13f 54bc 98ba 8a3e 8a56 dcbe 7888 64be
00000240: 3c17 b7bd e35c d7be cb12 15be 998c ff3e
00000250: b599 013f 971f 403e de0a bebe 4a4e 2e3d
00000260: 0e6c 55be 479a fb3d 7bae 2abe a9b1 10be
00000270: 0487 ebbe b209 0e3e aec7 2c3e 9bbe c53e
00000280: 647d c53e c073 9fbe 1328 af3d 3a96 7c3e
00000290: 2528 debe b0d5 153d 2696 9e3e cc17 40be
000002a0: 0976 da3e d0d7 2cbd 95ac 40bd 43de dfbd
000002b0: 20ee 803e 4f0b 253e d98f 53bd ecfc 17be
000002c0: f322 2abe a954 ad3c 9390 a9be 1a45 a23e
000002d0: 8a25 9c3d 2507 68bc 0422 a8be f849 9b3e
000002e0: 3753 15be 375c febe eefe 963e 0639 2abd
000002f0: 0ca4 bbbd 6c23 57be b9bd 37bd 7ea3 7fbc
00000300: 3ef5 28be 48ea b4bd ad3b 433e 96e3 593c
00000310: 42ad 103e e6e1 0b3e 70cf 04bf 3b7d 9a3d
00000320: 97eb 863e f13b 3e3e a5f4 c93e fd1b 673e
00000330: f203 d83d 39ff 91bd 2a86 a2be 53e2 84be
00000340: a837 063f c79c 2b3d 1fc2 193e de82 d63d
00000350: 7f64 8bbe 420c 7d3e 1b20 383e 4aa4 e53d
00000360: aed4 4f3e e85d 4abd dd23 5a3e 6236 c2be
00000370: 7860 373e 8c84 cebc d148 a43e 90bc bdba
00000380: 33d7 043e 6a10 633e 93f6 e3be 9910 9abd
00000390: bd0f 06bf ce79 f23e 2b13 72be 62f8 0c3e
000003a0: 284f 06be 6ff2 d1bc ecb1 ac3e cdd7 bcbe
000003b0: 65f6 873d e2ba 8e3e cb56 163f 5ebe 223f
000003c0: fa7f 8a3e 5bea a4be b6c9 24bf 824b 5a3e
000003d0: 918c 1cbe 7c5e fe3e c72d 003e f82c 6d3e
000003e0: 9687 463d c772 85be 88f6 943d 1cac 6dbe
000003f0: dd43 c53d 1e81 533e ae37 51be 8aee cabd
0.026973473 0.20455499 -0.4232262 -0.21646194 0.012442559 0.0362274 -0.12395801 -0.18580388
0.12748574 -0.17540902 0.24350141 -0.086433604 -0.048222736 0.47040808 0.052793246 -0.27827847
-0.37660939 0.006710986 0.27337578 -0.06694558 0.27151188 0.088998206 -0.29209602 0.09221393
-0.04615006 -0.6750714 0.033981822 -0.13980764 -0.49081627 -0.03283694 0.018842349 0.4735523
0.03404295 0.48489025 0.15166922 0.0986549 -0.34313142 -0.24503079 -0.10369511 0.16306178
0.006502853 -0.105366096 -0.075561225 0.5653732 -0.21075563 -0.38211736 -0.04093221 -0.17992689
0.20505746 0.061268236 -0.12226999 0.028374031 -0.4873915 -0.5085239 -0.2577684 0.120236985
-0.45516843 -0.24145612 -0.08701612 0.044415083 0.31151783 -0.08050617 -0.15106274 -0.17107357
-0.050671395 0.17686567 0.41871548 -0.5884686 -0.08788856 -0.2752834 -0.115966246 0.29572213
0.08646264 0.025253965 -0.024702523 -0.033396818 -0.44051427 0.2508451 -0.06695867 0.12513463
-0.12130152 -0.19123943 0.18217456 0.032515775 -0.39106745 0.06574867 -0.5715578 0.24315268
0.03248358 0.32417053 0.25048527 0.14242242 -0.075936176 -0.2524586 -0.11022055 -0.027951173
-0.12617463 -0.2067131 -0.3213249 0.13235252 -0.2494181 0.14909187 0.28712466 0.16397955
-0.16060415 0.052208662 0.19673522 -0.041799717 -0.2919881 -0.42342815 0.21356344 0.09757076
0.16513048 -0.26170185 0.63240105 -0.21844669 0.32723033 -0.2356922 -0.02748092 0.00014270446
-0.35080042 0.23111495 -0.0063885874 -0.09371724 0.19722916 0.18042275 -0.2943555 0.00777516
0.24691118 -0.5834347 0.42241415 0.26539892 0.07316179 0.4429323 0.06030635 0.19542895
-0.009688221 0.12614702 0.49784806 0.06255614 -0.012954683 0.27095485 -0.43034774 -0.22317684
-0.089399785 -0.42063054 -0.1455795 0.49911955 0.50625163 0.1876205 -0.37117666 0.04255513
-0.20842001 0.122852854 -0.16668122 -0.14130272 -0.46001446 0.13870886 0.16873047 0.38621983
0.38572228 -0.31142998 0.085525654 0.24666682 -0.43390003 0.03658074 0.3097393 -0.18759078
0.4266818 -0.042198002 -0.047039587 -0.10931065 0.25181675 0.16117595 -0.051650856 -0.14842576
-0.16614895 0.021158533 -0.33118114 0.31693345 0.076243475 -0.01416186 -0.32838452 0.3032987
-0.14582525 -0.4967973 0.2949137 -0.041558288 -0.09162149 -0.21009606 -0.044858668 -0.015602944
-0.16499802 -0.08833748 0.19065733 0.01329889 0.14128593 0.13660392 -0.51879025 0.07543417
0.26351616 0.18577553 0.3944446 0.2256927 0.105476275 -0.07128758 -0.31742984 -0.25953922
0.52428675 0.04189756 0.15015458 0.1047418 -0.2722511 0.24711707 0.17980997 0.11212976
0.20295975 -0.049405962 0.21302743 -0.37932116 0.17907894 -0.025209688 0.32086805 -0.0014475752
0.12972717 0.2217423 -0.4452406 -0.07522697 -0.52367765 0.47358555 -0.23640124 0.13766626
-0.13116133 -0.025628297 0.33729494 -0.36883393 0.06638793 0.27876955 0.58726186 0.6357173
0.27050763 -0.3221005 -0.64370286 0.21317866 -0.15287997 0.4968146 0.12517463 0.23161685
0.04846915 -0.2606413 0.072735846 -0.23210186 0.096320845 0.20654723 -0.20431396 -0.09908779

stage_1_model.linears.4.bias f4 [48]
00000000: 5c8e c1bd 1717 1dbd e185 4fbd e7c2 12bd
00000010: d36d 123c 03c0 cabd 48b2 a33c fbb3 1fbc
00000020: e88a b9bc 46ef 8b3d d987 a3bc 1702 e9bc
00000030: 3354 473c e716 16bc ddf9 9bbc e762 873d
00000040: 82e6 91bc 7399 3dbd a3ed 5d3c d978 d53c
00000050: f6f5 343c 4936 27bd 4e32 adbb 7bbd 033d
00000060: b821 373d 13c0 e4bd 7187 60bd 36a2 de3c
00000070: ff95 bfbb b51f 2c3c e84a 0ebd 6006 ad3c
00000080: 941d 73bc ef0f 8f3d e7da eb3c 9833 543d
00000090: a217 763d c595 82bc 8295 5ebc 87c6 b53d
000000a0: 8629 263d 5898 a3bc 0bdd 643d d7ec 783d
000000b0: d112 8e3d 6705 803c ed45 353d 6af1 83b9
-0.09450981 -0.0383521 -0.050664786 -0.035830405 0.008937317 -0.098999046 0.019982472 -0.0097475005
-0.022649243 0.06832747 -0.019962238 -0.02844338 0.012166071 -0.009160734 -0.019040043 0.06610661
-0.01781011 -0.04628892 0.013545427 0.026058601 0.01104497 -0.040823255 -0.005285538 0.032163125
0.04470989 -0.11169448 -0.054816667 0.027176958 -0.0058467383 0.010505606 -0.034739405 0.021121204
-0.014838595 0.06985461 0.028790904 0.051807016 0.06008113 -0.015940556 -0.01358545 0.08875757
0.040566944 -0.019970104 0.055874866 0.060772743 0.06937183 0.015627576 0.04425614 -0.00025166135

stage_1_model.gru.weight_ih f4 [144, 48]
00000000: 9131 f8be 5980 84be 415e fdbd f91a 1f3e
00000010: 4161 85bd 2b26 743d b153 8e3b 8fdf f53e
00000020: 1881 733d 776d b13e 4a66 b83e 8fa4 7bbe
00000030: d315 f23b 6c1f 08bd 80b8 273b 1a7b 34bc
00000040: ab61 313d 302f 58be c0f2 54be 5da5 933e
00000050: 8eb2 a23e 3b7f 6f3d 83e1 f13d 8aee 02be
00000060: be2e 983d 80b4 93be c3ad 053f c694 843e
00000070: 522b 21bf 3dd8 d1be 67ea a1bd 8c12 1b3c
00000080: dbc0 e4be 6de8 a7be 9e11 dabd e5a6 b83e
00000090: f7c3 37be 9b66 0a3e 83f4 8a3d bff9 9d3d
000000a0: 59ef b53d 55b0 ebbd 2d47 53be d291 4f3e
000000b0: 6bd3 193e 1bdf adbd b457 a2bc 760a 6fbe
000000c0: 35af a13d be02 9bbd a4dd 733e aeda 12be
000000d0: 779f d7bd a905 89be ec5d b23d 652b 8b3e
000000e0: 2eb6 a6bc c71b 4fbd 04ce 1a3f 614a 6c3d
000000f0: c416 c53e ab0a ebbc 1144 193e ebe4 a13d
00000100: dafd 97be 1afc 18bf 5292 90be 8871 ddbc
00000110: 7e05 d73e 141a 2a3e 0b23 c9bd 65a7 483e
00000120: 1ed5 8ebd aee5 b3be beb9 a9be a599 debe
00000130: 267c c63d bd5f e83e 2e84 093e d4d1 69be
00000140: 82fe 693e 9e7f 5dbe 9911 03be 780f 413d
00000150: 459c 8d3e 2e04 bf3c 7b01 ef3d bf25 9ebc
00000160: 45bb fbbd 5ef3 e43e 4fef c33d 9487 093e
00000170: faf0 d13b 7547 ecbd ba64 89bc 6c9f 043f
00000180: a7be 863d ad17 00be ccb5 fdbe e2c2 893d
00000190: 1147 753e 7e81 9dbd 6540 71be a976 db3d
000001a0: e603 63be 7543 583e fc92 163e 1fea bbbe
000001b0: a25d 7c3b e899 143e f851 3fbd a0dc b83e
000001c0: 04e8 98be 7a35 053d 429e 6cbd 593f ba3d
000001d0: c78e a9bc f2c6 1dbe ca80 90bd 57d0 a8be
000001e0: 48c1 b8bc 5960 813e 304b 90be 5c60 f3be
000001f0: 3cf2 023d 44b8 1ebe 5c25 d3be 5af3 863d
00000200: 54ef ae3e 1c13 683e b94a 573d 8b93 ac3d
00000210: 5877 553e 9f87 7abd 9607 913d a3d0 9dbe
00000220: 62ef 1a3e 5a13 3fbe 1874 143e 6a37 04be
00000230: ebaa 99bc 41b8 c0bd c7cd bf3e 5a41 033d
00000240: 1f91 61bc f31f 75be fc88 afbe 0a18 6b3c
00000250: 35aa 143f 2b30 243e bc2d 933e 369f 57be
00000260: 157a 183d 39a6 0a3e ec93 97be ed0b 50bf
00000270: 2052 52be c907 7a3e cf64 713e 3651 8bbc
00000280: 0798 37be 2d7b 303e f8cb 42be ecb6 633d
00000290: cb90 503e 8369 b23d 8e9d a0be 0cf2 013f
000002a0: a271 9f3e 5284 063e 4965 5fbc 9e03 8e3e
000002b0: 1989 3fbe fd3c 8ebc 31eb 5a3e ed93 36be
000002c0: 761b 143f 7df5 a63d 6350 0abe 1582 a2bd
000002d0: 6004 81bc 6bbf 31be b503 b33d 8ab7 74be
000002e0: 1f7f 53be 937f 46be cb4b 59be df83 b8be
000002f0: 5119 a83b d4df 493e ac48 e63e f9ee 063d
00000300: ef78 9cbe a3ac 01bf 5b9b 423d 356e 42bd
00000310: 9eda 953e 1c7c 103e ddef 98be 6690 a93d
00000320: 8bac 5d3d 3e18 d53e e471 a53d fab6 1e3d
00000330: 5e1f 13bd 514a e6bd 5664 10be d179 fcbd
00000340: 0ef4 ad3e 46a8 bc3b 8c74 8a3c f777 afbd
00000350: 6642 99bd 3e08 4fbd d1d6 96b8 6494 d2bd
00000360: 5f39 343e 624d bd3d bca7 d63d 910f d0bd
00000370: 4ff8 2cbe e8ef dfbe 3dd7 c1bd 2b1f 5a3d
00000380: 4102 9b3c 36d8 68be 8781 913d 8d11 103f
00000390: 551f 4bba 883b 74be 909e 5f3e eb22 d1bd
000003a0: aec2 483d d799 b7bd 4a71 ce3d c646 513e
000003b0: d5df fa3d 23df 1cbf e42e 053d 12bc b2bd
000003c0: 60aa 373e c7dd 5abe 78b0 e33b ebef 5f3d
000003d0: cac8 77be 742b 8ebd 44b7 983e 14af 693b
000003e0: 7c33 04be c143 fe3d 181d 75bc 46a1 1ebe
000003f0: b596 04bd 04c2 3e3e 74be b4bc 4c7a c1be
-0.48475316 -0.25879171 -0.12371493 0.15537633 -0.0651269 0.059606712 0.004343473 0.48022124
0.059449285 0.34653828 0.3601554 -0.24574493 0.0073878556 -0.03323309 0.0025592148 -0.011015678
0.043306034 -0.2111175 -0.20795727 0.288371 0.3177685 0.058470946 0.11810591 -0.12786308
0.0743079 -0.28848648 0.52218264 0.25894755 -0.62956727 -0.4098529 -0.07906037 0.009464871
-0.44678387 -0.32794514 -0.106478915 0.3606483 -0.17945848 0.13515703 0.06784918 0.07713651
0.088835426 -0.11508242 -0.2063262 0.2027047 0.15022056 -0.084898196 -0.01981721 -0.23343834
0.07894746 -0.075688824 0.23815018 -0.14341232 -0.105284624 -0.2676213 0.087093204 0.27181545
-0.020350542 -0.0505636 0.60470605 0.05768812 0.3849393 -0.02869161 0.14967372 0.07904991
-0.2968586 -0.59759676 -0.28236634 -0.027031675 0.41996378 0.1661151 -0.09821137 0.19595106
-0.06974243 -0.3513617 -0.33149523 -0.43476596 0.09691648 0.45385543 0.13429329 -0.2283395
0.22850993 -0.21630713 -0.12799682 0.047133893 0.27658287 0.023317423 0.11670204 -0.019305108
-0.12291578 0.44716924 0.09567129 0.13430625 0.0064069005 -0.11537067 -0.016771663 0.5180576
0.06579333 -0.12509032 -0.49552763 0.06726624 0.23952891 -0.07690714 -0.23559721 0.10715992
-0.22169456 0.21119483 0.14704508 -0.36702058 0.0038507958 0.14511836 -0.04670903 0.36105824
-0.29864514 0.032521702 -0.057768114 0.09094114 -0.020697964 -0.15407923 -0.070558146 -0.3297145
-0.022553101 0.2526882 -0.28182364 -0.47534454 0.031969294 -0.1549998 -0.4123944 0.065893844
0.34166968 0.2266354 0.052561495 0.08426579 0.20846307 -0.061164495 0.07081525 -0.3082324
0.1513038 -0.18659726 0.14497411 -0.12911764 -0.018758258 -0.09410144 0.37461683 0.032044746
-0.01376751 -0.23937969 -0.34284198 0.014348993 0.58072215 0.16034 0.2874583 -0.21056828
0.0372258 0.13539971 -0.29605043 -0.812682 -0.2053914 0.24417032 0.23573612 -0.017006498
-0.17929088 0.17234488 -0.1902312 0.05559437 0.20367734 0.08711531 -0.31370205 0.5075996
0.31141382 0.13136414 -0.013634988 0.27737135 -0.18704642 -0.017363066 0.21378781 -0.17829867
0.578544 0.08152292 -0.13507228 -0.079349674 -0.015749156 -0.17358176 0.087409414 -0.2389814
-0.20653962 -0.19384603 -0.21220319 -0.3603811 0.005129971 0.1971429 0.4497732 0.032942746
-0.30561015 -0.5065405 0.04751144 -0.047468383 0.29268354 0.14109844 -0.298705 0.08279495
0.054119628 0.41620058 0.080783635 0.03874872 -0.035918586 -0.112446435 -0.14100775 -0.12327922
0.3397526 0.0057573644 0.016901277 -0.08567803 -0.074833676 -0.05054497 -7.19257e-05 -0.102822095
0.1760001 0.09243275 0.104812115 -0.10159219 -0.16891597 -0.4373772 -0.094648816 0.05325238
0.018921973 -0.22738728 0.071047835 0.5627678 -0.0007748504 -0.23850834 0.2183783 -0.10211738
0.049013786 -0.089648895 0.10080202 0.20437154 0.12249724 -0.6127798 0.03251542 -0.08727278
0.17936087 -0.21373664 0.006948527 0.054672163 -0.24197689 -0.06941882 0.2982732 0.0035657333
-0.12910265 0.12415267 -0.01496055 -0.15491208 -0.032370288 0.18628699 -0.022063471 -0.37788618

stage_1_model.gru.weight_hh f4 [144, 48]
00000000: 234f a8be ffcc 223c 61f3 273d 71bd 743e
00000010: e60b 02bd d9db 93bd c61c bb3e bb53 aa3d
00000020: 585a 04be 2924 0a3d 29f9 0fbf 7afa d0bd
00000030: 168c df3c 409f c93d 5222 613e 2608 6cbd
00000040: 56c8 bd3d 602d bdbe b8f6 8a3e f664 77be
00000050: bee1 acb9 622d 463e 2fe9 813d 8012 163d
00000060: 3f37 9b3c db3a 5a3d af4d 5cbe f64f 893e
00000070: 74cc 23be fb94 e43c c537 2dbe 77ae 163e
00000080: 912d 313c b53f de3b 69ee b5bd f4c5 e43d
00000090: e97f 79bd d43a 0d3e cc23 d7bb cd26 03be
000000a0: 27d8 88be aa7c d83e 84f9 8d3d da77 02be
000000b0: 4e12 adbe bf36 b8bd e0dc 483d 23ae 00be
000000c0: 04f2 243c 9294 993d c1ec a2bd 3180 d23d
000000d0: 4790 a4be bc59 ec3e 329b 4b3e 2fda 8cbe
000000e0: f6c8 bc3e 7560 a7bd de49 833d 6b25 043f
000000f0: 1a06 3e3e 6f7a 4dbd c21e 783e 1b2b 96be
00000100: 02a5 7e3d 269c 5a3e 505e fdbe c312 b73e
00000110: 398c ca3e ecdb b43d 1eee 5abe b95a e03d
00000120: 3101 1d3e 8cd8 b23e fcd2 083e b14e 0dbc
00000130: 7c87 c13d 34a8 863d cd77 023d 8c4a 03bf
00000140: ba92 643d d9d1 8ebe 846c 013f 9fee cd3e
00000150: 7d4d d43e 807d 8d3d 7b1b 3dbe 4841 82bd
00000160: 18f4 8f3e d291 763c 8595 80bd cae7 97bd
00000170: 1633 343d 76ae 2f3e 6a73 2dbf 6584 9dbe
00000180: 8470 57be be7b 363e 62e7 0d3e db6a 423e
00000190: a7a6 4f3e 23ac 0abf 799d 0a3e b188 973e
000001a0: 43bf 593e a0c8 c93c 2879 fabe 0d51 d9bb
000001b0: 6d54 08bf 0310 7c3e 5950 f13d 07e9 7cbd
000001c0: de96 9dbc c7d7 633e 34e3 e1be ad40 c5be
000001d0: b57d c7bd b9f4 2a3e 95c7 9a3d 79be 943d
000001e0: de1f 0cbe de04 ca3e 037b e63d b5f3 a63e
000001f0: 7e9a 0c3f 24ad 313e 5dfc cc3a 5757 133d
00000200: 5a7d 053e 63e4 f7bd ad9d e0bd a3ce 883d
00000210: 12c9 ba3d d010 9e3c 5b39 f23d 6a75 e33d
00000220: dce5 f23d ab5a d23e 7ff1 90be 683e 2fbf
00000230: a55c 82be 3b3c 8b3e 7520 303d 1e4b 22be
00000240: d992 c6be 9457 673f 7ef9 14be 962c 00be
00000250: 5d8c 493e a5f1 893e 0bfe 9f3c 3e23 71be
00000260: 3fc5 2b3f 7bc4 a03e 337c febd ce80 ed3e
00000270: 3912 b0be 3e1c 103e 09f7 db3d bdae efbe
00000280: 628c 853d d00e 99be f15d 133e d27a ba3e
00000290: 4664 8cbd af65 f7be 8d85 ed3c d323 b63d
000002a0: bdda 80bd f72a ff3e f356 7abd a052 643e
000002b0: 402d 953e f947 debc c073 243e 6e3d 863e
000002c0: 4151 c13d e323 53ba 9fd3 97be 9e01 963e
000002d0: c15b 7e3f 9ee6 893e 991b 813d b355 713e
000002e0: d7ec bbbd 88d8 e8bd e1cf d83d 3aa2 d2be
000002f0: 45fd 2c3e 6e92 5f3e f121 84be c43d 323d
00000300: 5bd7 a0bc 4728 3f3c e472 bfbc 8b3b d0bd
00000310: e8a4 9d3e e040 623e ebe0 7a3e d532 b73e
00000320: e3ab 7bbe af63 a0bd cf60 fabe c04d 1bbf
00000330: fb17 1dbf 8ce0 e9bd aca7 9dbe 8d06 3abc
00000340: f160 a83e 224b 97be 2129 723e 2698 e0be
00000350: 9d4b 93be f204 fabe 75a1 bc3e 659b 06bd
00000360: 8c06 593d 628c 91bd 3d09 45be ad61 8b3e
00000370: 7485 25be cc30 9d3d a56f 94bd 0911 6ebe
00000380: 6ec2 2a3f 4594 fcbe 3ddd e4bd adef 31be
00000390: 92e6 32bd 5406 643e 5f4b b83e c90e 26be
000003a0: bc17 3a3e 58bf 8e3e 5167 133e 95b7 0b3d
000003b0: 50b7 413d 128e 093e 1e4f 28be fbe6 14bd
000003c0: 3871 d7be c4bc 4cbe d03a 0c3e 59f0 513e
000003d0: 5b9d db3e 8aa2 a23c 6563 c63d 083a 923d
000003e0: 14a7 4ebd 4800 4ebe 66b0 ec3d 03d2 b3bc
000003f0: 01d0 683e 97fb a03e 23ee 113e 0722 9aba
-0.32872877 0.00993657 0.04100359 0.23900391 -0.03174963 -0.07219667 0.3654539 0.083167516
-0.12925088 0.03372589 -0.56239563 -0.102040246 0.027288478 0.09844828 0.21985748 -0.05762496
0.09266727 -0.3694868 0.27141356 -0.24159607 -0.00032974588 0.1935325 0.06343304 0.036638737
0.018947242 0.053278785 -0.21514009 0.26818818 -0.15995961 0.02790307 -0.16915806 0.1471499
0.0108140865 0.006782497 -0.08883364 0.11170569 -0.060913 0.13791972 -0.0065655466 -0.1280777
-0.2672741 0.4228261 0.06932357 -0.12741032 -0.33803028 -0.08994817 0.049038768 -0.12566428
0.010067467 0.07499041 -0.079553135 0.10278357 -0.32141325 0.46162212 0.19883421 -0.2751021
0.3687207 -0.081726946 0.064105734 0.51619595 0.18557015 -0.05016559 0.24230483 -0.29329762
0.062169082 0.21348628 -0.49486017 0.35756502 0.39560106 0.08831009 -0.21379897 0.10954804
0.15332486 0.34930837 0.13361734 -0.0086247185 0.0944967 0.06575051 0.031852532 -0.51285625
0.05580399 -0.27894476 0.50556207 0.40221116 0.4146537 0.06908703 -0.18467514 -0.06360108
0.28115916 0.015049415 -0.062785186 -0.07417257 0.04399403 0.17156395 -0.6775423 -0.30765072
-0.21039015 0.17820641 0.13857797 0.18986075 0.20278417 -0.5416891 0.13536634 0.29596475
0.21264367 0.024631798 -0.4892056 -0.0066319765 -0.53253824 0.24615483 0.11782903 -0.06174567
-0.019236978 0.22250281 -0.44118655 -0.38525906 -0.097407736 0.16694917 0.075575985 0.07262892
-0.13684031 0.39456838 0.112539314 0.3260781 0.54923236 0.17351204 0.0015639175 0.035971966
0.13036099 -0.12104108 -0.10967574 0.06680038 0.09120382 0.019295126 0.11827346 0.11106379
0.118602484 0.410848 -0.28309247 -0.684546 -0.25461307 0.2719439 0.042999703 -0.15848967
-0.3878391 0.9036801 -0.14548299 -0.12517008 0.1968245 0.26942173 0.019530317 -0.235486
0.6709785 0.31399903 -0.12426033 0.46387333 -0.34388903 0.14073274 0.107404776 -0.46813002
0.065209165 -0.29894114 0.14391305 0.3642183 -0.06855063 -0.48319766 0.028994346 0.08893552
-0.06291721 0.49837467 -0.061118077 0.22297144 0.29136086 -0.027133929 0.1605978 0.26218742
0.09439326 -0.0008054359 -0.29653642 0.2929811 0.99358755 0.2693376 0.06304092 0.23567848
-0.09176033 -0.11369425 0.10586525 -0.41139394 0.1689349 0.21833202 -0.25807145 0.043515936
-0.01963394 0.011667318 -0.023370214 -0.10167607 0.30789876 0.2209506 0.24499862 0.3578097
-0.24577288 -0.07831513 -0.48901984 -0.6066551 -0.61364716 -0.11419782 -0.30791986 -0.011354101
0.3288646 -0.2954951 0.23648502 -0.4386608 -0.28768626 -0.48831898 0.36841932 -0.03286304
0.05298476 -0.07106854 -0.19241805 0.27222958 -0.1616419 0.07675323 -0.07247857 -0.23248686
0.66702926 -0.4933187 -0.1117501 -0.17376585 -0.04367692 0.22268039 0.35995004 -0.16216578
0.18173116 0.2788036 0.14394881 0.034110624 0.04729396 0.13433102 -0.16436431 -0.036353093
-0.42078567 -0.19993883 0.1369431 0.20501842 0.4289349 0.019852895 0.09686927 0.07139975
-0.050452307 -0.20117295 0.11557083 -0.021950727 0.22735597 0.31441948 0.14250998 -0.0011759409
