PotentialNet/model/20221121_151643_PN_repeat2/model/epoch-250, train_loss-1.1004, train_rmse-1.0490, valid_rmse-1.3853, valid_pr-0.6881.pt (torch, 330447 bytes, 49 tensors)

stage_1_model.linears.0.weight f4 [48, 48]
000000 58 14 92 3d 07 b3 3d bf c8 33 91 be 55 8f c3 3d
       0.071327865 -0.741013 -0.28359818 0.09548823
000010 37 fb 96 bd f9 36 fd 3a e3 db b1 3c c6 96 86 be
       -0.07372134 0.0019318751 0.021711295 -0.26286906
000020 56 02 dd 3e 44 d3 dc 3d 23 6c 10 bc 64 c8 fd bd
       0.43165845 0.10782483 -0.008814844 -0.12391737
000030 93 2b c1 3e 26 ac 57 3e 51 fe 32 be 4f fe 16 be
       0.37728557 0.21061763 -0.17479827 -0.14745449
000040 20 58 f9 3e ea 21 82 3a 5e 9e 83 3e 4c a0 99 be
       0.48700047 0.000992832 0.25706762 -0.3000511
000050 78 09 cc be 14 1b e6 be 6c d0 8e 3e 3d 01 37 be
       -0.39850974 -0.44942534 0.27893388 -0.17871566
000060 ad f4 b3 bd 32 39 db 3e 05 1a 54 be a7 d8 24 3b
       -0.087869026 0.42817074 -0.2071305 0.002515355
000070 33 65 76 be 34 f4 1d 3e b6 47 59 be 00 80 cd be
       -0.24062042 0.15425187 -0.21218762 -0.4013672
000080 a1 1e 5d be ce 78 8e be 0e 03 58 3e 34 56 0a 3f
       -0.21593715 -0.27826542 0.21094915 0.54037786
000090 31 83 90 bc e3 0e 99 3e 54 d2 d0 ba 0c 7c ed bc
       -0.017640682 0.2989417 -0.0015931823 -0.028989814
0000a0 f6 55 d5 3d 82 4a 35 bd 6f 80 20 be fc e4 d1 be
       0.104167864 -0.04426051 -0.15673994 -0.40995014
0000b0 0d bc 66 3e c8 87 dd be 5d f0 1c 3f 23 c2 b3 bd
       0.22532673 -0.43267655 0.61304265 -0.08777263
0000c0 5b 5b 8a 3e df d9 16 be 9b 97 8e be 3d 95 be be
       0.27022824 -0.14731549 -0.2785004 -0.37223235
0000d0 34 01 8a bb 04 7e 57 3e a1 8a ce 3e 81 ac 2f bf
       -0.004211569 0.21044165 0.4034014 -0.68622595
0000e0 37 b8 35 3c da bd 46 3c a0 c9 35 be c1 d8 10 bd
       0.0110912835 0.012130225 -0.17752695 -0.035362963
0000f0 6d 90 00 3f 48 ac e6 bd 62 79 6b bc 02 b8 90 bd
       0.50220376 -0.11263329 -0.014372202 -0.07066347
000100 4a 76 c0 be be ff 74 3d 94 df 0a 3e 33 a3 bd be
       -0.37590247 0.059814207 0.13561851 -0.37038574
000110 5a d1 02 3f 39 99 88 3e 67 7e 32 3d db c7 06 bf
       0.51100695 0.266794 0.043577578 -0.52648705
000120 e3 2d cd be c0 bd a4 3d 5d ae 0b 3e 7a a9 5c 3e
       -0.4007407 0.080440044 0.13640733 0.21549025
000130 9e 5c 9c 3e 0a 7e a6 bd a7 db a6 3e 45 3b 9f be
       0.3053941 -0.08129509 0.32589456 -0.31099907
000140 48 46 ca 3d 6c b4 a8 3c 7a 84 59 be 9c 38 1f 3f
       0.09876686 0.020593844 -0.21241942 0.62195754
000150 59 ec f6 bd 1c ef c4 3c 59 86 4d 3e dc 94 72 bd
       -0.120567985 0.024039797 0.20070781 -0.059223995
000160 a3 ae f7 bd fe d1 9e 3d 94 53 c4 bd 4f ae 03 3e
       -0.12093856 0.077548966 -0.09586254 0.12859462
000170 ee d0 cf 3e fe 29 b0 be ce e1 3d bd 95 f9 83 be
       0.40589088 -0.34407037 -0.046357922 -0.25776353
000180 83 0f 72 3e b0 fe ff bd ea 94 50 3e af ce a3 bd
       0.2363873 -0.1249975 0.20369306 -0.07998406
000190 d3 44 e4 3c d1 4c 57 be 2b 6b 9b 3d cc b1 e4 3e
       0.02786485 -0.21025397 0.075888 0.44666898
0001a0 6d 03 d4 bb 93 a6 89 be f4 a8 55 be 11 d6 34 be
       -0.006470135 -0.268849 -0.20865232 -0.17659785
0001b0 c4 3e 8b be d6 98 14 3d e1 ac a0 be c0 69 fb bd
       -0.27196324 0.03627857 -0.31381896 -0.122760296
0001c0 ea fd 6e be a9 10 f9 bd 29 6e 5b bd 98 09 b6 bd
       -0.23339048 -0.12161381 -0.053571854 -0.088885486
0001d0 37 a6 e3 3d e4 cf 1c 3e 11 96 16 3e 7b e1 1c 3b
       0.11115687 0.15313679 0.14705683 0.0023938108
0001e0 b2 9d 95 3e c5 2a e1 3c 3e 95 20 3e 3b 42 85 be
       0.29221874 0.027486214 0.15681931 -0.26027092
0001f0 18 8a a1 be 82 ea 5c bd 21 13 b4 3d 69 48 2d be
       -0.3155067 -0.05393458 0.08792711 -0.16922154
000200 9f ff 67 3e 98 ef 06 3e 1f 80 29 be 27 4d a1 3d
       0.22656105 0.13177335 -0.1655278 0.07876044
000210 f0 db dc 3e c5 75 58 be d2 91 03 3e 81 2d 86 be
       0.4313655 -0.21138676 0.12848595 -0.26206592
000220 94 89 05 3e 2a ff 9d bd 96 15 7e be 2e 9b 37 3d
       0.13040763 -0.07714684 -0.24812922 0.044825725
000230 d4 f0 85 3e d6 57 9f 3e 1e b2 e5 be c1 a8 f8 bd
       0.261603 0.311217 -0.44862455 -0.12141562
000240 42 a9 e7 3e 86 ec 07 be b1 fc 32 be a8 ea 1d 3e
       0.4524632 -0.1327382 -0.17479207 0.15421546
000250 ac a2 cd bd a0 be 1d 3d af e8 2e bf e6 2f 80 bc
       -0.10040793 0.038511872 -0.68323797 -0.01564784
000260 e4 ff b4 be da 6b a7 3e 98 9f 6e bc 24 4f 14 3e
       -0.3535148 0.32699472 -0.014564417 0.14483315
000270 42 c2 46 3d d7 f6 e0 be d8 dc b3 3c 72 d7 ca be
       0.048525102 -0.43938324 0.021955892 -0.39617497
000280 45 d2 c2 bd 76 16 5f 3d a4 6d ee 3d c9 96 0d bf
       -0.09512762 0.05446478 0.11642006 -0.55308205
000290 24 c8 ee 3c 5e 05 81 3d 99 9c e8 3e 45 b4 b5 3e
       0.029148169 0.06299852 0.45431975 0.35489097
0002a0 11 2a 51 be 8c b2 5f 3e cb 06 1c 3f 96 b6 2f be
       -0.20426203 0.21845454 0.60947865 -0.17159495
0002b0 3f e4 cc 3e 16 55 5a 3e c2 92 f3 be 47 c2 1b 3e
       0.40017888 0.2132152 -0.47572905 0.1521083
0002c0 55 68 84 be c3 37 5a bd b2 84 c7 be 5c 51 05 bf
       -0.2586085 -0.053275835 -0.38968426 -0.5207727
0002d0 bd 67 1b 3d 27 ea fe be 2d d3 9b 3e 00 7c 6d 3e
       0.03794073 -0.4978802 0.30434552 0.23191833
0002e0 76 15 a1 bd ed ce ac be 35 6f 1d 3e f0 1c 9d bd
       -0.078654215 -0.33751622 0.15374453 -0.07671535
0002f0 91 dd 25 bd 27 f7 43 be c4 b3 46 3e f6 2c b4 3e
       -0.040494505 -0.1913725 0.19404513 0.35190552
000300 ca 1a 06 bd 5c 8b c3 bd 56 50 1a 3e 31 33 77 be
       -0.03274039 -0.09548065 0.15069708 -0.24140622
000310 33 c0 dd be 65 3d 93 bd 85 5e 9a be fd ba b6 3e
       -0.433107 -0.071894445 -0.30150238 0.35689536
000320 5b 0e 1e 3e 35 25 52 3d 54 89 be be 4e e0 8a 3d
       0.15435164 0.051305015 -0.37214148 0.06781064
000330 d7 07 8e be 04 79 f2 be 2e 96 51 be 70 80 d0 3d
       -0.27740356 -0.47357953 -0.20467445 0.101807475
000340 9b 70 c2 3d 3c cd 80 be e8 0b 6b 3e 00 2f 2a 3e
       0.09494134 -0.2515658 0.2295376 0.16619492
000350 36 f1 87 3a d3 2c ad be ac 0f 93 3c 9b 19 a5 be
       0.0010371569 -0.3382326 0.017951809 -0.32246098
000360 92 ca d2 be 48 64 0d 3f f6 31 6a bd 87 b3 e6 3d
       -0.41170174 0.5523114 -0.057176553 0.11264711
000370 f5 f9 0f 3e 60 4d 1c bd 3a 22 1f 3f a1 5e ae be
       0.14060195 -0.038159728 0.621616 -0.3405657
000380 b3 f1 a1 3d 69 49 9b 3d 92 38 22 3e 10 5d b5 3c
       0.079074286 0.07582361 0.15841892 0.022139102
000390 03 49 97 3e 90 19 ee 3e 52 e9 3d be 81 c1 a5 3d
       0.2954789 0.46503878 -0.18546036 0.080935486
0003a0 f9 42 eb 3d 7c bd 9c 3c f4 d7 15 3e 04 76 38 bd
       0.114873834 0.019133322 0.14633161 -0.045034423
0003b0 a9 41 0c bf 87 a4 e9 3d 36 74 61 3e fb 02 3d 3e
       -0.5478769 0.11408334 0.22016987 0.18458168
0003c0 b7 b2 d8 be d3 6a 18 3e 17 a3 1f be 9c bb 04 bf
       -0.4232385 0.148845 -0.15589558 -0.5184877
0003d0 7c e2 83 bd 31 39 c8 be 4f 1f f2 be e0 25 0b 3f
       -0.06439683 -0.39106134 -0.47289512 0.5435467
0003e0 bc 87 f9 3e c0 95 f5 be 91 ff be 3e 98 16 4d be
       0.4873637 -0.47965813 0.37304357 -0.2002815
0003f0 40 30 40 3e a2 49 2b be 1d f3 dd 3d e2 63 06 be
       0.18768406 -0.16727307 0.10837386 -0.1312404

stage_1_model.linears.0.bias f4 [48]
000000 08 4e 82 bc cc 36 21 3d b7 57 17 3c 4d aa 09 bd
       -0.015906349 0.0393589 0.009237221 -0.033609677
000010 07 9b f1 39 f3 12 65 3d bc 4d 3d 3b 6c 4e b8 bc
       0.00046082606 0.055926275 0.0028885445 -0.022498332
000020 09 b1 4f bd 3b ed 14 bd 58 62 32 bd 6f c6 06 3d
       -0.050705943 -0.036359053 -0.04355082 0.032904085
000030 2e 1e 41 bd 55 2d a8 bd 10 9b 17 3c e4 0c 4b bc
       -0.047147922 -0.082117714 0.009253278 -0.01239321
000040 80 96 3d bd 4d 60 0f 3d c5 bc dd bc 35 a5 a1 3c
       -0.046286106 0.03500395 -0.027067551 0.019732097
000050 c2 5b 1f 3c ea 40 98 3c 08 09 55 bb 8c 8f ce bc
       0.009726467 0.018585641 -0.0032506604 -0.025214933
000060 be 03 07 bd 4e 35 f7 bc 8a 3a 06 bc ca 4a 99 bd
       -0.032962553 -0.030176785 -0.008192668 -0.07484968
000070 7c d5 74 3c 5b 38 15 bc 99 82 d9 bb 73 4c cf 3c
       0.014943477 -0.0091076745 -0.006637883 0.025305009
000080 81 55 dd 3c de 20 36 3a a7 cc cd bc 74 86 f4 3a
       0.02701831 0.00069476466 -0.025122 0.0018655793
000090 cd 6d b4 bc d6 fa 71 3c 1c c8 34 3c c1 29 a4 bc
       -0.022025013 0.014769277 0.011034038 -0.020039441
0000a0 5c a0 8e bb e0 9e 17 bd 25 ec 1b 3d 09 2a 8d bc
       -0.0043526124 -0.03701675 0.038067 -0.017231958
0000b0 84 97 40 bd bb de 4f 3c dc 75 26 bd 27 67 dc 3c
       -0.047019497 0.01268738 -0.040639743 0.026904656

stage_1_model.linears.1.weight f4 [48, 48]
000000 1f 7e 85 3e f8 68 e1 3e 06 20 a0 3d b0 2c 91 be
       0.26072785 0.44025397 0.07818608 -0.28354406
000010 10 db 45 3e 50 a9 23 3f 50 4b 89 3e d0 01 15 bd
       0.19321847 0.63930225 0.2681527 -0.03637868
000020 46 87 67 3e 60 77 3c bd a0 dd 5d 3e b7 59 c0 be
       0.22610196 -0.046012282 0.21666574 -0.37568447
000030 fb 1f df 3c 44 f1 b1 bd 02 73 8e bc 7a aa 40 bd
       0.02723693 -0.08688596 -0.017388824 -0.04703758
000040 5a 9c 14 3e a4 f3 e8 3d 2a b2 d9 3c 8d 33 0c be
       0.14512768 0.11374596 0.026574213 -0.1369154
000050 9d 64 a6 3d 59 68 41 bf 62 86 48 be a4 15 e9 3d
       0.08124659 -0.75549847 -0.19582513 0.11381081
000060 03 9f 2b be 60 60 9a bd b5 61 4c bd a1 cb 0b bc
       -0.16759877 -0.07537913 -0.04989787 -0.008532436
000070 1f 16 d4 be 52 47 eb 3d 2e b4 16 3d 2c cd 4b 3e
       -0.41423127 0.11488213 0.036792926 0.19902486
000080 d5 1d 73 3d d1 f1 71 3d ff 20 bf 3e 33 77 80 3e
       0.059354622 0.059068505 0.37329862 0.25090942
000090 4c 66 20 be 17 81 df be d7 d0 0e 3e 47 92 09 bf
       -0.15664023 -0.43653175 0.13946854 -0.53738827
0000a0 b9 89 0d 3e 00 3c 58 bd 2f 27 c4 be 11 82 e7 3e
       0.13822068 -0.052791595 -0.38311145 0.4521642
0000b0 88 87 90 3d b3 85 11 be a2 cd 4d be 28 a5 17 be
       0.070571005 -0.14211158 -0.20097974 -0.14809096
0000c0 f7 45 bb be bf 46 21 3f f9 f5 ef 3e 75 ea 97 bc
       -0.36576816 0.62998575 0.4686735 -0.018544415
0000d0 81 e2 fa 3d b5 34 53 3e 33 ad b2 be 33 b5 b3 be
       0.122502334 0.20625575 -0.34897766 -0.35099182
0000e0 45 42 a5 3e 7d e2 77 be a0 f5 25 3e b1 4c c3 3d
       0.32277122 -0.24207492 0.1620698 0.09536112
0000f0 39 0c 00 3e 7a ec 95 bd 69 d7 c6 3b 7e c9 7e 3e
       0.12504663 -0.07320495 0.0060681594 0.2488155
000100 7a ec 28 bd e0 53 a0 be c2 64 9b 3d 42 dc 3e 3e
       -0.041241147 -0.31313992 0.075875774 0.18638709
000110 25 65 d8 be 70 37 74 3e a5 1d b6 3d 2e 07 3e bd
       -0.42264667 0.23849273 0.08892373 -0.046393566
000120 f6 98 44 be fd 72 b0 3e 05 2c b1 3d 76 e0 f8 bd
       -0.19198975 0.3446273 0.08650974 -0.121521875
000130 2e d1 a0 3d f3 6f 66 3e 13 df a8 be e1 ee 94 3e
       0.07852398 0.22503643 -0.32982692 0.290885
000140 ce 7e 65 3d 0c 09 6b be bb f3 31 bd 06 4c 55 be
       0.056029133 -0.2295267 -0.04344533 -0.20829782
000150 e9 86 ac bb ab fe 4f bd 71 35 af 3e df 58 e3 3c
       -0.005265106 -0.05077998 0.3422046 0.027752338
000160 05 dc c7 bc c7 eb d6 bd cd d5 82 3e ad 7f d6 3e
       -0.024396906 -0.1049419 0.25553742 0.41894284
000170 72 c5 59 3e d8 c5 94 be 96 56 cd bd af 1c dc 3d
       0.21266726 -0.29057193 -0.100262806 0.107476585
000180 4a 72 a9 be 04 d3 9a 3e b3 d9 e0 3e 46 b7 01 be
       -0.33095008 0.30239117 0.4391609 -0.1266757
000190 25 32 94 bd f7 c2 a0 bd a1 30 41 3d c3 a4 38 bd
       -0.07236127 -0.078496866 0.047165517 -0.045079004
0001a0 a1 8c b1 be 39 39 00 be a4 6f e2 3d 4b ab af be
       -0.34677604 -0.12521829 0.1105645 -0.34310374
0001b0 bb 27 11 be bf e9 21 bb b2 9b c3 3e e7 ac ab be
       -0.14175312 -0.0024705974 0.38204724 -0.33530352
0001c0 74 6c 9c be b2 20 51 be 3d 5c d5 be 33 8e 0c 3c
       -0.30551493 -0.20422629 -0.41671935 0.008578825
0001d0 f4 15 1e bb c1 b0 fc 3d ec db 91 3e 87 24 0f 3e
       -0.0024121972 0.12338401 0.284881 0.13978778
0001e0 2e 72 6f bd 91 57 f1 bd d1 96 54 be 94 e5 d8 bb
       -0.0584585 -0.1178428 -0.20760657 -0.0066191647
0001f0 66 e8 94 be a4 08 a1 3d 3d 82 d3 3c 33 b4 40 be
       -0.29083556 0.07862976 0.025818938 -0.1881874
000200 fb fe a5 3e 7b d3 70 be 07 18 c9 be 94 1e 87 be
       0.32421097 -0.23518173 -0.39276144 -0.26390517
000210 99 ba bd be e5 2b 3a 3e 31 b7 a2 bd 02 75 b1 3d
       -0.37056425 0.18180807 -0.07945097 0.086648956
000220 21 7d 1d 3e cb 45 b8 bd 3a 15 a2 bd 57 8d 09 3e
       0.15379764 -0.08997687 -0.07914205 0.13432823
000230 a5 ec 61 be 8b 20 e3 bd 48 69 16 3d b7 3f f6 3e
       -0.22062929 -0.110901915 0.036721498 0.48095486
000240 fe ed c3 bd 7f dd a0 be f6 50 30 3e cd f5 e7 be
       -0.09566878 -0.31418988 0.17218384 -0.4530472
000250 53 c6 80 3e ad 53 b8 be 31 fa 87 3e 8a bb cf 3e
       0.2515131 -0.3600134 0.26558068 0.40572768
000260 7f 53 12 be 95 98 aa 3e f4 45 f1 be 61 21 c1 3c
       -0.14289664 0.33319536 -0.47123682 0.023575487
000270 9c 50 91 3e 2d 93 02 3d f4 c8 8c 3e 96 3c 95 3e
       0.28381813 0.03187864 0.27497065 0.29147786
000280 61 f8 19 be 67 41 00 bd 84 c3 08 3e 1f 56 22 be
       -0.15036155 -0.031312373 0.13355833 -0.15853165
000290 78 87 c7 3d 3c 3f 43 be 52 46 d4 3e dd 14 38 3e
       0.097426355 -0.19067091 0.414599 0.17976709
0002a0 4b d7 ae bd 09 40 e7 be 2f 9d 35 bd e7 ae 89 3e
       -0.085371576 -0.45166042 -0.044339355 0.26891252
0002b0 e2 d2 09 3e 16 ce c6 3c 26 4a 03 3e e9 84 a6 be
       0.13459352 0.024268191 0.12821254 -0.32523277
0002c0 a0 38 3a 3c e6 58 8b be 38 e1 58 bd 7c 6c 83 3e
       0.0113660395 -0.27216262 -0.05294916 0.25668705
0002d0 5d cd c4 3e 64 5c 14 be 16 5c f0 bd 34 de 0b 3a
       0.3843793 -0.14488369 -0.11736314 0.000533554
0002e0 48 a2 24 bd 23 22 47 3e f0 f1 c2 3d 93 88 b7 bd
       -0.040193826 0.19446616 0.09518802 -0.08961596
0002f0 e3 40 fd 3e 90 c7 ac be b3 34 0a bc b8 83 e6 be
       0.49463567 -0.33746004 -0.008435416 -0.45022368
000300 ed 73 1e be 2a c6 5c bd 19 76 78 be c7 cf ba 3e
       -0.1547391 -0.05389992 -0.242638 0.36486647
000310 13 e3 91 bd 5d f5 52 3d 7d e4 db 3c 10 1f 23 be
       -0.07123389 0.051503528 0.02684235 -0.15929818
000320 83 18 93 be 63 de 83 be a3 09 76 3e 1c cb 1f 3d
       -0.28729638 -0.25755605 0.24027114 0.03901206
000330 8b a8 19 3d 5b 0f a0 be 74 6f 6b 3e f6 89 09 bf
       0.03751425 -0.31261715 0.22991735 -0.53726137
000340 a6 f1 4a 3e e4 e3 00 3e b7 1f 7f 3e db a0 56 3d
       0.19818744 0.12586933 0.24914442 0.052399497
000350 fd ef 94 3d 12 c3 c9 bd 89 ae 47 3e 53 99 a9 bd
       0.07272337 -0.0985166 0.19500174 -0.082811974
000360 bf 39 b2 3d 2c 14 44 3e 25 d7 ba 3c da b8 d5 be
       0.087024204 0.1914832 0.022807667 -0.41742593
000370 d8 40 9b 3c 1e 81 d1 3e 46 eb a9 be 96 cf 28 3e
       0.018951818 0.4091882 -0.33187312 0.16485438
000380 52 69 b2 3e 44 95 9b bc f9 17 7c be 67 0c 10 bd
       0.34845978 -0.018992074 -0.2461852 -0.035168078
000390 98 3c 5d be 72 d1 1c 3b 21 ae 86 3e 9b 3e 73 be
       -0.21605146 0.002392855 0.26304725 -0.23754351
0003a0 d5 88 66 be 5a a0 ab bd 4a 11 42 bd 40 f1 7d bd
       -0.22513135 -0.08380194 -0.04737977 -0.061997652
0003b0 1e c3 c2 3d 24 eb 53 3d ac ee 88 3e ed f9 0d be
       0.09509872 0.05173792 0.26744592 -0.1386487
0003c0 56 a3 51 3d c2 96 f1 3e 7a a8 0c be 85 d1 f9 3d
       0.05118116 0.47185332 -0.13736144 0.12198166
0003d0 9c d1 89 be 72 64 3e 3e 5d db b4 3c b9 dc cd bb
       -0.26917732 0.18593004 0.022077257 -0.0062824157
0003e0 5b 9c ac 3c 90 26 92 be a9 37 ee bd 73 93 5a 3e
       0.02107065 -0.28545046 -0.1163171 0.2134531
0003f0 3c 47 06 bd 45 14 47 3e 92 b4 a6 be 20 92 a2 3e
       -0.03278278 0.19441326 -0.3255964 0.3175211

stage_1_model.linears.1.bias f4 [48]
000000 b4 02 91 3b 0a a8 75 3d 06 65 0e 3d c0 be e7 bc
       0.004425371 0.059974708 0.034764312 -0.028289199
000010 e9 0b aa 3d 1c 20 4f 3d 2a f2 2d bd eb f0 33 3d
       0.08303053 0.05056773 -0.042467274 0.04393093
000020 b8 7a ce bc 39 9c 8f bc b5 50 a7 bd dc 7c 49 3d
       -0.025205001 -0.017530547 -0.081696905 0.04919134
000030 99 cc 7b bc ef a4 b2 3c 1c f1 8a 3d 31 90 8b bc
       -0.015368604 0.021807162 0.06784269 -0.01703653
000040 03 83 c3 bc c1 17 ac 3c 41 8e 2b 3d 2a a3 7a 3c
       -0.023866182 0.02100742 0.04188371 0.01529769
000050 cd 79 3b 3d 2e b2 52 3d b4 26 fc 3c fd e8 00 bd
       0.045770455 0.051439457 0.030780174 -0.031472195
000060 90 08 cd bc 6c 22 1a 3d 2b 74 97 3d be b3 5c bd
       -0.025028497 0.037630484 0.07395204 -0.053882353
000070 8d fe a1 3d d6 ac 29 bd dc 06 d9 3c f0 9f d8 bc
       0.0790988 -0.041424595 0.026492529 -0.026443452
000080 3e 00 3a bb 90 c5 08 3c 3e 11 85 bc 7e ed 3a 3c
       -0.0028381492 0.008347884 -0.016243573 0.011409162
000090 01 da f7 bc e8 23 a6 bc 36 2e c4 3c 8b 6b 37 3c
       -0.03025532 -0.020280793 0.023947816 0.011195074
0000a0 13 3a f0 bb ea 5c 10 bd 4c b0 07 3d 9e 8e 5f bd
       -0.0073311417 -0.03524486 0.033127114 -0.05457937
0000b0 c8 f7 56 3b ca ca ab 3c 69 3f 85 3d 9a 59 a4 bd
       0.0032801498 0.02097072 0.06506235 -0.08024903

stage_1_model.linears.2.weight f4 [48, 48]
000000 b1 13 4a 3e 03 7b f6 3e b1 7b 94 bd d0 f9 ab be
       0.19734074 0.48140725 -0.07250155 -0.3358903
000010 68 bd 2a 3e 75 f8 a2 bc d0 34 b5 bd 50 f0 0d 3e
       0.16673815 -0.019893864 -0.08847964 0.13861203
000020 1d ef b6 3d 53 33 d9 3d f5 f9 04 3c 6c c6 7e be
       0.08932326 0.106054924 0.008116235 -0.2488038
000030 9a fd c4 3d 0e aa 90 be 19 67 98 bc 3d 00 32 be
       0.09618683 -0.2825474 -0.018603848 -0.17382903
000040 7f 0b cb be 74 43 7e 3d b8 76 49 3e 17 ad f2 3d
       -0.39657208 0.062076047 0.19674194 0.118494205
000050 3e 73 32 3e ac d9 84 3e b1 78 15 bf b8 8f 94 be
       0.17426774 0.2594732 -0.58387285 -0.290159
000060 84 a0 e9 3d c2 dd ba be b6 df 7c be 53 fe b1 be
       0.11407569 -0.36497313 -0.24694714 -0.34764346
000070 1c b3 f3 be 47 0b 8d 3e 69 2b 8d 3e 34 3b 21 bd
       -0.47597587 0.27547666 0.27572182 -0.0393631
000080 d7 b0 1c 3e d2 ad 66 be f2 50 8a 3e 0d c2 e3 be
       0.15301834 -0.22527245 0.2701488 -0.44483986
000090 98 0a cb be ba 6d 9d 3e 8f 32 4f 3e d1 7d bf 3e
       -0.3965652 0.30747777 0.2023413 0.37400678
0000a0 76 c2 b1 be df 0c c3 be fd c1 de bd 4e 18 0e 3d
       -0.34718674 -0.38095757 -0.10876844 0.034691148
0000b0 2b 4f 72 3e 7a 31 76 be b2 69 5f be e0 a1 7b bd
       0.23663013 -0.24042311 -0.21817663 -0.061433673
0000c0 c4 54 79 3d 29 d6 ee 3e 29 87 e4 3e c0 cd 19 3e
       0.060871854 0.46647766 0.4463437 0.15019894
0000d0 bb 39 b5 3e 5d 83 a1 ba 58 70 80 3c e5 34 2c be
       0.35395607 -0.0012322475 0.01567857 -0.16817053
0000e0 e6 23 7f 3e 88 0d e6 3d 30 08 fb be e7 4f 8a 3d
       0.24916038 0.1123305 -0.49029684 0.067535214
0000f0 be c5 8c be ac 9a 4b 3e e5 74 da 3e 66 e0 b8 bd
       -0.27494615 0.19883221 0.42667308 -0.090271756
000100 cb 21 1e bf 0d 7d 01 be 57 c7 1a be cc 04 c5 3e
       -0.61770314 -0.1264536 -0.15115105 0.38480222
000110 53 b2 10 bf 7b 83 2d 3e 5e 05 8b bd dc a5 2c be
       -0.565221 0.16944687 -0.06788133 -0.16860145
000120 f9 45 cb 3e 5c bc 56 3e fb 86 9d 3e 27 31 81 bd
       0.39701822 0.20970291 0.30767044 -0.06308203
000130 ab 8e e2 3d 26 3f 43 3e 6a f1 9d be d7 c7 61 3e
       0.11062368 0.19067058 -0.30848247 0.22048889
000140 0c 99 8b 3e ba 36 88 3e 55 ca 85 3e 22 19 a3 3e
       0.27265203 0.26604253 0.2613093 0.31855112
000150 4e bd 26 be 3a 2e ae 3e 7a ab 7a be f7 0c 30 3f
       -0.16283152 0.34019643 -0.24479476 0.6876978
000160 e0 d9 0a bf 02 a4 8c 3e 79 5b 8f bd d9 92 98 be
       -0.542387 0.27468878 -0.06999869 -0.29799536
000170 2c 36 67 bd 59 e9 9e be 02 53 6a 3c 58 dc ca be
       -0.056448147 -0.31037405 0.014302017 -0.39621234
000180 f9 83 2f 3d 1e dc ba be f4 f2 fd bd e4 a3 5a be
       0.04285047 -0.3649606 -0.12399855 -0.21351582
000190 49 c0 fd 3d d9 ed 96 be d2 ee cb 3d e7 77 3a be
       0.12390191 -0.29478338 0.09957661 -0.18209802
0001a0 f4 f6 d3 3e 64 22 98 be d9 1e cb 3e 43 44 52 be
       0.41399348 -0.29713738 0.39671972 -0.20533852
0001b0 44 61 9f be 5e 6c 3b be 17 84 d1 3e fb f6 b9 bc
       -0.31128895 -0.18303058 0.4092109 -0.022700777
0001c0 3e 57 08 be 18 8b ad bd 87 e9 a0 3d b0 af 1c 3d
       -0.1331453 -0.08473796 0.07857042 0.038253486
0001d0 aa 89 cd be 1b d1 7a be 08 fc 06 bd 0f 9d 23 3e
       -0.40144092 -0.2449383 -0.0329552 0.15977882
0001e0 46 f9 5b 3e fb 51 f0 bd f5 9e b7 bc 86 f9 ce 3d
       0.21481809 -0.117343865 -0.022414664 0.101061866
0001f0 63 7a ba bd 6e c9 0b 3d 06 46 f9 bd 1b 2a 35 3d
       -0.09105375 0.034127645 -0.12171559 0.044229608
000200 36 d5 26 bd 8a 83 d5 be 70 3b a1 3e 94 23 ae 3e
       -0.040730678 -0.4170192 0.3149066 0.3401152
000210 5f b5 03 3e 5b 07 f9 bc 65 87 23 3e 2b 38 76 be
       0.12862156 -0.030399015 0.15969618 -0.24044864
000220 d0 f5 c4 bd 9a 20 bb bd bb cd 3f be 7c e8 55 3e
       -0.096171975 -0.09137078 -0.18730824 0.20889467
000230 99 ff 4f 3d 91 b8 86 3e 07 69 1b 3d 6c 03 82 be
       0.050780866 0.26312688 0.03794196 -0.25393236
000240 80 2a 3a 3e 08 3e 35 bd ca c8 ed 3e d8 9c 8c 3e
       0.18180275 -0.04424861 0.46442252 0.27463412
000250 74 71 c1 bd 62 aa 30 be c3 cf d5 3d 35 dd 51 be
       -0.094454676 -0.17252496 0.10440018 -0.2049454
000260 f7 43 ae 3e 03 eb 06 bd 7a 0f 84 3c 4f 75 62 3e
       0.34036228 -0.03293897 0.016120661 0.22115062
000270 a1 2b e1 bd 8a 54 de 3d 62 a7 7c be f7 e0 b1 3d
       -0.1099465 0.10855968 -0.24673226 0.08685487
000280 4b 7e 62 3e 75 ff 89 3e e2 45 d7 3d a6 e9 5e be
       0.2211849 0.2695271 0.10511376 -0.21768817
000290 79 a4 69 3d a8 64 27 3e 51 f0 4b bb 49 aa 6b bc
       0.05704162 0.16346991 -0.0031118582 -0.014383861
0002a0 82 c1 11 be 89 1e d0 3c 29 07 a2 bb 17 6e a3 be
       -0.14233974 0.025405185 -0.004944701 -0.3191993
0002b0 d2 b2 30 3e 51 8f 8a bd f2 20 93 be b6 3c d7 bd
       0.17255715 -0.06765617 -0.28736073 -0.105096266
0002c0 19 f1 48 be 42 d1 c8 3e 85 d3 c3 3d c7 7c 41 3e
       -0.19623221 0.3922215 0.095618285 0.18895255
0002d0 66 7d a9 be ea 23 74 3d 06 c4 3e bc f0 81 db be
       -0.33103484 0.059604563 -0.011643415 -0.42872572
0002e0 6d 6b 8c 3e 7b 30 ee 3e 83 9a 8f 3e c5 13 10 be
       0.2742571 0.46521363 0.2804757 -0.14070041
0002f0 5c 7a 07 3e a8 ea c0 3e cf c3 9c bc fc 96 8e 3d
       0.1323027 0.3767903 -0.019136338 0.06962392
000300 49 db c5 3d 2b f9 4c 3e b1 b7 6b 3e 82 47 00 3f
       0.09660966 0.20016925 0.23019291 0.5010911
000310 da f5 db 3d b8 60 4b 3d e4 c0 0f 3d da 5a ae 3e
       0.10740252 0.049652785 0.035096064 0.3405369
000320 82 44 9a be c3 b5 a2 be ef bd 71 be de 8c a4 bd
       -0.30130392 -0.31779298 -0.2360761 -0.08034681
000330 a2 83 49 be ff ed 4b be 83 42 0d 3f 45 71 78 be
       -0.1967912 -0.19915007 0.55179614 -0.24261959
000340 9f f6 c1 bd 30 ba d2 3e aa b0 e3 3e 58 1a be be
       -0.09470867 0.41157675 0.4447072 -0.37129474
000350 d0 57 a3 bd 52 f8 b1 bc 66 bd d9 3e 30 1c 9f be
       -0.07975733 -0.021724854 0.42527312 -0.31076193
000360 cd cd 04 3f 24 90 b9 3d 90 73 0a bf 19 5c a9 bd
       0.5187653 0.09060696 -0.54082584 -0.08269519
000370 e0 08 17 be 65 e0 a8 3e ee fc 01 3e 6e a8 ad bc
       -0.1474948 0.329837 0.12694141 -0.021198478
000380 77 c1 b0 3e bc fd 38 3e 94 5e 46 3f d2 4f c2 3e
       0.34522602 0.18065542 0.77488065 0.37951523
000390 e7 0e 41 be 61 b1 03 3d 94 0f 29 3d d8 d8 d0 3e
       -0.18853341 0.032151584 0.041274622 0.4079044
0003a0 8b b2 99 3d 16 1a 96 3e 8b 9f 5a bd 7c a4 89 bd
       0.075047575 0.29316777 -0.05337481 -0.06720826
0003b0 9a 46 30 3f 78 c5 58 bd 20 18 80 be 6e 1e 88 3e
       0.6885773 -0.052922696 -0.25018406 0.26585716
0003c0 9f dd d9 be 60 76 b5 3e fd f0 c3 bd af 8d 2a be
       -0.42551896 0.35441875 -0.09567449 -0.1665561
0003d0 71 03 2f be f0 c4 b6 3d 3d c5 e9 be 2e e4 52 be
       -0.17091157 0.089242816 -0.45658293 -0.20594856
0003e0 0d 7a 4e be ca 6c 77 3e e7 af 51 3e ae 29 96 3e
       -0.20163746 0.24162593 0.20477258 0.29328674
0003f0 80 e0 83 3e 80 5f b3 be c0 da e1 3d e6 f7 81 be
       0.25757217 -0.35033798 0.110280514 -0.25384444

stage_1_model.linears.2.bias f4 [48]
000000 41 c1 c9 bd 97 da 5d 3e 77 5c 17 bd 9b 68 dc 3c
       -0.098513134 0.21665417 -0.036953416 0.026905349
000010 45 e4 8f 3e bd 82 f8 3c 22 73 c2 bd 6d b0 b3 3c
       0.28103843 0.030335778 -0.09494616 0.021934712
000020 4a be 82 3d bd 12 5d be 63 e0 b9 bd 84 54 79 3d
       0.06383951 -0.2158918 -0.090760015 0.060871616
000030 16 ec 4f be c8 8a 92 3d 4c ad 73 3e ba 39 46 3d
       -0.20304903 0.07155377 0.23796576 0.048394896
000040 23 fa 5c bd fa cb 46 3d 75 4d f8 bd ed 7d cf bd
       -0.053949486 0.04853437 -0.12124149 -0.1013144
000050 d7 9e b4 3d 5b 2d 66 bb a8 15 9d 3d 61 42 8b bd
       0.08819359 -0.0035122249 0.07670146 -0.0679977
000060 8c d8 5a be ed 0d 16 bd 32 7b 74 3d aa 88 11 be
       -0.21371669 -0.036634374 0.0596878 -0.1421229
000070 30 e3 1c 3e 5d 58 b6 3c 09 d2 4d b9 b9 b9 3d 3e
       0.1532104 0.022258932 -0.00019628568 0.18527879
000080 d9 09 19 bd 3d 1d d2 ba 85 fe 7e 3d 05 9c ed 3d
       -0.037362907 -0.0016030442 0.062254447 0.11602024
000090 8b d8 80 3e 0a ab 1b be a1 c7 00 3e 09 bd 09 bd
       0.2516521 -0.15201965 0.12576152 -0.033627544
0000a0 f2 32 fb 3d 17 8c 4c be 4a cc cc 3d 31 81 f2 bc
       0.122655764 -0.19975315 0.099999025 -0.029602619
0000b0 aa 7b 25 be b0 b6 1d be e3 85 88 be 3f 86 bc 3d
       -0.16160455 -0.15401721 -0.26664647 0.09205293

stage_1_model.linears.3.weight f4 [48, 48]
000000 4a 5a 28 80 9a ce 36 80 bd a7 41 00 4f 2f 46 00
       -3.70581e-39 -5.033231e-39 6.02948e-39 6.445456e-39
000010 d3 7a 42 00 b8 12 05 00 bf 95 1c 80 95 70 17 80
       6.105204e-39 4.65893e-40 -2.625113e-39 -2.152603e-39
000020 28 36 41 00 27 49 1d 80 be f8 49 80 83 ca 37 80
       5.988735e-39 -2.689472e-39 -6.793223e-39 -5.1236e-39
000030 a8 76 21 80 33 4b 20 80 dd e1 1f 80 ad d8 2a 00
       -3.073137e-39 -2.965712e-39 -2.927925e-39 3.93482e-39
000040 05 11 06 00 85 76 05 00 d6 84 39 00 10 af 40 00
       5.57118e-40 5.01694e-40 5.282276e-39 5.940272e-39
000050 2d 80 2c 80 aa ff 20 00 e6 0c 21 80 ea 27 32 80
       -4.086743e-39 3.030451e-39 -3.035198e-39 -4.606093e-39
000060 ef 59 30 80 08 00 02 00 e9 35 11 80 22 aa 2f 80
       -4.440366e-39 1.83682e-40 -1.580543e-39 -4.3773e-39
000070 f8 67 31 80 2a a2 3f 80 ed 73 15 80 0e 8b 3f 80
       -4.537236e-39 -5.84381e-39 -1.970132e-39 -5.83552e-39
000080 55 18 41 80 f2 22 27 80 10 0c 0f 00 46 90 48 80
       -5.978036e-39 -3.59412e-39 1.38186e-39 -6.663911e-39
000090 e8 61 10 00 a1 52 30 80 e0 c5 2d 80 87 d2 25 80
       1.50449e-39 -4.437745e-39 -4.203582e-39 -3.473436e-39
0000a0 2f 31 4a 80 68 fe 30 00 b5 d6 38 80 42 91 41 00
       -6.81347e-39 4.499368e-39 -5.21981e-39 6.021416e-39
0000b0 09 8d 19 00 e5 a1 44 80 52 4e 35 00 1e f7 2d 80
       2.346481e-39 -6.30289e-39 4.895377e-39 -4.221246e-39
0000c0 8f 50 36 00 8f dc 23 00 26 22 0c 00 c4 ca 49 80
       4.988016e-39 3.293364e-39 1.114276e-39 -6.77673e-39
0000d0 62 10 3f 80 10 09 27 00 78 ea 49 00 89 36 30 80
       -5.791513e-39 3.584835e-39 6.788103e-39 -4.427667e-39
0000e0 48 27 19 00 9b 34 2b 80 2f 69 3a 80 f6 0b 47 00
       2.309979e-39 -3.967798e-39 -5.364192e-39 6.524611e-39
0000f0 28 0b 2a 80 a5 ae 3a 00 b9 ea 20 00 8c 59 4b 00
       -3.861093e-39 5.38911e-39 3.022939e-39 6.919786e-39
000100 d1 7d 36 00 ca b4 42 80 0a 41 27 80 16 43 06 80
       5.004251e-39 -6.125998e-39 -3.604916e-39 -5.75079e-40
000110 3e a1 19 00 04 f3 39 80 79 ea 39 00 61 43 3e 00
       2.35373e-39 -5.321801e-39 5.318736e-39 5.717972e-39
000120 b1 7b 40 00 ea c8 14 00 16 26 1d 80 6a d6 3a 80
       5.921844e-39 1.908784e-39 -2.676892e-39 -5.403376e-39
000130 b1 de 0e 80 e0 93 48 80 6f 10 47 80 aa a2 1b 00
       -1.365584e-39 -6.665203e-39 -6.526215e-39 2.537911e-39
000140 b8 f9 09 00 18 b2 27 00 47 f9 28 80 fa 98 31 00
       9.16102e-40 3.645472e-39 -3.762844e-39 4.554817e-39
000150 14 70 32 00 f2 b0 10 80 03 40 22 80 cd c9 0d 00
       4.631981e-39 -1.532844e-39 -3.14537e-39 1.266254e-39
000160 bc 00 4c 80 76 91 39 00 08 53 43 80 c4 f7 10 80
       -6.979761e-39 5.286805e-39 -6.182764e-39 -1.55825e-39
000170 01 f7 3d 00 e5 7b 24 00 41 85 15 00 8a fa 2e 00
       5.690574e-39 3.350523e-39 1.976348e-39 4.31431e-39
000180 de f6 01 00 51 58 1a 80 24 50 44 80 b7 59 1c 00
       1.80395e-40 -2.419405e-39 -6.273563e-39 2.603578e-39
000190 01 1d 20 80 cb 9b 00 80 6e fa 44 00 c8 bd 0e 80
       -2.94914e-39 -5.5888e-41 6.334651e-39 -1.353778e-39
0001a0 04 a0 3b 80 33 74 03 80 20 99 15 00 4c f0 30 00
       -5.475697e-39 -3.17191e-40 1.983476e-39 4.494306e-39
0001b0 c8 13 43 80 87 a5 3f 00 29 ae 29 00 c9 d5 1c 00
       -6.160074e-39 5.845016e-39 3.827732e-39 2.648086e-39
0001c0 90 22 44 00 60 89 4a 00 8a 63 2f 80 71 03 0b 80
       6.257212e-39 6.845108e-39 -4.351976e-39 -1.011425e-39
0001d0 81 78 01 00 66 33 29 00 fa e1 32 00 51 db 21 00
       1.35064e-40 3.783694e-39 4.67284e-39 3.109247e-39
0001e0 0e ac 43 00 33 52 2a 80 7c 49 38 00 b2 ce 1b 80
       6.2147e-39 -3.886578e-39 5.169149e-39 -2.553707e-39
0001f0 03 09 31 00 be 89 35 80 b3 f0 07 80 30 5f 35 80
       4.503172e-39 -4.916694e-39 -7.29195e-40 -4.901428e-39
000200 ab eb 48 00 bf 7b 3c 00 3d 7c 00 00 77 58 44 80
       6.696697e-39 5.554522e-39 4.4568e-41 -6.276549e-39
000210 52 da 4b 00 4e 07 3a 00 29 d4 11 00 c3 6e 38 00
       6.965981e-39 5.329079e-39 1.637312e-39 5.182522e-39
000220 31 0e 03 00 1e 5f 09 00 a4 8d 1b 80 3b 5e 1e 00
       2.80597e-40 8.60641e-40 -2.53037e-39 2.788868e-39
000230 e9 7a 19 00 01 7a 48 80 42 75 00 80 e2 8c 29 00
       2.339979e-39 -6.655922e-39 -4.2064e-41 3.815795e-39
000240 27 47 32 80 c8 93 36 00 66 3c 0e 80 f8 df 0c 00
       -4.6173e-39 5.012131e-39 -1.307364e-39 1.182371e-39
000250 e0 43 4a 00 3b 09 46 80 b5 3d 0d 00 57 17 41 00
       6.820176e-39 -6.431796e-39 1.215998e-39 5.97768e-39
000260 28 61 02 00 c0 ef 49 80 84 25 1f 00 d0 34 1c 00
       2.18524e-40 -6.789997e-39 2.860358e-39 2.59034e-39
000270 4d f8 21 00 0f a1 4b 80 fb 15 41 80 5e d6 11 80
       3.119645e-39 -6.945439e-39 -5.977192e-39 -1.638104e-39
000280 4f 1a 37 00 9e 92 21 80 79 fb 44 00 9e db 48 00
       5.06039e-39 -3.083168e-39 6.335025e-39 6.69094e-39
000290 77 bc 0a 80 1d 1a 33 80 3f 9a 46 80 a2 00 47 80
       -9.85963e-40 -4.692978e-39 -6.483818e-39 -6.520547e-39
0002a0 e3 d2 23 00 08 d3 1a 80 d2 97 30 00 e0 4e 4b 00
       3.289894e-39 -2.463427e-39 4.462567e-39 6.915957e-39
0002b0 29 a7 4a 00 7c f9 0e 00 e9 56 47 80 1b 3c 2f 80
       6.855792e-39 1.375195e-39 -6.551498e-39 -4.33783e-39
0002c0 17 3d 03 80 65 13 09 80 8f b7 24 80 07 7d 39 00
       -2.97421e-40 -8.33477e-40 -3.371926e-39 5.279475e-39
0002d0 73 13 2f 80 24 18 34 80 d2 6b 44 00 0b c9 31 00
       -4.323245e-39 -4.784106e-39 6.283492e-39 4.57206e-39
0002e0 93 ee 13 00 3d 09 41 00 a8 19 2a 80 cf 47 1e 80
       1.830459e-39 5.972621e-39 -3.866295e-39 -2.780825e-39
0002f0 a4 23 1c 00 32 ab 2c 00 be ec 01 80 81 29 3f 00
       2.58418e-39 4.102175e-39 -1.76763e-40 5.800525e-39
000300 df bf 00 00 f7 ae 2f 80 c1 27 4b 00 90 fb 11 80
       6.883e-41 -4.379034e-39 6.901923e-39 -1.651447e-39
000310 7c 29 15 00 27 fa 3e 00 8a 6d 21 00 24 4f 13 80
       1.943427e-39 5.783539e-39 3.069867e-39 -1.773265e-39
000320 7e d4 49 80 44 bc 2b 00 31 31 27 00 3d ba 06 80
       -6.780219e-39 4.016463e-39 3.599231e-39 -6.17823e-40
000330 05 38 10 80 04 37 4b 80 e1 b9 1f 80 d3 3b 47 00
       -1.489464e-39 -6.907398e-39 -2.913581e-39 6.541781e-39
000340 ce cd 42 80 7f 7d 07 00 1b 83 35 00 68 a4 33 80
       -6.134972e-39 6.87868e-40 4.914313e-39 -4.742588e-39
000350 0a de 42 00 75 3a 44 80 6b a6 15 00 11 65 26 00
       6.140795e-39 -6.265784e-39 1.988245e-39 3.526005e-39
000360 93 78 4b 80 af d6 4b 80 2d e0 48 80 f0 f6 25 80
       -6.930916e-39 -6.964676e-39 -6.692575e-39 -3.486498e-39
000370 38 1f 4b 00 b0 24 47 80 74 8b 48 80 6f 55 17 00
       6.898861e-39 -6.533481e-39 -6.662182e-39 2.142864e-39
000380 18 da 23 00 ac 7c 0c 00 19 5f 03 00 8b 8a 19 80
       3.29248e-39 1.14675e-39 3.09621e-40 -2.345587e-39
000390 2c c1 11 00 73 a4 44 00 02 0c 02 80 61 7f 47 80
       1.6305e-39 6.303807e-39 -1.87979e-40 -6.566015e-39
0003a0 8c 1e 1f 00 25 0b 12 80 6b 45 00 80 dd 4e 38 00
       2.857859e-39 -1.657037e-39 -2.4902e-41 5.171079e-39
0003b0 ca 21 20 80 df 0f 31 80 83 09 1b 80 a6 4a 29 80
       -2.950857e-39 -4.505633e-39 -2.48297e-39 -3.792034e-39
0003c0 56 20 3c 80 64 26 00 00 46 66 3f 80 d2 73 28 00
       -5.52173e-39 1.3772e-41 -5.822325e-39 3.714968e-39
0003d0 1b d8 32 00 63 63 20 00 ff 32 03 00 13 d1 49 00
       4.669299e-39 2.974389e-39 2.938e-40 6.778993e-39
0003e0 e4 79 13 80 f2 6a 49 00 af 68 17 00 da ab 0e 80
       -1.7886e-39 6.742356e-39 2.14977e-39 -1.347346e-39
0003f0 13 1e 4b 00 7e 2b 2d 80 da ab 05 00 5a 40 12 00
       6.898451e-39 -4.1482e-39 5.20826e-40 1.676124e-39

stage_1_model.linears.3.bias f4 [48]
000000 00 00 00 00 00 00 00 00 00 00 00 00 00 00 00 00
       0.0 0.0 0.0 0.0
000010 00 00 00 00 00 00 00 00 00 00 00 00 00 00 00 00
       0.0 0.0 0.0 0.0
000020 00 00 00 00 00 00 00 00 00 00 00 00 00 00 00 00
       0.0 0.0 0.0 0.0
000030 00 00 00 00 00 00 00 00 00 00 00 00 00 00 00 00
       0.0 0.0 0.0 0.0
000040 00 00 00 00 00 00 00 00 00 00 00 00 00 00 00 00
       0.0 0.0 0.0 0.0
000050 00 00 00 00 00 00 00 00 00 00 00 00 00 00 00 00
       0.0 0.0 0.0 0.0
000060 00 00 00 00 00 00 00 00 00 00 00 00 00 00 00 00
       0.0 0.0 0.0 0.0
000070 00 00 00 00 00 00 00 00 00 00 00 00 00 00 00 00
       0.0 0.0 0.0 0.0
000080 00 00 00 00 00 00 00 00 00 00 00 00 00 00 00 00
       0.0 0.0 0.0 0.0
000090 00 00 00 00 00 00 00 00 00 00 00 00 00 00 00 00
       0.0 0.0 0.0 0.0
0000a0 00 00 00 00 00 00 00 00 00 00 00 00 00 00 00 00
       0.0 0.0 0.0 0.0
0000b0 00 00 00 00 00 00 00 00 00 00 00 00 00 00 00 00
       0.0 0.0 0.0 0.0

stage_1_model.linears.4.weight f4 [48, 48]
000000 05 f3 18 3f 1c c8 b4 be e5 9d ae be 61 85 aa 3e
       0.5974582 -0.3530892 -0.3410484 0.33304885
000010 19 51 8e be 88 12 5a 3e 31 93 e2 be ad 1b a5 bd
       -0.27796248 0.21296132 -0.44252923 -0.08061919
000020 9a 49 50 3d 93 36 81 3c a4 e0 e2 3d c9 46 36 be
       0.050851442 0.015773093 0.11078003 -0.1780044
000030 2a d9 ec 3d 2d e7 03 bf dc cf 84 3e 5b eb dc bd
       0.11564858 -0.5152462 0.25939834 -0.10787078
000040 66 7a d0 be cc 64 e5 3d 95 da 16 bd 84 e4 17 bd
       -0.40718383 0.11200866 -0.03682955 -0.037083164
000050 7d 3d 25 be aa 85 fb bd 41 fa 58 3e c2 f4 d3 bd
       -0.16136737 -0.12281354 0.21189214 -0.10349418
000060 3f d4 0e be db 31 5c bd 8e 1a 88 be 5c da cc 3d
       -0.13948153 -0.053758483 -0.2658276 0.10002586
000070 37 de e5 3e 6a 68 67 be a8 2f ca 3e be cb 4f be
       0.448961 -0.22598425 0.39489484 -0.20292565
000080 21 4e 00 3c 80 1a fc 3c 73 ab 5f 3e 45 fb 64 3e
       0.007831127 0.030774355 0.21842746 0.22361477
000090 1b dd 91 3e 25 b5 37 3e 3a 65 c4 bd 7a e7 03 3e
       0.28489003 0.17940195 -0.0958962 0.1288127
0000a0 f7 95 c9 bd eb ec ed 3d 0e 40 88 3e f5 c3 40 3c
       -0.09843057 0.11617454 0.2661137 0.01176547
0000b0 72 45 05 3f e5 e4 26 be 1f 0a 63 3e 08 d5 3c 3e
       0.5205909 -0.16298254 0.2217183 0.1844064
0000c0 b9 31 4c 3e 58 e6 a3 be f7 d7 b2 be 1f cc f5 3e
       0.19940843 -0.32011676 -0.34930393 0.48007295
0000d0 1a 8c 3c 3e 79 79 40 be a3 c3 f1 bd ea f7 2f 3e
       0.1841282 -0.18796338 -0.11804893 0.17184415
0000e0 35 e6 80 bc a6 1f b0 3e 88 9c 47 3e ff c0 9e be
       -0.015734771 0.34399146 0.19493306 -0.3100662
0000f0 46 8d 1c be 23 73 41 3e 2d e5 fd 3e 69 44 ea 3d
       -0.15288267 0.18891577 0.4958891 0.114388295
000100 6c 7d 3a 3e 22 f7 a0 3e 86 0e 86 be 86 1a 04 bf
       0.18211907 0.31438547 -0.26182956 -0.5160297
000110 f3 65 96 be 97 35 0f 3e 3d dd 1c 3e 70 c1 25 3d
       -0.29374656 0.13985287 0.1531877 0.04046768
000120 3a 90 ec be 63 3e 3c bd ae 9d 71 bd f8 54 3c bd
       -0.46203786 -0.045957934 -0.058988266 -0.04597947
000130 43 46 18 bc 17 3e 7a be 89 61 05 3e 53 38 98 bc
       -0.009294095 -0.24437748 0.13025488 -0.018581545
000140 2f 02 7e 3d a9 35 df bd bc 21 24 3e 89 e3 9b be
       0.0620138 -0.10898907 0.16028494 -0.30447033
000150 34 7a 51 3e 2e 6d 1f be c4 b8 58 be 09 d8 e0 3b
       0.20456773 -0.15568992 -0.21164232 0.006861691
000160 ee 78 01 3f 1f 7f 04 be 06 7d da bd 63 7a 03 3e
       0.5057515 -0.12939118 -0.106683776 0.12839656
000170 85 c4 af 3d a3 e9 cc 3e 45 a8 d4 3e fd 4e 1c bd
       0.08582405 0.40022 0.4153463 -0.038161267
000180 48 8a db 3d 8c 58 56 be b3 3a 1e 3e 07 73 92 3d
       0.107197344 -0.20932215 0.1545208 0.07150846
000190 87 60 34 bd 89 f4 29 be 3e f3 e6 3d 8a 87 52 bc
       -0.04403737 -0.16597189 0.112768635 -0.012849698
0001a0 97 f5 ad be 12 59 36 3d 0d 9a 8c 3d c0 f1 86 bd
       -0.33976433 0.044518538 0.0686532 -0.06589079
0001b0 de d2 ed bd 45 c3 40 be 28 3b b5 3e 50 35 0e bf
       -0.11612485 -0.1882449 0.35396695 -0.555501
0001c0 1a b2 cc 3e 8d 5d 60 bd 52 02 44 3f f7 b5 40 3e
       0.3997963 -0.054776717 0.7656604 0.18819414
0001d0 33 a5 5f bd a4 09 b5 3e 16 c9 ae be 52 68 0e 3e
       -0.054600906 0.35358918 -0.3413779 0.13906983
0001e0 ee da c9 be 84 c9 af bd 82 bd e4 3e 67 9c 53 3e
       -0.39424843 -0.08583358 0.44675833 0.20665132
0001f0 e2 f0 5a 3e be b3 cd 3e a8 ea 24 bd 53 af 62 3e
       0.21380952 0.40176195 -0.04026285 0.22137193
000200 a2 f1 41 be b5 8d 35 bc 68 2a 26 be 05 69 f3 3c
       -0.18939832 -0.011081149 -0.16227114 0.029713163
000210 72 c3 e2 be 1a 21 09 3e b3 9c 1c bd 64 b8 8f be
       -0.44289738 0.13391533 -0.038235378 -0.28070366
000220 f4 69 3d 3e 50 ec 28 3e e9 33 d2 be c6 8c ab 3e
       0.18497449 0.16496396 -0.4105523 0.3350584
000230 21 2b aa 3b d4 d1 e3 bd 8d 14 da bd aa 5a 8f be
       0.0051931296 -0.11124006 -0.10648451 -0.2799886
000240 c7 4b d9 be be 08 b6 3d 97 cb 18 bf 2b 04 66 bd
       -0.42440626 0.08888386 -0.59685653 -0.05615632
000250 de 78 83 3e e8 6b 4e 3e e2 73 8a 3e b0 2b 2b be
       0.25678152 0.2015835 0.27041537 -0.16715884
000260 56 9d 9e 3d 59 52 26 3e ed a3 86 3d fc e1 7f 3e
       0.07744853 0.1624235 0.06574235 0.2498855
000270 88 c9 18 bb 58 78 73 3b 49 79 fc 3c 7a d3 09 3f
       -0.0023313481 0.0037150588 0.030819552 0.5383831
000280 a1 9e b9 be e0 3e f7 bd 0c e6 33 be 25 c6 a8 3e
       -0.36253837 -0.12072539 -0.17568225 0.32963672
000290 db 02 e5 bd 42 11 ed 3d 90 57 8d 3e 89 01 d0 bd
       -0.11182185 0.11575557 0.27605867 -0.10156543
0002a0 7b 1d 65 be 20 d6 d3 bd df bc 32 be aa 13 87 3d
       -0.22374527 -0.103435755 -0.17454861 0.065955475
0002b0 fc aa 25 3d 27 f2 15 3d f2 a3 a2 be 6a 2b aa 3e
       0.040446267 0.036607888 -0.31765705 0.33236247
0002c0 b0 7c d2 be a3 0d 66 3c 1b a1 75 be e5 26 f5 bd
       -0.41110754 0.014041337 -0.23987238 -0.11970309
0002d0 85 20 36 3f ea e8 0f 3e 56 4b ae bd 82 1c 7e bd
       0.7114337 0.14053693 -0.08510463 -0.062038906
0002e0 ed 3c 9a bd 4d 6b b6 be 42 fc 8d 3e 4c d9 f6 3d
       -0.07531152 -0.3562874 0.2773152 0.12053165
0002f0 fb 5b 59 3e 04 54 8b be 2f 7b c1 bd 29 96 1a 3f
       0.21226494 -0.27212536 -0.094473235 0.60385376
000300 4d 40 20 3e aa 95 39 be ba c5 f6 3e e4 5e 2d 3e
       0.15649529 -0.18123499 0.48197728 0.16930729
000310 63 4e b1 bd 23 0a ff 3d 11 de 0c 3e d2 36 98 be
       -0.08657529 0.12453105 0.13756587 -0.29729325
000320 ab 42 1f 3e b1 41 14 be 75 4a 13 bf 83 b8 aa 3e
       0.15552776 -0.14478184 -0.5753549 0.33343896
000330 78 f8 4c be 19 91 ad be 18 0b aa 3e 78 02 1f be
       -0.20016658 -0.33899763 0.3321159 -0.15528286
000340 0c 51 76 be af 2f 21 be f8 31 15 3e 17 4e c9 be
       -0.24054354 -0.15740846 0.14569843 -0.3931739
000350 a4 ac 1b 3e 76 20 a1 3e d1 8e d7 3e c8 a3 ae be
       0.15202576 0.31470078 0.42101148 -0.3410933
000360 30 61 16 3e 20 49 fc 3d 53 0c ed 3c 04 95 09 3e
       0.14685512 0.12318635 0.02893654 0.13435751
000370 90 e3 83 3e 5d 16 93 be 5d 5c 12 3e 02 6b c3 be
       0.25759554 -0.28728 0.14293046 -0.38167578
000380 fa 63 04 bd a4 b5 08 3f 8d a5 c4 3c 98 05 81 3d
       -0.032321908 0.5340216 0.024004722 0.06299895
000390 75 41 f7 bc 49 a8 ad be 65 68 10 3e fb 74 be bd
       -0.03018258 -0.33917454 0.14102323 -0.09299656
0003a0 ea 37 4d be a9 ca 77 3e 58 15 e2 bb a5 b9 f5 bd
       -0.20040861 0.24198402 -0.006899517 -0.119982995
0003b0 ec 61 45 3e a3 b6 8a be 7c 24 21 be b2 5f 39 3d
       0.19275635 -0.27092466 -0.15736574 0.045257278
0003c0 74 ae 57 bd b1 0e c6 3d f1 e2 07 be a9 b9 14 bd
       -0.052656606 0.09670771 -0.13270165 -0.03630987
0003d0 ed a8 d2 3d 6f 09 05 3e 38 5e b4 bd e6 a4 aa 3d
       0.10286126 0.1299188 -0.08807033 0.08332233
0003e0 f9 8f de bd 93 9e 06 be d9 51 ea be 9d 0a df 3e
       -0.10867304 -0.13146429 -0.4576557 0.43562785
0003f0 b3 26 88 3e 22 d0 8c 3e 53 09 1b 3d dd de c0 be
       0.26592025 0.27502543 0.03785069 -0.3767003

stage_1_model.linears.4.bias f4 [48]
000000 23 19 97 3c d9 09 67 3b cc 3b 76 bd 17 e4 8d 3c
       0.018444603 0.0035253672 -0.06011562 0.017320676
000010 1b 83 27 3d e8 06 39 3b 5c e4 83 b9 04 03 88 3c
       0.040896516 0.0028232876 -0.00025156408 0.016603
000020 a7 14 0b 3d eb d4 7e bc a1 79 af ba d1 b1 b5 3c
       0.033955242 -0.015553693 -0.0013387689 0.022179516
000030 37 1e a4 3c 4c 0e 91 bd 4d 42 57 bd 42 06 f3 bc
       0.020033939 -0.07082805 -0.052553464 -0.02966607
000040 af 88 76 bd ef 53 01 3e f4 b2 5d 3c 93 78 10 bd
       -0.060188945 0.12629674 0.013531435 -0.03527124
000050 e3 99 82 bc eb cf a8 bd 85 86 93 bc c4 6b 57 3d
       -0.01594252 -0.08242782 -0.01800848 0.052593008
000060 bf 6d ed 3c c8 f4 ce bc 7b ea 53 bd a3 20 e0 3c
       0.028982995 -0.025263205 -0.05173729 0.027359312
000070 11 a1 75 3c 62 ad e9 bc 8f c8 bd bc 87 47 35 3d
       0.0149920145 -0.028525058 -0.023166923 0.044257667
000080 b5 f6 c3 3c 47 3a 9d 3a 83 24 ff 3c 21 0b 29 bd
       0.02392135 0.0011995517 0.03114534 -0.04127038
000090 9a 8c 03 bc 6d 65 1b bd 28 d7 5f 3a ae 80 ca bb
       -0.0080291275 -0.037938524 0.00085388357 -0.0061798906
0000a0 35 18 b0 3c e4 58 37 3c 43 5d c5 bb 1f 65 f0 bb
       0.021495918 0.011190627 -0.0060230806 -0.0073362733
0000b0 7b 36 e6 3c a4 51 47 3c 17 f3 59 3b 00 5e 1d bc
       0.02810215 0.012165461 0.0033256465 -0.009604931

stage_1_model.gru.weight_ih f4 [144, 48]
000000 e7 ae 30 3e 0f 73 97 bd 05 4b 31 bd a0 7f a5 3d
       0.1725422 -0.073949926 -0.043284435 0.08080983
000010 13 14 1c 3e 1d 7a 00 bd 7a 00 f8 3c eb 73 a4 3d
       0.15242033 -0.031366456 0.030273665 0.08029922
000020 6c db 6f 3e 8d f0 7f 3d ba bc 82 bd d1 1c 3b be
       0.23423547 0.062485266 -0.06383653 -0.18272711
000030 42 c1 5b be 47 a5 12 3e df 15 81 bd b9 97 5d 3e
       -0.21460441 0.14320861 -0.06303 0.21639909
000040 4e 24 a4 3e 11 ea 22 be 3e 2f 9b 3e 6e c8 49 be
       0.32058948 -0.15909602 0.3030948 -0.19705364
000050 11 0f 4a be d1 29 af 3d 41 1f e2 bd 3f b2 62 3b
       -0.1973231 0.08552898 -0.110411175 0.0034591106
000060 57 75 f9 bc 28 fb 00 3c 38 c5 8b be 6a f7 a1 bd
       -0.03045146 0.00787238 -0.27298903 -0.079085186
000070 24 d8 41 3e 86 5c c7 bc da 24 c7 3c df 84 6d be
       0.18930107 -0.02433611 0.024309564 -0.23195218
000080 bb c1 ea bd 36 ef 23 bd 5c f0 5c be ab 04 cb 3d
       -0.114627324 -0.04002305 -0.21576065 0.09913
000090 b4 a9 92 bd 8f 4d 36 3e ad f5 c6 3e 75 72 4c 3e
       -0.071612746 0.17803024 0.3885931 0.19965537
0000a0 20 1e 80 be b7 57 12 3e b0 d0 9a 3d 8f b1 63 3d
       -0.25022984 0.14291273 0.07559335 0.055589255
0000b0 91 f7 79 be 6f be e9 bd 4c fe ae 3d 53 ae 21 3e
       -0.24410845 -0.114132755 0.08544597 0.15789156
0000c0 61 0e 07 bd 75 4c 80 bd bb 43 3c 3e ff 0e 4e be
       -0.032972697 -0.06264583 0.18385212 -0.20122908
0000d0 25 62 3d 3d 32 59 93 bd 07 b2 e5 3e 8a 4d 58 3d
       0.046236176 -0.07194747 0.44862387 0.052808322
0000e0 01 43 06 3e 63 62 96 bc 3b 5a f0 bd 39 84 f3 3b
       0.13111497 -0.018357461 -0.1173596 0.0074315337
0000f0 64 2e 4c bd 59 c5 eb 3c f8 89 c1 3d 96 8d 49 be
       -0.04984893 0.028780626 0.094501436 -0.19682917
000100 4c a6 1e 3c 51 8b 15 3e 9c a2 27 bb 93 0e 08 3e
       0.009683203 0.14603926 -0.00255791 0.1328681
000110 d5 c6 65 3e 1e ab 5a be 26 a4 d4 3b 49 30 32 bd
       0.2243913 -0.21354339 0.0064892946 -0.04350308
000120 c4 d7 ea 3c 10 2d 8c be 5b 0d 1d bc 9f 62 99 3c
       0.028667338 -0.2737813 -0.009585704 0.018723784
000130 c8 11 a2 3c 51 6c a5 3d 18 d6 85 3e aa d0 3d be
       0.01978387 0.080773 0.26139903 -0.1853663
000140 a0 0f c7 bd 34 3e 89 3c f5 69 b5 be 78 6a 43 bd
       -0.09719777 0.016753294 -0.354324 -0.04770896
000150 47 ca 88 3e e9 41 21 3e 5a ba a0 bd e0 56 77 bd
       0.26716825 0.15747799 -0.07848044 -0.060385585
000160 38 b7 8f 3d 8f 9d a4 3d 75 29 c3 bd 07 a0 43 bc
       0.07017368 0.080378644 -0.09529392 -0.011940009
000170 c4 97 39 3e b3 d0 20 be 39 37 fe bc e0 2c 5e 3e
       0.181243 -0.15704612 -0.031032192 0.21696806
000180 7b dd 7c 3d 16 cd 0c be 4a d2 eb bd 1b c2 dd 3e
       0.061734658 -0.13750109 -0.11514719 0.43312153
000190 00 ab 79 3e 12 e4 29 be 86 ac 7c 3e de b1 15 3c
       0.24381638 -0.16590908 0.24675187 0.009136645
0001a0 3c 14 09 be 7d b3 a9 3d 16 31 0e be ff b5 8a be
       -0.13386625 0.08286188 -0.13885912 -0.27091977
0001b0 ce f0 ac bc 05 7a 85 3d 8f 8e 72 bc 9f 16 43 3d
       -0.021110918 0.06517414 -0.014804496 0.047628995
0001c0 e5 cb 1c be aa c0 ab 3e f4 2e 78 bd ca db 9b 3d
       -0.15312155 0.3354543 -0.060591653 0.07610281
0001d0 1e f0 0f bd 01 9f 74 be 45 8e 01 be 34 e2 41 3d
       -0.035141103 -0.2388878 -0.12651928 0.047334865
0001e0 2c f0 d3 be 4a 6a 76 be 91 d7 f7 3d 77 5b 95 3e
       -0.41394174 -0.24063984 0.12101663 0.29171345
0001f0 9b f3 47 be 6b d4 ca bd 32 83 9a 3e dc 2a f5 3d
       -0.19526522 -0.09903797 0.3017822 0.119710654
000200 ae 05 ac bd 20 b5 54 3e 8c 8a 3d be 74 3d 18 be
       -0.08399521 0.20772219 -0.18509883 -0.14867193
000210 33 07 41 3e cc 22 bc be 02 af 99 3b a0 4c 91 be
       0.18850403 -0.36745298 0.004690052 -0.28378773
000220 6e d6 17 3e 5f e3 7b 3e 60 d1 0a 3e 71 32 07 bd
       0.14827892 0.24598454 0.13556433 -0.03300709
000230 d1 d5 91 bc f4 ba ec 3d 70 73 c6 3e f1 c8 dd b7
       -0.01780215 0.11559096 0.38759947 -2.6438824e-05
000240 28 cf c5 bd 24 d1 09 be b1 f0 f4 bd 2f 6b 97 bd
       -0.096586525 -0.13458687 -0.11959971 -0.073934905
000250 8b d2 2b 3d df f1 b7 bb 27 08 a5 3c e6 33 8b bc
       0.041948836 -0.00561355 0.020145489 -0.01699252
000260 3c ac f0 3d 3b 3a b5 3c 1b 66 a9 bc c3 8b 95 be
       0.11751601 0.022122493 -0.02067857 -0.29208192
000270 4d 3b 56 3d d5 d8 2c 3e b3 a2 7f be 53 a8 01 be
       0.052302647 0.1687959 -0.24964409 -0.12661867
000280 1a c9 04 bd bc 3c 15 3e da 9a 2e bd 55 df b1 bd
       -0.032418348 0.1457395 -0.042628147 -0.08685175
000290 3b c7 2c 3d 19 b8 ed be d2 24 d7 3d 6b 4d 57 be
       0.04218219 -0.46429518 0.1050507 -0.21025626
0002a0 98 79 2e 3b 4c 81 dd bd d1 d2 fb 3c 18 f6 7b 3e
       0.0026622768 -0.10815677 0.030740174 0.24605596
0002b0 a3 8b dc 3d 6f d1 61 3c 77 11 52 3e bb 3d 16 3e
       0.10768821 0.013782843 0.20514475 0.14671986
0002c0 27 ff 34 be 4e c5 5e bd 0d 46 4c 3d 0f c7 65 bd
       -0.17675458 -0.054387383 0.049871493 -0.05609804
0002d0 36 49 3d be 11 8b 26 bc 9d 9d 6a 3d 76 68 16 be
       -0.18484959 -0.010164992 0.057279218 -0.14688286
0002e0 67 c3 2c 3e 80 c0 0b 3e 78 5d 4e be fe cb 3c 3e
       0.16871415 0.13647652 -0.20152843 0.18437192
0002f0 ce 01 08 3f e0 6a 33 3e e9 de e3 3c f4 3a ac be
       0.53127754 0.17521238 0.027816253 -0.33638728
000300 fb cf 9a bd 69 2e ac be 2f fe 79 3d c6 8c 4b be
       -0.075592004 -0.33629158 0.061033424 -0.1987792
000310 04 e6 53 3c 70 e4 d9 3d a9 1d 72 be 66 24 d2 3d
       0.012933258 0.10639274 -0.23644127 0.10260849
000320 63 a8 ec be 9f 3b 09 3a 66 6a 6a 3b 77 67 08 be
       -0.4622222 0.00052350195 0.0035768985 -0.13320719
000330 66 8f 06 bc 3d 18 9e 3d 27 28 04 bd ae 53 a9 bd
       -0.0082129 0.07719467 -0.032264855 -0.08267914
000340 d4 86 52 be 29 92 93 3d 12 16 36 be c2 90 94 3e
       -0.20559245 0.07205612 -0.17781857 0.2901669
000350 c7 d8 e1 3d 3f a3 71 3e d6 99 47 3e 8e 5a bc bc
       0.11027675 0.2359743 0.19492278 -0.022992399
000360 e4 df c8 3d 23 ad 47 3e ed 4f 5f bd 9f 5b 03 be
       0.09808329 0.1949964 -0.054519583 -0.1282792
000370 65 b6 72 bd 19 2b b3 3b 07 8e 4d be e5 7f 61 bc
       -0.059255976 0.005467784 -0.2007371 -0.013763403
000380 9a b7 45 3e b3 09 05 bd 6a 23 5c bc b2 3f d2 3d
       0.1930832 -0.032479953 -0.013436178 0.10266055
000390 02 bd 36 bb 0a 49 97 3d 0f f1 04 3e f9 be 9c bc
       -0.0027883654 0.07386978 0.12982582 -0.019134032
0003a0 7a 97 a0 be c5 0e 12 be f0 c6 05 be 7c d6 55 3d
       -0.31365567 -0.14263447 -0.1306417 0.0522065
0003b0 a7 e0 db bd 46 6b fc bd 0a 31 d1 3c 10 0b ff bd
       -0.107362084 -0.12325148 0.025536079 -0.12453282
0003c0 75 49 b9 3d f2 77 1a be 33 ef 72 bd e5 5e 08 3e
       0.09047214 -0.15084818 -0.05931015 0.1331745
0003d0 89 2a 15 3e a0 a9 bd be a2 39 eb 3d 47 99 be 3c
       0.14567007 -0.37043476 0.11485602 0.023266448
0003e0 d9 af 3a be 5e 9b ec 3e 29 a2 1c 3e b6 bc 7a 3e
       -0.18231143 0.46212286 0.15296234 0.2448605
0003f0 ef bc 97 bd 35 c7 1a 3e 3d 10 1b be 6e 72 49 3e
       -0.07409083 0.15115054 -0.15142913 0.19672558
