GNN_DTI/model/20221121_215902_GNNDTI_repeat1/model/epoch-389, train_loss-1.7041, train_rmse-1.3054, valid_rmse-1.3826, valid_pr-0.6645.pt (torch, 879432 bytes, 24 tensors)

gconv1.0.A f4 [140, 140]
0	0x3c2b2fdf	0.010448425
1	0xbc31e2dd	-0.010857311
2	0xbb1707f6	-0.0023045517
3	0xbc296875	-0.010339846
4	0xbce28ee8	-0.027656034
5	0x3b51da28	0.00320209
6	0xbc265e49	-0.010154315
7	0x3c613687	0.0137459105
8	0x3bed1ba8	0.007235963
9	0x3cbe0922	0.023197714
10	0xbc059e16	-0.008155366
11	0x3c8b5f16	0.017013114
12	0x3ac2eb54	0.0014871159
13	0xbc13b920	-0.009016305
14	0x3b115aad	0.002217929
15	0x3b9784e9	0.0046239984
16	0x3c6fa72b	0.014627258
17	0xbb9f3894	-0.0048590396
18	0x3c7e3d84	0.015517596
19	0xbc5e01ac	-0.013550203
20	0x3cef6d4d	0.029226923
21	0xbc3cd6ab	-0.01152579
22	0x3c596bad	0.013270301
23	0xbbac4863	-0.0052576526
24	0x3ca67e1d	0.020323807
25	0x3c5cab20	0.013468534
26	0xbba10cfe	-0.004914879
27	0xbd2249cd	-0.039621163
28	0x3c5820c4	0.013191406
29	0x3cc0dfc7	0.023544205
30	0xbb8f4f88	-0.0043734945
31	0x3aa1b3c5	0.0012336901
32	0x3c900af0	0.01758334
33	0x3c5b8a11	0.013399617
34	0xbcd51851	-0.026012572
35	0xbbf85af0	-0.0075792
36	0x3b9dee9c	0.004819704
37	0xbb9da0cf	-0.0048104296
38	0x3c3cfb7a	0.011534566
39	0x3cdeebe5	0.027212093
40	0x3932d244	0.00017053733
41	0x3c25d9c3	0.010122719
42	0xbc16bae5	-0.009199833
43	0x3a390bbf	0.000705894
44	0x3c38b48c	0.0112735145
45	0xbbf19dec	-0.007373562
46	0xbbcc2e92	-0.0062311376
47	0xbc9475a0	-0.018122494
48	0x3a48d254	0.0007660736
49	0xbc3b28d8	-0.011423312
50	0xbc6c47f2	-0.01442145
51	0x3bf864a7	0.007580358
52	0xbc175a9a	-0.00923791
53	0x3c3e2d16	0.011607429
54	0xbc0d9676	-0.00864183
55	0x3c442b68	0.0119732395
56	0xbac154eb	-0.0014750039
57	0xbc05d070	-0.008167371
58	0x3c4163d6	0.011803588
59	0x3c2c3d41	0.010512651
60	0xbbdc1be4	-0.006717192
61	0xbbf9322c	-0.007604858
62	0xbcae9174	-0.021309592
63	0x3bb4c302	0.005516411
64	0x3ca5c31b	0.020234635
65	0x3ca633c2	0.020288352
66	0xbcce3c63	-0.025175279
67	0x3a412907	0.0007368479
68	0xbc4d789c	-0.012540963
69	0xbb69429c	-0.003559268
70	0x3cc34ce9	0.023840385
71	0xbb6c65ef	-0.00360715
72	0x38d13b9c	9.977e-05
73	0xbc37ae7e	-0.011211036
74	0xbc8758a9	-0.016521769
75	0xbc797514	-0.0152256675
76	0x3cb5413d	0.022125835
77	0xbcd77c2f	-0.026304333
78	0xbb5a9477	-0.0033352652
79	0xbc1352d2	-0.008991914
80	0xbc65156a	-0.013982156
81	0x3c7d78a3	0.015470657
82	0x3c04fdaf	0.0081171235
83	0x3c2d7035	0.010585834
84	0x3c8054c7	0.015665425
85	0x3cb5d059	0.022194074
86	0xbd0a9803	-0.033836376
87	0xbcb991f4	-0.022652604
88	0xbc58fe8b	-0.0132442815
89	0xbc65b9c2	-0.014021339
90	0xbc633531	-0.013867662
91	0xbc36ffb7	-0.011169366
92	0xba991aab	-0.0011680921
93	0xbb3c60ed	-0.0028744296
94	0x3be91586	0.0071131615
95	0x3c690ef9	0.014224761
96	0x3c9a0bc4	0.018804438
97	0xbbfc7e86	-0.0077055125
98	0x3b85804a	0.004074131
99	0xbc175359	-0.00923618
100	0x3ca0bd94	0.019621648
101	0xbba39bfc	-0.00499296
102	0xbd249f57	-0.04019102
103	0x3cbecf56	0.023292225
104	0x3a042b1d	0.0005041825
105	0x3c319d49	0.010840722
106	0x3c26ddcd	0.010184717
107	0x3b8def46	0.004331502
108	0x3c6f614a	0.014610598
109	0xbcbde7f9	-0.023181902
110	0x3cb28938	0.021793947
111	0xbcca0ab3	-0.024663305
112	0x3c13373d	0.008985338
113	0x3bdbae45	0.006704124
114	0x3b99fb8f	0.0046991776
115	0x3bab007d	0.005218564
116	0xbc49f1f7	-0.012325755
117	0x3ccecab5	0.025243143
118	0xbbd12b70	-0.006383352
119	0xbc305ab2	-0.010763811
120	0xbcd1c5d8	-0.025607035
121	0xbbb2d41e	-0.0054574152
122	0x3c57660c	0.013146888
123	0xbc916688	-0.017749086
124	0x3c3af554	0.01141103
125	0x3c60f7e4	0.013730977
126	0xbbed9930	-0.0072509274
127	0x3cc60dad	0.024176443
128	0x3adeecfd	0.0017007884
129	0x3c829a0e	0.0159426
130	0x39b48d6a	0.00034437637
131	0x3cbf496d	0.023350442
132	0x3b5615e2	0.0032666852
133	0x3c99a474	0.018755175
134	0x3bb8e55f	0.0056425775
135	0x3c38789c	0.011259224
136	0x3c001621	0.007817776
137	0xbc55a3c9	-0.013039538
138	0xbc1e1425	-0.0096483575
139	0x3c7e1486	0.015507823
140	0xbc33749a	-0.010953093
141	0xbc49d59b	-0.012318994
142	0xbc8a2222	-0.016861979
143	0x3bf09835	0.0073423632
144	0x3af35a69	0.0018566373
145	0xbcaa7985	-0.020809898
146	0x3b65e5b0	0.0035079531
147	0x3bacd409	0.0052743
148	0x3ca5beaa	0.020232517
149	0xbbc9be4d	-0.006156719
150	0xbc137af1	-0.0090014795
151	0xbcf0c056	-0.029388588
152	0xbca35c8e	-0.019941594
153	0x3c648517	0.013947747
154	0x3cac0982	0.021000627
155	0xbc9f5646	-0.019450318
156	0xbcce98d1	-0.025219353
157	0xbc673348	-0.0141113475
158	0xbc0e3ea7	-0.00868193
159	0x3c69e0cd	0.014274788
160	0xbbec8c29	-0.007218857
161	0x3ca64148	0.0202948
162	0xbbf578b1	-0.007491194
163	0x3ca35840	0.019939542
164	0x3b496493	0.0030730113
165	0xbc8104d2	-0.015749369
166	0xbcb01e75	-0.021498898
167	0xbc3bc8e3	-0.011461469
168	0xbb902376	-0.0043987585
169	0x3b5f7602	0.0034097438
170	0x3b5e7d46	0.003394918
171	0x3c7506fb	0.014955278
172	0x3cdbe373	0.026841855
173	0xbc519d8f	-0.012793913
174	0xbc033ad4	-0.008009631
175	0x3b576b29	0.003287027
176	0xbaa4d2f2	-0.0012575074
177	0xbb9c736c	-0.0047745015
178	0xbc800a2c	-0.01562985
179	0x3ae7a96d	0.0017674394
180	0x3b00012c	0.0019531948
181	0x3b1897b8	0.002328379
182	0xbd15709a	-0.03648434
183	0xbcdc1ef9	-0.026870238
184	0xbc6f9a0c	-0.01462413
185	0xbabb74be	-0.001430176
186	0x3cafe620	0.021472037
187	0x3cce2668	0.025164798
188	0xbbd8c72d	-0.0066155405
189	0x3c6b2ac3	0.014353457
190	0x3b867510	0.0041033104
191	0x3c351b95	0.011053939
192	0xba9bb1ee	-0.0011878589
193	0xbc4154fb	-0.011800046
194	0x3bef7fc0	0.00730893
195	0x3c7c153d	0.015385923
196	0x3cde6e10	0.027152091
197	0x3c07f868	0.008298971
198	0x3c1f14d8	0.009709559
199	0x3cbb9007	0.022895826
200	0xbc89ccb3	-0.016821241
201	0x3b134264	0.0022469992
202	0x3c5000a0	0.0126954615
203	0xbc2947ac	-0.010332029
204	0xbc703044	-0.014659945
205	0x3c151654	0.009099562
206	0xbb7c7378	-0.0038520973
207	0xbbf5d8d1	-0.007502653
208	0xba680634	-0.0008851022
209	0x3b6d54ba	0.003621383
210	0xbbe87794	-0.007094333
211	0xbc218ba9	-0.009859958
212	0xbca0d3ee	-0.019632306
213	0xbbe9fc10	-0.007140644
214	0x3c9c4e0b	0.019080183
215	0x3ac3c8c8	0.0014937157
216	0xbcf174f5	-0.029474715
217	0x3a50903f	0.00079560647
218	0x3bc08901	0.005875707
219	0x3c238117	0.009979508
220	0x388049c8	6.1172585e-05
221	0x3ae9151d	0.0017782782
222	0xbb83e752	-0.0040253783
223	0x3a85a008	0.0010194788
224	0x3c171f35	0.009223749
225	0x3c3cb3e0	0.011517495
226	0x3cecd6ae	0.028910961
227	0x3bf56056	0.007488291
228	0xbbec7cd0	-0.0072170272
229	0xbc29f0dd	-0.010372368
230	0x3c25ea14	0.010126609
231	0x3cabe5dd	0.02098363
232	0xbc56ff8b	-0.01312245
233	0xbc0fec52	-0.0087843705
234	0x3c9950ee	0.018715348
235	0x3c44f664	0.012021635
236	0x3bd5cf99	0.0065249917
237	0xbd088fad	-0.033340145
238	0xbc54597e	-0.01296079
239	0xbbd2463b	-0.0064170635
240	0xbc58bdf3	-0.013228881
241	0xbc0022c3	-0.007820788
242	0x3cad530e	0.021157768
243	0xbc9dc723	-0.019259995
244	0x3bdfa5be	0.006825178
245	0xbc6a84a7	-0.014313853
246	0xbc1bb6c2	-0.009504022
247	0xb9bcbd1e	-0.00035999058
248	0xbc30a100	-0.010780573
249	0xbc4980ca	-0.012298772
250	0xbc9801bf	-0.01855552
251	0xb6bec068	-5.6848403e-06
252	0x3b5885a9	0.0033038652
253	0xbccc0ef5	-0.024909476
254	0xbd193a4a	-0.037409104
255	0x3d044df5	0.032300908

gconv1.0.W.weight f4 [140, 140]
0	0x3c7614d9	0.015019619
1	0x3d792df2	0.060834832
2	0xbd702806	-0.05863192
3	0x3d56b0c2	0.052414663
4	0xbd76e21c	-0.06027423
5	0x3d22c986	0.03974297
6	0x3bfe7a85	0.0077660703
7	0x3b98dbd7	0.004664879
8	0xbbaad05c	-0.0052128267
9	0x3d5c843b	0.053837042
10	0x3d0028c9	0.031288896
11	0xbdaa698f	-0.08320915
12	0x3cc0dda4	0.023543186
13	0xbcf81b13	-0.030286347
14	0x3d22b347	0.039721753
15	0x3d6df314	0.058093145
16	0x3d80818d	0.0627471
17	0xbcaf1ee7	-0.02137704
18	0xbd87b52a	-0.06626351
19	0xbdadfcf2	-0.08495511
20	0x3a96c81d	0.001150373
21	0x3ddfc09c	0.10925409
22	0x3d4dc8d6	0.05024036
23	0xbd86a815	-0.06575028
24	0xbd5eb630	-0.054372966
25	0xbdd46a7a	-0.10371871
26	0xbb5febfa	-0.0034167753
27	0x3c333739	0.010938459
28	0xbd27aefc	-0.040938362
29	0x3d304551	0.043034855
30	0x3ca4da8f	0.020123748
31	0x3c582f44	0.013194863
32	0xbd0c2b65	-0.03422107
33	0x3cfc1678	0.030772433
34	0xbd827659	-0.06370229
35	0xbd9a6656	-0.0753905
36	0xbd76b0d4	-0.06022723
37	0xbce7e094	-0.02830533
38	0xbdc67d46	-0.09691863
39	0xbc8ef7fb	-0.01745223
40	0x3d16f07f	0.03685045
41	0xbd37b786	-0.044852756
42	0xbd84b3cb	-0.06479605
43	0x3d8c0a74	0.06837931
44	0xbd952c60	-0.072838545
45	0x3d6d154d	0.057881642
46	0xbd55d7d0	-0.052207768
47	0xbd0dc53d	-0.03461193
48	0xbcc39123	-0.023872918
49	0xbd03e73a	-0.032202937
50	0xbdaf0451	-0.08545745
51	0xbd2f9620	-0.04286778
52	0x3c97a009	0.018508928
53	0x3d9bfa8e	0.07616149
54	0x3bd70739	0.0065621403
55	0xbd87c1af	-0.06628739
56	0xbd13974d	-0.036032964
57	0xbd8c6ce8	-0.0685671
58	0xbd83fe5a	-0.06444998
59	0x3d1e4db2	0.038648315
60	0x3d215412	0.039386816
61	0x3d15af33	0.036544036
62	0xbd1b561c	-0.037923917
63	0x3dad0228	0.08447677
64	0xbcc07862	-0.023494903
65	0xbcf3ea9e	-0.02977496
66	0xbceeb87b	-0.029140702
67	0x3d490329	0.04907528
68	0xbca25b4a	-0.01981892
69	0xbc45e141	-0.0120776305
70	0xbddd58b8	-0.108079374
71	0xbb80ca28	-0.003930349
72	0xbd9082e5	-0.07056216
73	0x3d4622b4	0.04837294
74	0xbb336f7f	-0.002737969
75	0xbc387c31	-0.011260078
76	0xbd9723e8	-0.073798954
77	0xbcff7605	-0.031184206
78	0x3c7edcb1	0.015555547
79	0x3bb2d528	0.005457539
80	0x3d92e70a	0.071729735
81	0xbd5f736e	-0.05455344
82	0xbd8acd43	-0.06777432
83	0x3d43f85e	0.047844283
84	0xbda0ac4a	-0.078453615
85	0xbd2ad6fd	-0.041708935
86	0x3d7bd811	0.061485354
87	0xbd3498ad	-0.044090915
88	0x3db3015c	0.08740494
89	0xbd8a0fba	-0.06741281
90	0x3dc6476f	0.096815936
91	0xbd1c9a5e	-0.038233154
92	0x3dac88a6	0.08424501
93	0xbbc2dfe5	-0.0059471005
94	0xbab265ff	-0.001361072
95	0xbd843de6	-0.06457119
96	0x3ba6bb1f	0.0050882245
97	0xbd058b79	-0.032603715
98	0xbd7f9fde	-0.06240832
99	0xbc6d69fa	-0.014490599
100	0xbd94d5c6	-0.072673365
101	0xbc3489a2	-0.011019142
102	0xbb00f09d	-0.0019674667
103	0x3dc65725	0.0968459
104	0x3d62c5d2	0.055364437
105	0xbd95670d	-0.07295046
106	0xbd967a58	-0.07347554
107	0xbdaa2ff5	-0.08309928
108	0xbd22f4c3	-0.039784204
109	0x3d87e49c	0.06635401
110	0xbdc1ac42	-0.09456684
111	0xbd6f81fd	-0.058473576
112	0x3d9fe705	0.07807735
113	0x3d0cd028	0.0343782
114	0xbb984394	-0.004646728
115	0x3d844d98	0.06460112
116	0xbd6a988b	-0.057274383
117	0xbd9f6b6c	-0.07784161
118	0x3ced8296	0.028992932
119	0xba1db4fa	-0.00060160423
120	0xbcea1672	-0.028575156
121	0x3c619de1	0.013770551
122	0x3b39e323	0.0028364144
123	0xbdcbc810	-0.09950268
124	0xbd30f1d7	-0.043199386
125	0xb9d3f2ae	-0.00040425867
126	0x3d0a69b6	0.03379222
127	0xbdc60267	-0.09668427
128	0xbdb28048	-0.08715874
129	0x3d6feb66	0.058574103
130	0x3d31295f	0.043252345
131	0xbd16ee17	-0.036848154
132	0xbc976cdb	-0.018484524
133	0x3cca8a8c	0.024724267
134	0x3d8a6d48	0.06759125
135	0xb9b909e7	-0.00035293328
136	0xbc43ae3c	-0.011943396
137	0x3d83a657	0.06428211
138	0x3c88f58f	0.016718654
139	0xbd9ab011	-0.07553113
140	0xbd909351	-0.070593484
141	0x3c55ba7f	0.013044952
142	0x3c30a7ad	0.0107821645
143	0x3cce93dc	0.02521699
144	0x3c6a41b0	0.014297888
145	0x3db5cb23	0.08876636
146	0xbdcc5062	-0.09976269
147	0xbdd0e9e1	-0.10200859
148	0xbd59f463	-0.05321158
149	0x3cfcbe79	0.030852543
150	0xbcccfc49	-0.025022643
151	0xbdd4e1ae	-0.103946075
152	0xbcf42903	-0.029804712
153	0x3d010ed2	0.031508274
154	0xbc128efa	-0.008945221
155	0x3cc1e35d	0.023667986
156	0xbbbe1cb8	-0.0058017634
157	0xbd85f39b	-0.06540605
158	0x3d7c9b4e	0.061671548
159	0xbad24707	-0.0016042896
160	0xbd5b02ad	-0.05346935
161	0xbd9cdffe	-0.076599106
162	0xbc84bf98	-0.01620464
163	0x3c57c371	0.013169155
164	0xbc65b856	-0.014021
165	0xbd7af5d8	-0.06126961
166	0xbe184cfc	-0.14873117
167	0x3d839dd5	0.064265884
168	0x3d329bf1	0.04360575
169	0xbd67ccd0	-0.05659181
170	0xbc4165e8	-0.0118040815
171	0xbd312c86	-0.04325535
172	0xbd7955de	-0.060872905
173	0x3d8209e4	0.06349543
174	0x3d5d6089	0.05404714
175	0x3cfe03fb	0.031007757
176	0x3d873c89	0.06603343
177	0xbccb98af	-0.024853079
178	0x3dd82063	0.10553052
179	0xbd95e9d3	-0.07319989
180	0xbdb668eb	-0.0890673
181	0xbd90dddc	-0.07073566
182	0x3caa2544	0.020769723
183	0x3c8a186a	0.016857345
184	0x3d648b5d	0.05579697
185	0x3d87f808	0.06639105
186	0xbd313da4	-0.043271676
187	0xba646c33	-0.00087136327
188	0x3c8fd781	0.017558815
189	0xbdacfb52	-0.08446373
190	0x3dac605f	0.08416819
191	0xbc1d41a2	-0.009598168
192	0x3d4a14da	0.04933629
193	0xbc8cf2d2	-0.01720563
194	0x3d3e53ed	0.046466757
195	0x3d1f28c7	0.038857248
196	0x3d93e2c4	0.072209865
197	0xbd3a9837	-0.04555532
198	0x3d24205e	0.04006993
199	0xbc86fc97	-0.016477866
200	0xbdb24db4	-0.08706227
201	0x3d506b60	0.05088365
202	0xbc455294	-0.012043614
203	0xbd0dd4a2	-0.03462661
204	0x3debcc39	0.11513562
205	0xbdb455f0	-0.08805454
206	0x3d17d3a4	0.03706707
207	0xbd7f2f67	-0.062301066
208	0xbd11943b	-0.035541754
209	0x3e026bfe	0.12736508
210	0xbc3610ec	-0.011112433
211	0x3ccf2ac1	0.025288941
212	0xbdd115bd	-0.102092244
213	0xbd21c215	-0.03949173
214	0xbd0048ef	-0.031319555
215	0xbe068159	-0.1313528
216	0x3c715f87	0.014732248
217	0xbd476256	-0.048677765
218	0x3c9628f9	0.018330084
219	0x3cba052e	0.022707548
220	0xbd4ee17e	-0.050508015
221	0x3cee4f28	0.029090479
222	0xbdfe058f	-0.12403404
223	0xbce5be24	-0.028044768
224	0xbcd3fb14	-0.02587656
225	0x3db3a5c7	0.08771854
226	0xbd1477eb	-0.036247175
227	0xbd5921bf	-0.0530107
228	0xbd155cb2	-0.036465354
229	0xbd2ad114	-0.0417033
230	0xbe034198	-0.12817991
231	0xbdcaa32c	-0.09894404
232	0xbdbd8c30	-0.09255254
233	0xbe10d96b	-0.14145438
234	0x3c5f7cfa	0.013640637
235	0x3c2300bf	0.009948908
236	0xbd2188ac	-0.03943698
237	0x3d33945c	0.04384266
238	0x3c0cfee5	0.0086056935
239	0xbd8913ca	-0.066932276
240	0x3d2cf5af	0.04222649
241	0x3c3eeb3c	0.011652764
242	0x3d3ef7d9	0.046623085
243	0xbd45cd83	-0.048291694
244	0x3d157533	0.036488723
245	0xbc5a9537	-0.01334124
246	0x3cf4d951	0.02988878
247	0xbc59b1f9	-0.013287061
248	0xbd33504b	-0.043777745
249	0x3d694e4b	0.05695943
250	0xbcd4c221	-0.025971474
251	0x3da4d548	0.08048493
252	0xbdabacd8	-0.08382577
253	0x3d403b6e	0.046931677
254	0xbdc8a72a	-0.09797509
255	0x3da9353a	0.08262105

gconv1.0.W.bias f4 [140]
0	0xbd80518e	-0.06265555
1	0xbd5542d1	-0.052065674
2	0xbcd09937	-0.025463684
3	0x3d7e3144	0.062058702
4	0xbd2d50d7	-0.042313423
5	0xbc2f49ac	-0.010698717
6	0xbd651764	-0.05593051
7	0xbd21b8e2	-0.03948296
8	0xbd6ff28d	-0.058580924
9	0xbd4ccf04	-0.050002113
10	0xbdaa9c8c	-0.0833064
11	0x3d873221	0.06601358
12	0x3afe1f80	0.001938805
13	0xbd8f0bcc	-0.06984672
14	0xbd70d0fd	-0.058793057
15	0x3be4a322	0.0069774548
16	0xbd6da022	-0.058014043
17	0x3caf8539	0.02142583
18	0xbd5c03c5	-0.053714532
19	0x3c78be36	0.015182069
20	0x3c95cee3	0.018287128
21	0xbd813c3a	-0.063103154
22	0x3d9f5e17	0.07781618
23	0x3d8fe18c	0.070254415
24	0xbd0796db	-0.03310285
25	0xbb8537a3	-0.0040654703
26	0xbcde9ec5	-0.027175317
27	0x3c0bbf38	0.008529477
28	0x3ca8efad	0.020622099
29	0x3bf206c4	0.0073860604
30	0xbd9a10b0	-0.07522714
31	0x3d67034d	0.056399632
32	0x3cea1a36	0.028576951
33	0xbd57bb41	-0.052668814
34	0x3dc4ce69	0.09609682
35	0x3d800c64	0.06252363
36	0x3dd19cde	0.10234998
37	0x3cfe520d	0.031044984
38	0x3d572ca5	0.05253281
39	0x3c8667d9	0.01640694
40	0x3d62b7d5	0.055351097
41	0x3ad0afa2	0.0015921483
42	0x3d81dfc8	0.06341511
43	0xbba2fef8	-0.0049742423
44	0x3d28baf9	0.041193936
45	0x3da2bf7c	0.07946679
46	0xbc385633	-0.01125102
47	0xbd84caf1	-0.064840205
48	0x3d8a97ff	0.06767272
49	0xbd277f23	-0.04089273
50	0x3d100f78	0.035171002
51	0x3d98c8f6	0.07460205
52	0x3d26ee18	0.040754408
53	0xbd06e176	-0.03292986
54	0x3d8d1ced	0.06890283
55	0xbd717207	-0.058946636
56	0xbd01d66f	-0.03169864
57	0x3d6041b8	0.054750174
58	0xbd995072	-0.07486047
59	0x3d91bfaf	0.07116639
60	0xbd2ac05e	-0.041687362
61	0x3c8ae28c	0.01695373
62	0x3d855c45	0.0651174
63	0xbd8520ff	-0.06500434
64	0xbcb64d6c	-0.022253715
65	0xbd73d2ac	-0.059527084
66	0xbcf98373	-0.030458188
67	0x3cb7c71f	0.022433816
68	0x3d508449	0.050907407
69	0x3c0c6ce6	0.008570885
70	0x3d1a910c	0.037735984
71	0xbceccbc0	-0.02890575
72	0xba14fc21	-0.0005683322
73	0x3d698fa9	0.05702177
74	0x3dba1a74	0.09087077
75	0xbca4bfab	-0.020110926
76	0xbd853944	-0.06505063
77	0x3d90314a	0.07040651
78	0xba089635	-0.0005210371
79	0xbd61a253	-0.055086445
80	0xbd56e936	-0.0524685
81	0x3d0c2d99	0.034223173
82	0x3c3d6aeb	0.011561136
83	0xbd466d28	-0.048443943
84	0xbd267014	-0.04063423
85	0x3c6dfe63	0.014525983
86	0x3d76f3fe	0.060291283
87	0xbb1ff0e7	-0.0024405064
88	0x3a36980a	0.00069654046
89	0xbd1b51cc	-0.037919804
90	0x3dc8dd8a	0.0980788
91	0xbd7b4aab	-0.061350506
92	0x3da1a035	0.07891885
93	0x3d26e8e6	0.040749453
94	0xbd888efc	-0.06667897
95	0xbd69606d	-0.056976724
96	0x3d521098	0.051285356
97	0xbd327c7c	-0.04357575
98	0xbd5fb30d	-0.054614116
99	0xbced1468	-0.028940395
100	0xbb5695e4	-0.003274315
101	0xbcefdf65	-0.029281328
102	0x3d2942c1	0.041323427
103	0xbd109cd5	-0.035305817
104	0x3d4e5944	0.0503781
105	0xbd7b4c0c	-0.06135182
106	0x3c241da3	0.010016832
107	0x3d3e1f5d	0.04641663
108	0x3d133b1c	0.035945043
109	0x3da2fb7c	0.07958123
110	0xbccc6a22	-0.024952952
111	0xbcc58bbf	-0.024114488
112	0x3d67168f	0.056417998
113	0x3d31a6d6	0.043371998
114	0xbcf17a93	-0.029477393
115	0x3da1af18	0.078947246
116	0xbd26b98a	-0.040704288
117	0xbca536ac	-0.020167671
118	0x3d91fcd2	0.071283
119	0x3d4a5c8c	0.049404666
120	0x3c81e9ab	0.015858492
121	0xbcce9c8c	-0.025221132
122	0xbd603742	-0.054740198
123	0xbd573da9	-0.052549038
124	0x3bef50d3	0.007303336
125	0x3d22f929	0.0397884
126	0x3da7e1e4	0.08197382
127	0xbcb4aec0	-0.022055984
128	0xbda7c271	-0.08191384
129	0x3da49ef8	0.080381334
130	0xbd8b7cdb	-0.06810924
131	0xbd7aaf26	-0.06120219
132	0x3c9d17bf	0.019176362
133	0xbcc0565e	-0.023478683
134	0x3d2add41	0.04171491
135	0x3c647e65	0.01394615
136	0x3d974cab	0.0738767
137	0x3d0116b2	0.031515785
138	0x3db8a94e	0.09016667
139	0x3cb558f3	0.02213714

gconv1.0.gate.weight f4 [1, 280]
0	0xbcb16486	-0.021654379
1	0x3d20cc1a	0.039257146
2	0xbdb186f4	-0.086683184
3	0xbd6a965a	-0.057272293
4	0x3d458dd3	0.048230957
5	0x3d9e099b	0.07716676
6	0x3d63aa1a	0.055582143
7	0x3c545c30	0.012961432
8	0xbde48f4d	-0.11160145
9	0x3c4b820c	0.012421142
10	0x3d742fd4	0.059615925
11	0x3c81e4c9	0.015856164
12	0xbc4db1bb	-0.012554581
13	0x3db4d4e4	0.08829668
14	0xba79167d	-0.0009501947
15	0xbc0504d9	-0.008118832
16	0x3cac58b6	0.021038394
17	0xbcbd04b1	-0.023073526
18	0xbceb24e1	-0.028704109
19	0xbd43b7cb	-0.0477827
20	0x3d401dc0	0.04690337
21	0x3cb20dea	0.02173515
22	0xbd731e2c	-0.059354946
23	0x3da882fe	0.0822811
24	0xbda5c07f	-0.08093356
25	0x3daa00f5	0.08300964
26	0xbc649682	-0.0139518995
27	0xbc52d45f	-0.012868016
28	0x3db1ac7e	0.086754784
29	0xbbebcf75	-0.0071963617
30	0x3bd5c9bc	0.0065242928
31	0x3c20cba2	0.009814175
32	0x3d4a8eda	0.04945264
33	0x3d427f27	0.047484543
34	0x3d8f309e	0.06991695
35	0xbd3ec45a	-0.046573974
36	0x3c6715b2	0.014104294
37	0xbd89ffc3	-0.06738236
38	0x3af5b9a0	0.0018747337
39	0x3d30bc25	0.04314818
40	0xbc17e495	-0.009270807
41	0xbb5c3c66	-0.0033605336
42	0x3dc60a30	0.09669912
43	0xbd05cac9	-0.032664094
44	0x3dc434f2	0.09580411
45	0x3d27b041	0.040939573
46	0xbd915900	-0.070970535
47	0x3c7e9c3c	0.015540179
48	0x3d28010e	0.04101663
49	0xbcac7b1e	-0.0210548
50	0x3d4b5ae2	0.04964722
51	0x3db6189d	0.08891413
52	0xbd003bbb	-0.031306963
53	0xbb7ca296	-0.0038549057
54	0x3bc15651	0.0059001823
55	0xbbb4c7b2	-0.0055169696
56	0x3cd14bec	0.025548898
57	0xbd14ca52	-0.03632576
58	0xbd7d5e66	-0.061857603
59	0xbd0e13c2	-0.03468681
60	0x3d9fe4dd	0.07807324
61	0x3d8b4e35	0.06802026
62	0xbd44ff58	-0.048095077
63	0x3bfdbdce	0.0077435737
64	0xbc33c365	-0.010971879
65	0x3daa3739	0.08311314
66	0x3d38c903	0.045113575
67	0xbd254fa6	-0.04035916
68	0x3d4bf946	0.049798273
69	0x3cc3a4c7	0.023882283
70	0x3cc2de7e	0.023787733
71	0xbd181825	-0.0371324
72	0x3c2bac38	0.010478072
73	0x3c1a3cfd	0.009413955
74	0xbce8a2ef	-0.028398005
75	0x3d9d4543	0.07679226
76	0x3aa23c95	0.0012377674
77	0x3d56c585	0.052434463
78	0xbd6b0aca	-0.057383336
79	0x3cdfbcd1	0.027311714
80	0xbd169809	-0.036766086
81	0x3d105f8b	0.035247367
82	0x3d28801b	0.041137796
83	0x3cb095d5	0.02155582
84	0xbd3252a1	-0.043535832
85	0xbd2dd8d7	-0.042443123
86	0x3cf739c1	0.030178906
87	0x3c9dad07	0.019247545
88	0x3c85c0cd	0.016327286
89	0xbcf2a9cd	-0.029621983
90	0x3d190cc1	0.03736568
91	0xbc566cf4	-0.0130875
92	0xbd2a90e6	-0.041642092
93	0xbcc2d626	-0.023783755
94	0x3cff7dfa	0.031188
95	0xbca0b42b	-0.01961716
96	0x3c8cd360	0.017190635
97	0xbb60f3ba	-0.003432496
98	0x3cfee966	0.031117152
99	0xbc6d8804	-0.014497761
100	0xbd2703de	-0.040775172
101	0xbb46b67b	-0.003032117
102	0xbc637930	-0.013883874
103	0x3d6efa73	0.058344316
104	0xbe0c4949	-0.13699831
105	0x3c06b6d2	0.008222299
106	0x3c9af420	0.018915236
107	0xbc337bd0	-0.010954812
108	0xbce0aece	-0.027427103
109	0xbcbeef02	-0.023307327
110	0x3d478973	0.048715066
111	0xbc3c4ee3	-0.011493417
112	0xbd03f444	-0.03221537
113	0x3aa60318	0.0012665717
114	0xbc248432	-0.010041283
115	0x3d30236f	0.043002542
116	0xbc66794f	-0.014067008
117	0xbcfd0005	-0.030883798
118	0xbd239e0e	-0.039945655
119	0x3db6c2af	0.08923852
120	0xbda5291b	-0.08064481
121	0x3d09d8f0	0.033654153
122	0xbd2b72de	-0.041857593
123	0x3cf5b055	0.029991308
124	0xbd1c4adf	-0.03815734
125	0x3b4bdc80	0.003110677
126	0xbc4f5cc9	-0.012656399
127	0x3d15170a	0.036398925
128	0x3cd57d47	0.026060713
129	0xbdaa9169	-0.08328516
130	0xbcfa0cd4	-0.030523695
131	0xbcc46d29	-0.023977833
132	0xbd6928fc	-0.05692385
133	0x3bc8e03f	0.006130248
134	0xbc8f1daa	-0.0174702
135	0xbccd0dfc	-0.025031082
136	0x3db4f08e	0.08834945
137	0xbd69a3b4	-0.057040885
138	0xbd332fd2	-0.043746777
139	0xbddce91d	-0.1078665
140	0xbd480234	-0.048830226
141	0xbd6d0de8	-0.05787459
142	0x3c9ca5db	0.019122055
143	0xbdfca338	-0.12335819
144	0xbd066e11	-0.03281981
145	0xbcb37c7b	-0.021909943
146	0xbd6aafb7	-0.05729648
147	0xbdbeb97a	-0.093127206
148	0x3c6b2303	0.014351609
149	0xbd5d1ab5	-0.053980548
150	0xbd11003f	-0.035400625
151	0xbd8ccddf	-0.06875204
152	0xbdd60df1	-0.10451878
153	0xbd1bc59f	-0.038030263
154	0xbdd881cd	-0.105716325
155	0x3bedfd03	0.0072628274
156	0xbd567e68	-0.052366644
157	0xbd2ef4bd	-0.04271387
158	0xbcc1f128	-0.023674563
159	0xbd9eeb89	-0.077597685
160	0xbdebb926	-0.11509924
161	0xbc330ee9	-0.010928848
162	0xbdb4cbe6	-0.08827953
163	0xbd6c850c	-0.05774407
164	0xbda4c6c6	-0.080457255
165	0xbcf2e57f	-0.029650448
166	0xbd8151bc	-0.06314418
167	0xbd48511c	-0.048905477
168	0xbdf9ee63	-0.12203672
169	0xbd4924f4	-0.049107507
170	0xbd7d53f4	-0.061847642
171	0xbd207d43	-0.03918196
172	0xbde9026f	-0.11377417
173	0xbdf6aba0	-0.120444536
174	0xbd8fab19	-0.07015056
175	0xbdc795c1	-0.0974536
176	0xbdeb12b4	-0.11478177
177	0xbb0b256b	-0.002123202
178	0xbd9f7679	-0.07786269
179	0xbd02b291	-0.031908575
180	0xbdefadac	-0.11703047
181	0xbde9b86c	-0.11412129
182	0xbbbbc5cd	-0.005730367
183	0xbd839082	-0.06424047
184	0xbdb08e32	-0.086208716
185	0xbdb5278b	-0.08845433
186	0xbdd9a7cf	-0.1062771
187	0xbca033af	-0.019555895
188	0xbdbef76e	-0.09324537
189	0xbd94250e	-0.0723363
190	0xbdebda0d	-0.11516199
191	0xbd69c58a	-0.057073154
192	0xbd9fc1cc	-0.07800636
193	0xbe09ea90	-0.13468385
194	0xbde4544d	-0.111488916
195	0xbd8092a5	-0.0627797
196	0xbbf25a4d	-0.0073960186
197	0xbcf745f3	-0.030184722
198	0xbc51862c	-0.012788337
199	0xbd9d866b	-0.07691654
200	0xbe455e27	-0.19274198
201	0xbc6953e6	-0.014241194
202	0xbd06c807	-0.032905605
203	0xbcf076ea	-0.029353578
204	0xbdeff8bd	-0.11717365
205	0xbd17c8b3	-0.037056636
206	0xbdb5fcd3	-0.08886113
207	0xbda2036e	-0.079108104
208	0xbd9f3a17	-0.07774752
209	0x3cd5b318	0.026086375
210	0xbd3ad8cc	-0.04561691
211	0xbcc8a316	-0.024491828
212	0xbc1d7def	-0.009612544
213	0x3ae9264b	0.0017787901
214	0xbdb78475	-0.08960811
215	0xbd622a84	-0.055216327
216	0xbe072a18	-0.13199651
217	0xbd43336d	-0.047656465
218	0xbc1544c7	-0.009110636
219	0xbd4a039c	-0.04931985
220	0xbdd262fc	-0.10272786
221	0xbdee40fb	-0.11633488
222	0xbd1f0f00	-0.038832664
223	0x3c4928f8	0.012277834
224	0xbdb578f2	-0.08860959
225	0xbd977b6a	-0.07396586
226	0xbd5f506d	-0.05452006
227	0xbd6a3374	-0.057177976
228	0xbdd37638	-0.10325283
229	0xbd2d19e4	-0.04226102
230	0xbd6c4abc	-0.05768846
231	0x3ca24cfd	0.019812101
232	0xbde33dec	-0.11095795
233	0xbdb071d2	-0.086154595
234	0xbdc7afbf	-0.09750318
235	0xbcca9dbf	-0.024733422
236	0x3cb43534	0.021998025
237	0xbdf8a32b	-0.12140497
238	0x3bbb373d	0.005713372
239	0xbdf2119e	-0.118197665
240	0xbd153f7d	-0.0364375
241	0xbe0491d3	-0.12946253
242	0xbd94c027	-0.07263213
243	0xbda90ff1	-0.08254994
244	0xbd66d0af	-0.05635136
245	0xbda7e869	-0.081986256
246	0xbc7592ac	-0.014988583
247	0xbcbeface	-0.023312952
248	0xbba4fac4	-0.0050347764
249	0xbd23ef14	-0.040022925
250	0xbccfdc9a	-0.025373746
251	0xba81c3e2	-0.0009900297
252	0xbbfd4e1f	-0.00773026
253	0xbde73012	-0.112884656
254	0xbd5e06bf	-0.054205652
255	0xbdf7a845	-0.12092642

gconv1.1.A f4 [140, 140]
0	0xbcc93b16	-0.024564307
1	0xbd1e0393	-0.038577627
2	0xbcff4b6d	-0.031163896
3	0xbc674f00	-0.014117956
4	0xbb56c097	-0.00327686
5	0x3a734e4e	0.00092813827
6	0xb9d99afb	-0.00041504935
7	0xbd03c023	-0.032165658
8	0xbaa043f8	-0.0012227288
9	0xbd0a6af7	-0.033793416
10	0x3ba12c5c	0.004918618
11	0xbc823753	-0.015895521
12	0xbc78c297	-0.015183113
13	0xbc8fd24a	-0.017556328
14	0xbc838bc0	-0.016057849
15	0xbcbbba8e	-0.022916105
16	0xbcc2b20c	-0.02376654
17	0x3ab0c3d1	0.0013486092
18	0xbc54ed4d	-0.01299603
19	0xbcc24f4b	-0.02371945
20	0xbc7b9b6c	-0.01535688
21	0xbc719916	-0.014745971
22	0xbb556ae0	-0.0032564923
23	0xbc0358cc	-0.008016776
24	0x3c86d7aa	0.016460259
25	0x3c5d740e	0.013516439
26	0xbd242614	-0.040075377
27	0xbce651d6	-0.028115194
28	0x3c83e29d	0.016099269
29	0x3b0a1960	0.0021072254
30	0xbb1f3b4d	-0.002429682
31	0xbb16b413	-0.0022995516
32	0xbcf7b5f0	-0.030238122
33	0xbcf40637	-0.02978812
34	0xbce1a5f7	-0.027544959
35	0xbc1cadfd	-0.009562966
36	0x3c990443	0.01867879
37	0xba0b2db5	-0.000530924
38	0xbcc2239e	-0.023698624
39	0xba8e41e0	-0.0010853373
40	0x3c1ddbbf	0.009634911
41	0x3c9682db	0.018372944
42	0xbbeab5d5	-0.0071627893
43	0xbcacf508	-0.021112934
44	0xbd0d2d3c	-0.034466967
45	0x3cc1ac74	0.023641802
46	0xbcd31eff	-0.025771616
47	0xbcc76f2e	-0.024345007
48	0xbd118db6	-0.035535537
49	0xbb50047a	-0.003174095
50	0x3c7f3397	0.015576265
51	0x3c1f7b2b	0.009733955
52	0xbd01d8d5	-0.031700928
53	0xbaaf7c86	-0.0013388551
54	0xbc1d5338	-0.00960236
55	0x3c6b7d4e	0.014373137
56	0xbc8f66b7	-0.017505033
57	0x3bda9592	0.006670662
58	0xbcc60ef9	-0.024177061
59	0x3c36e000	0.011161804
60	0xbcb36b63	-0.021901792
61	0x3b77972d	0.0037779317
62	0x3cf55b3e	0.029950734
63	0xbd0171ae	-0.031602554
64	0xbb2df3a6	-0.002654293
65	0x3a4c4c6f	0.0007793372
66	0xbc84ea45	-0.01622499
67	0xbd244d90	-0.040113032
68	0x3aa1b67e	0.0012337712
69	0xbcf7e351	-0.03025976
70	0xbcf7316b	-0.030174932
71	0xbd278464	-0.040897742
72	0xbce0bafa	-0.027432907
73	0xbc3abba6	-0.011397278
74	0xbc76295a	-0.015024507
75	0xbd26ffb3	-0.040771198
76	0xbcd7d3f3	-0.026346182
77	0xbc9930e8	-0.018700078
78	0xbaaeeaad	-0.0013345085
79	0xbd1d5bd7	-0.038417663
80	0x3aa8aca4	0.0012868834
81	0x3c5355a4	0.012898836
82	0xbc454180	-0.012039542
83	0xbcd48089	-0.025940197
84	0xbcbc52dd	-0.022988731
85	0x3bc6b352	0.006063857
86	0x3b87eef9	0.004148361
87	0xbb877570	-0.0041338727
88	0x3c0c143d	0.008549747
89	0xbbf1229f	-0.0073588635
90	0xbce7f460	-0.02831477
91	0x3cb9e413	0.022691762
92	0xbd09bbfc	-0.03362654
93	0x3be37500	0.0069414377
94	0xbce3c217	-0.02780251
95	0xba6a856f	-0.0008946275
96	0xbd0a52ff	-0.033770557
97	0xbd1de0cd	-0.038544465
98	0x3c305d10	0.010764375
99	0x3cbc0269	0.022950368
100	0x3cdbf12a	0.026848394
101	0xbd282fd5	-0.04106124
102	0x3baa3185	0.0051938915
103	0xbc612953	-0.013742763
104	0xbc0514fe	-0.008122681
105	0xbcd9fc52	-0.026609574
106	0xbd159bd1	-0.03652555
107	0xbca21cc4	-0.019789107
108	0x3c5759c1	0.013143958
109	0xbd06cb8b	-0.032908957
110	0xbcbd0e10	-0.023077995
111	0xbbcb7efc	-0.006210206
112	0xbd0fe2b9	-0.03512833
113	0xbd04f325	-0.032458443
114	0xbd35dffc	-0.04440306
115	0xbcfcec85	-0.0308745
116	0x390280de	0.00012445773
117	0xbcf5b46a	-0.029993255
118	0xbce7b686	-0.028285276
119	0xbd29c860	-0.041450858
120	0xbd24be98	-0.040220827
121	0x3c185111	0.0092966715
122	0xba18a2b5	-0.0005822585
123	0xbd010be2	-0.031505473
124	0xbcccf2b8	-0.025018081
125	0xbc1be983	-0.009516123
126	0x3cd6415a	0.026154209
127	0xbcf1435b	-0.029451063
128	0x3b762096	0.0037556044
129	0xbd0e5948	-0.034753114
130	0x3cbbcb7b	0.022924175
131	0xbc0d2478	-0.008614652
132	0x3a45bed6	0.00075433904
133	0x3cc26928	0.023731783
134	0xba8035d2	-0.0009781665
135	0xbc6e63c1	-0.01455015
136	0xbc14a1aa	-0.009071747
137	0xbc9704bc	-0.018434875
138	0x3c78564b	0.015157293
139	0xbcf3804a	-0.029724259
140	0xbd1e7610	-0.038686812
141	0xbc7070fd	-0.014675376
142	0xbcdcc5c2	-0.026949767
143	0xbc28fb10	-0.010313764
144	0x3b2fc33b	0.0026819247
145	0x3ca52079	0.020157086
146	0xbc812749	-0.015765803
147	0xbd071fec	-0.032989427
148	0x3b5de2b5	0.0033857052
149	0xbcd2ee7a	-0.02574848
150	0x3baff92d	0.0053702802
151	0xbd0b8ec6	-0.034071706
152	0xbc0568e6	-0.0081426855
153	0xbb27f0ba	-0.0025625662
154	0xbd08b7f2	-0.03337855
155	0xbd0f96cc	-0.03505592
156	0xbd419649	-0.047262464
157	0xbc1ed46d	-0.009694201
158	0xbb572a95	-0.0032831777
159	0xbcefbe7a	-0.029265631
160	0xbbe71a8f	-0.0070527266
161	0xbcd7b18f	-0.026329784
162	0x3c428d83	0.011874559
163	0xbc82d6cf	-0.01597157
164	0x3cec6898	0.028858468
165	0x3ca91156	0.02063815
166	0xbce966e2	-0.028491441
167	0x39b2af35	0.00034081345
168	0x3cd62ce9	0.026144462
169	0xbc94c996	-0.01816253
170	0xbc843528	-0.016138628
171	0x3b8aeb79	0.0042394963
172	0x3a8e55b2	0.001085928
173	0xbd1a52aa	-0.03767649
174	0xbb9c1b3e	-0.0047639897
175	0x3c3effed	0.011657697
176	0x3d168a1c	0.036752805
177	0xbc106f61	-0.008815617
178	0xbc967148	-0.018364564
179	0x3c7224fd	0.0147793265
180	0xbb74a3e1	-0.0037329125
181	0x3c576084	0.01314557
182	0xbc62c3f1	-0.013840661
183	0xbc884857	-0.016636057
184	0xbb6ff1a9	-0.0036612547
185	0x3d0eeff8	0.03489682
186	0xbd0b0275	-0.03393789
187	0xbcca8108	-0.02471973
188	0xbd0f7dee	-0.035032205
189	0xbbcf4f55	-0.006326596
190	0x3c9c2293	0.019059455
191	0xbc119c6a	-0.00888739
192	0xbd06d905	-0.03292181
193	0x3c0679e7	0.008207775
194	0xbc21cce7	-0.009875513
195	0x3c9c0a79	0.019047963
196	0xbc67f5f1	-0.014157758
197	0xbbb43131	-0.005499028
198	0xbc9cbd0b	-0.019133111
199	0x3c527060	0.012844175
200	0xbd355c97	-0.044277754
201	0x3ade607e	0.0016966013
202	0x3cfbf0c1	0.030754449
203	0xbd034be5	-0.0320548
204	0x3af1454a	0.001840749
205	0x3c8469a5	0.016163656
206	0x3c028783	0.007966879
207	0xbc9f11eb	-0.019417724
208	0x3be764a0	0.007061556
209	0xbc9cbced	-0.019133056
210	0xbcda39fa	-0.026638974
211	0xbd0cfc71	-0.034420434
212	0xbd01f5fa	-0.031728722
213	0xbd0ce069	-0.0343937
214	0xbc21039b	-0.00982752
215	0xbd09867a	-0.033575512
216	0xbcfb0f46	-0.030646931
217	0xbd0daa00	-0.034585953
218	0x3ca9c19c	0.020722203
219	0xbd0c9c74	-0.034328893
220	0x3b990834	0.0046701673
221	0x3cc8f38d	0.024530197
222	0x3c051260	0.008122057
223	0xbcc98226	-0.024598192
224	0xbcf8f2d8	-0.030389234
225	0x3cc9cded	0.024634326
226	0x3ba26116	0.004955421
227	0x3c4b37c0	0.012403429
228	0x39374f8c	0.00017481874
229	0xbcac1ba6	-0.021009278
230	0xbd202217	-0.03909501
231	0x3cc320aa	0.023819286
232	0xbcdf3d98	-0.02725105
233	0x3c4d2ce8	0.0125229135
234	0xbce5e9f6	-0.028065663
235	0x3bf7d9b1	0.0075637926
236	0xbc40c5ee	-0.01176594
237	0xbcf6a790	-0.030109197
238	0x3cedb845	0.02901853
239	0x3d02620d	0.03183179
240	0x3d105037	0.03523275
241	0xbceef453	-0.029169237
242	0xbbd3a107	-0.006458405
243	0xbc68bcd6	-0.014205178
244	0xbc9a6e0d	-0.018851304
245	0xbd16be5c	-0.036802635
246	0xbcfcf3d0	-0.030877978
247	0xbc21f017	-0.009883902
248	0x3cafe27a	0.021470297
249	0xbd21ccca	-0.039501943
250	0xbcbaffce	-0.022827055
251	0xbb1f7840	-0.002433315
252	0xbcee093a	-0.029057134
253	0xbd006f5b	-0.031356197
254	0xbc96be1e	-0.018401202
255	0xbc0670ae	-0.008205576

gconv1.1.W.weight f4 [140, 140]
0	0x3d2f0b38	0.04273531
1	0x3e1d73bc	0.1537618
2	0x3ad8f72f	0.0016553159
3	0xbc0cfd98	-0.008605383
4	0xbd811278	-0.06302351
5	0xbcf08582	-0.029360536
6	0xbd3e9b67	-0.046534922
7	0xbd861b88	-0.0654822
8	0xbe043882	-0.12912181
9	0xbd1fa3ba	-0.0389745
10	0xbb9c7204	-0.004774334
11	0xbc8e3dee	-0.017363515
12	0x3d884678	0.06654066
13	0x3d03360b	0.03203396
14	0x3c22e26a	0.009941677
15	0xbd711f48	-0.058867723
16	0x3d04a5e0	0.032384753
17	0xbd5fade7	-0.054609206
18	0xbd9246b0	-0.07142389
19	0xbdb53856	-0.08848636
20	0xbcdb68d6	-0.026783388
21	0xbd95b752	-0.07310356
22	0xbd9fee36	-0.07809107
23	0xbd14dd69	-0.036343966
24	0x3d680c4e	0.05665236
25	0x3d8ab620	0.06773019
26	0xbde381cd	-0.11108742
27	0x3c95d51f	0.0182901
28	0x3dbe8389	0.09302432
29	0x3da7b3ed	0.08188615
30	0x3c86af0f	0.016440896
31	0xbc3ec3cb	-0.01164336
32	0xbd817e8a	-0.063229635
33	0xbd10f71a	-0.035391904
34	0x3cde71f1	0.02715394
35	0xbd213cea	-0.039364733
36	0x3da4f9e3	0.080554746
37	0xbda057bc	-0.07829234
38	0x3d03cc5d	0.032177318
39	0xbd8f9886	-0.070115134
40	0xbdc58789	-0.09644992
41	0x3cb4ddcc	0.022078417
42	0x3d5006c3	0.0507877
43	0xbe659386	-0.22419557
44	0xbcaba079	-0.020950543
45	0x3cf392af	0.02973303
46	0xbd6a41b5	-0.05719157
47	0x3d8289fd	0.063739754
48	0xbd4dbf80	-0.050231457
49	0xbd9da173	-0.076968096
50	0x3c8d1a2e	0.017224398
51	0xbd56592d	-0.05233114
52	0xbd5d20e3	-0.05398644
53	0xbd404590	-0.04694134
54	0xbbadd749	-0.005305205
55	0xbe275d7f	-0.1634426
56	0xbd44b55d	-0.048024524
57	0x3d07d41c	0.033161268
58	0x3da8646e	0.082222804
59	0xbd2af131	-0.041733924
60	0xbc23c8c4	-0.009996597
61	0xbd2e3dcd	-0.042539407
62	0xbcc3882d	-0.023868645
63	0xbce206fa	-0.027591217
64	0x3d915f35	0.070982374
65	0xbceecf2a	-0.029151518
66	0xbd9a8baf	-0.07546174
67	0x3d1530af	0.03642338
68	0xbd710af5	-0.05884834
69	0xbd807b9e	-0.06273578
70	0x3d4b9ddb	0.04971109
71	0x3d4e870a	0.050421752
72	0x3db632b2	0.08896388
73	0x3d8bbfdb	0.06823703
74	0x3d4c2b4b	0.049845975
75	0xbbaa7dee	-0.0052030003
76	0x3d7faa70	0.0624184
77	0xbd935df9	-0.07195658
78	0xbdadd40c	-0.0848771
79	0x3ce00a38	0.027348623
80	0xbd05f57d	-0.03270482
81	0x3cf32537	0.029680831
82	0xbd99e4d4	-0.075143486
83	0xbd8e1c05	-0.06938938
84	0x3d6998fc	0.057030663
85	0x3d80b451	0.062843926
86	0x3d8dffc1	0.06933547
87	0xbd8d213a	-0.06891103
88	0xbdb4b31b	-0.08823224
89	0xbcbd0bd9	-0.023076938
90	0xbc7b86b3	-0.015351939
91	0x3e1ac2df	0.151134
92	0x3d2533fe	0.040332787
93	0x3d949203	0.07254412
94	0x3d94608d	0.07244978
95	0x3d2521db	0.04031549
96	0xbdb62098	-0.088929355
97	0xbdb60ce2	-0.08889176
98	0xbd37009d	-0.04467832
99	0x3d94fb5b	0.07274505
100	0x3e231d64	0.1592918
101	0x3c98687a	0.018604506
102	0xbd62dce7	-0.05538645
103	0xbd7b4771	-0.06134743
104	0x3d85ae2c	0.06527361
105	0x3d2fcf55	0.042922337
106	0xbdbf6e34	-0.093471915
107	0x3c7880ae	0.015167398
108	0x3d2ea4da	0.042637683
109	0xbd09dd17	-0.033658113
110	0x3d91828d	0.07104979
111	0xbdcaa56a	-0.098948315
112	0xbd23c7ea	-0.039985575
113	0xbd4d1523	-0.050068986
114	0x3d3061a9	0.043061886
115	0x3d8267a7	0.06367426
116	0xbd8dfe88	-0.069333136
117	0xbd409e98	-0.047026247
118	0x3c126974	0.008936275
119	0xbda90d99	-0.08254547
120	0xbcfaf060	-0.030632198
121	0xbc183107	-0.009289033
122	0x3c44e6d6	0.012017926
123	0x3e071544	0.13191706
124	0xbcc9badd	-0.024625236
125	0xbd6083fc	-0.05481337
126	0xbd2a8ef3	-0.041640233
127	0xbde9c0f9	-0.1141376
128	0x3dbf2560	0.093333006
129	0x3d7535ba	0.05986569
130	0xbdb8e8d0	-0.090287805
131	0xbcb8ae58	-0.022544071
132	0x3dd76d8b	0.105189405
133	0x3ddf54b6	0.10904829
134	0x3d94ae4d	0.07259808
135	0xbca8bbc0	-0.020597339
136	0x3d54cd15	0.051953394
137	0x3dbaa0fd	0.09112737
138	0x3d9d25c2	0.07673217
139	0xbd828970	-0.063738704
140	0x3d93bc60	0.07213664
141	0x3dad794c	0.08470401
142	0x3cba9641	0.022776725
143	0xbd97392c	-0.073839515
144	0x3c1316b4	0.008977581
145	0x3ce33f44	0.027740128
146	0x3d914c8f	0.070946805
147	0x3c72284c	0.014780115
148	0xbbcf14e9	-0.0063196314
149	0xbd8081be	-0.06274746
150	0xbb77b70d	-0.0037798316
151	0x3de99400	0.11405182
152	0x3dbd3ec5	0.09240488
153	0xbda5dec6	-0.08099131
154	0x3d7bcea7	0.061476376
155	0xbd04881d	-0.03235637
156	0x3d3e1d58	0.046414703
157	0x3b93713d	0.004499583
158	0x3d68e1b6	0.05685588
159	0xbd601951	-0.054711644
160	0x3dc5ce27	0.09658461
161	0xbd6930ee	-0.05693143
162	0xbc4985bb	-0.01229995
163	0xbd27a7af	-0.0409314
164	0x3cff2ec5	0.031150231
165	0xba9b53f0	-0.0011850577
166	0x3d4dab22	0.050212033
167	0xbd34134b	-0.04396371
168	0x3dd2f261	0.10300136
169	0x3d6a783c	0.05724357
170	0xbcda254b	-0.02662911
171	0xbcf20f87	-0.02954842
172	0x3d22795e	0.039666526
173	0x3dcc71e4	0.099826604
174	0x3ca01352	0.019540463
175	0xbd69a6e8	-0.05704394
176	0xbd19ee76	-0.03758093
177	0xbc558b11	-0.013033644
178	0x3d4d0a80	0.05005884
179	0x3d507ffb	0.0509033
180	0xbdcd34af	-0.10019814
181	0x3e473297	0.19452892
182	0x3d97881c	0.07399008
183	0x3df6dedc	0.12054226
184	0x3d29f465	0.04149284
185	0xbcbbd0dc	-0.02292674
186	0x394de3b5	0.00019635151
187	0x3c8480ec	0.016174756
188	0x3d08bc43	0.033382665
189	0xbd5dfeba	-0.054198004
190	0x3d654bc4	0.05598046
191	0x3d1fbce2	0.038998492
192	0x3d0f7233	0.03502102
193	0xbd09c41d	-0.033634294
194	0x3d7cf00e	0.06175237
195	0xbcd782ba	-0.026307452
196	0x3cce58b4	0.025188781
197	0x3c1d2136	0.009590438
198	0xbb176621	-0.0023101645
199	0x3d5d069d	0.053961385
200	0xbd6db83f	-0.05803704
201	0xbdcd8a22	-0.10036112
202	0xbd5334ea	-0.051564135
203	0xbd2ff85b	-0.04296146
204	0xbc31eec3	-0.010860148
205	0xbd8ba569	-0.06818659
206	0xbcbc3fff	-0.022979734
207	0x3c7e9cf0	0.0155403465
208	0xbd52bfda	-0.051452495
209	0xbdc82546	-0.09772734
210	0x3d8785f6	0.06617348
211	0x3dc7dc5d	0.09758828
212	0x3d77200c	0.060333297
213	0x3c65ba1f	0.0140214255
214	0x3d7d715a	0.06187568
215	0x391cc620	0.00014951127
216	0xbd8a4e5c	-0.06753227
217	0xbdade058	-0.08490056
218	0x3cd83451	0.026392134
219	0xbc9ac79c	-0.01889401
220	0xbdbfc3d1	-0.09363521
221	0x3c60aaae	0.013712568
222	0x3c98055e	0.018557247
223	0x3c4bce1b	0.012439276
224	0xbcef72a4	-0.02922947
225	0x3d4ea12c	0.050446674
226	0xbe0d62fc	-0.13807291
227	0xbde47079	-0.11154265
228	0xbd8848d8	-0.06654519
229	0xbd8b9df8	-0.068172395
230	0xbd60b61b	-0.05486117
231	0xbcd0e6de	-0.025500711
232	0xbcc0b55f	-0.023523984
233	0xbd81404b	-0.06311091
234	0x3de4f168	0.11178857
235	0xbdfea6c5	-0.124341525
236	0x3d689eda	0.056792118
237	0x3dcef93a	0.1010613
238	0x3d9ad869	0.07560808
239	0xbd085248	-0.033281595
240	0x3da08033	0.07836952
241	0x3d2fb1cb	0.042894166
242	0xbc8f1e94	-0.017470635
243	0x3d0bed2a	0.034161724
244	0x3d349ab5	0.044092853
245	0x3d8ebaed	0.06969247
246	0x3d543529	0.05180851
247	0x3d8cd878	0.06877226
248	0xbc859c58	-0.016309902
249	0x3d9d926d	0.07693944
250	0x3dc9a906	0.09846692
251	0xbdaf8b00	-0.08571434
252	0xbcb11bdd	-0.021619732
253	0x3db06e32	0.08614768
254	0xbcd49104	-0.025948055
255	0xbdc7ee8c	-0.09762296

gconv1.1.W.bias f4 [140]
0	0x3d916fb0	0.07101381
1	0x3d925220	0.0714457
2	0x3d9c5a13	0.07634368
3	0xbadb9d43	-0.0016755242
4	0x3d4e1bac	0.05031936
5	0x3d4aa9ad	0.04947822
6	0xbb644b2e	-0.003483485
7	0xba970fa9	-0.0011525053
8	0x3d3ed54c	0.046590135
9	0x3c12e520	0.0089657605
10	0xbdcc66b4	-0.099805266
11	0xbd8c6897	-0.068558864
12	0x3bb03b9e	0.0053782007
13	0xbb719876	-0.0036864555
14	0xbd20c150	-0.039246857
15	0xbdd2b07c	-0.10287568
16	0xbd71793c	-0.05895351
17	0xbdda06fd	-0.10645864
18	0x3c84b63e	0.016200181
19	0x3c93042a	0.017946322
20	0x3c5d2364	0.013497207
21	0xbcce4968	-0.025181487
22	0xbd7c7f23	-0.061644685
23	0xbd5f8eac	-0.054579422
24	0x3d178c09	0.036998782
25	0xbd132690	-0.035925448
26	0x3d37a197	0.04483184
27	0x3d4fb6cf	0.05071145
28	0x38ef3466	0.00011406168
29	0xbb6d3939	-0.0036197437
30	0xbd6a6280	-0.057222843
31	0x3d8d282f	0.0689243
32	0x3d40742c	0.04698579
33	0x3d552096	0.05203303
34	0x3d1892e4	0.03724946
35	0x3e001ce9	0.12511028
36	0x3db8fd64	0.090327054
37	0xbd8e483e	-0.06947373
38	0x3db20cf9	0.086938806
39	0xbd836ec2	-0.0641761
40	0xbdb6f8ee	-0.08934198
41	0x3ba9f498	0.0051866286
42	0x3d9762cf	0.07391893
43	0xbc95a1df	-0.018265663
44	0x3d6e30ef	0.058152135
45	0x3d4c2e6e	0.049848966
46	0x3cfe750f	0.031061677
47	0x3d8dd8b9	0.06926102
48	0xbb502f45	-0.0031766456
49	0xbd07411e	-0.033021085
50	0xbd20b835	-0.039238174
51	0x3cf76883	0.030201202
52	0x3c6dc483	0.014512184
53	0xbc431320	-0.011906415
54	0x3d81016c	0.06299099
55	0xbda7c8a0	-0.08192563
56	0x3d21338c	0.0393558
57	0xbd41aef9	-0.047286008
58	0xbd402eb0	-0.046919525
59	0x3d1e8b05	0.038706798
60	0xbdcc7d7c	-0.09984872
61	0x3d37c977	0.044869866
62	0xbc5bc312	-0.013413208
63	0x3d340989	0.043954406
64	0xbd832e63	-0.06405332
65	0x3cd4a8ea	0.02595945
66	0xbcb80444	-0.022462972
67	0x3d24ade4	0.040204898
68	0xbdc82e05	-0.097744025
69	0x3c8c791d	0.017147595
70	0x3cc1241b	0.023576787
71	0x3d6375d0	0.055532277
72	0x3cfc189b	0.030773452
73	0xbd76081d	-0.06006633
74	0x3c22868d	0.009919775
75	0x3cbf55ae	0.023356285
76	0xbb8f9332	-0.0043815607
77	0xbd29f323	-0.04149164
78	0x3c9b215e	0.01893681
79	0x3d75844e	0.05994063
80	0xbd78ad9f	-0.060712453
81	0xbd1b2841	-0.037880186
82	0x3d091025	0.033462662
83	0x3d6c8417	0.05774316
84	0x3cfdb398	0.030969426
85	0x3d255804	0.04036714
86	0xbcbc62db	-0.022996357
87	0xbce6dcaf	-0.028181402
88	0xbdddf5ae	-0.10837875
89	0xbd464f90	-0.04841572
90	0xbdd679f1	-0.10472477
91	0x3d424109	0.047425304
92	0x3d866c88	0.065636694
93	0x3c040019	0.008056664
94	0xba76ba88	-0.00094119506
95	0xbd591941	-0.0530026
96	0x3c8a7636	0.01690207
97	0xbc5b2982	-0.013376595
98	0x3da893cb	0.08231314
99	0xbdb8af81	-0.0901785
100	0xbda60a8a	-0.08107479
101	0x3d7ee5c0	0.062230825
102	0xbdd90ce9	-0.105981655
103	0xbd6e85f4	-0.058233216
104	0xbd691a80	-0.056910038
105	0xbdbff51d	-0.093729235
106	0x3d3089d0	0.04310018
107	0x3bc0839b	0.0058750636
108	0x3cd59f09	0.02607681
109	0x3bef814b	0.007309114
110	0xbda10f5b	-0.07864257
111	0xbdad7a98	-0.084706485
112	0x3d7f38b6	0.062309943
113	0x3d6224ce	0.05521088
114	0x3d423ae4	0.047419444
115	0x3ce20ef9	0.02759503
116	0xbc701733	-0.014653969
117	0x3d505c34	0.05086918
118	0x3d0b7811	0.03405005
119	0x3d969d17	0.07354181
120	0xb97a3eae	-0.00023865208
121	0x3d81f18e	0.06344901
122	0xbdd0688f	-0.10176193
123	0x3da9536c	0.082678646
124	0x3c4efbb6	0.012633255
125	0xbd83134c	-0.06400165
126	0x3d9104d3	0.07080998
127	0x3d3cf34d	0.046130467
128	0xbdb6cf02	-0.08926202
129	0x3db2de09	0.08733756
130	0x3dcc06f1	0.099622615
131	0xbde2233d	-0.110418774
132	0x3d18be81	0.037291054
133	0xbd9b25f1	-0.07575596
134	0xbdd7350e	-0.10508166
135	0xbc2aa105	-0.010414367
136	0xbd2402ae	-0.040041618
137	0x3d248dac	0.04017417
138	0x3adb5c54	0.001673589
139	0x3d553db3	0.052060794

gconv1.1.gate.weight f4 [1, 280]
0	0xbd1b767d	-0.037954796
1	0xbda23c2f	-0.07921635
2	0xbc8bad7f	-0.017050503
3	0x3d3dab07	0.046305683
4	0x3d1c5eac	0.038176224
5	0x3daf71b8	0.08566612
6	0xbb657d8b	-0.0035017456
7	0x3cd339f5	0.025784472
8	0xbc43cf04	-0.011951212
9	0x3c2be20b	0.010490905
10	0xbd044fcb	-0.03230266
11	0xbdc42374	-0.09577075
12	0x3ca45801	0.020061495
13	0x3d1d8825	0.038459916
14	0xbb90884d	-0.0044107796
15	0x3dbba04e	0.09161435
16	0xbc4f23fa	-0.012642855
17	0x3d295d88	0.041348964
18	0x3d0124e8	0.031529337
19	0xbbbe64a2	-0.005810336
20	0xbcacb132	-0.021080587
21	0xbc3d293d	-0.0115454765
22	0x3d4e088f	0.05030113
23	0x3b575548	0.0032857228
24	0xbda98d90	-0.08278954
25	0xbb126f9e	-0.002234436
26	0x3da304a6	0.07959871
27	0x3e1665f9	0.14687337
28	0xbd82fed7	-0.06396263
29	0x3c8a175b	0.01685684
30	0xbd80bcd1	-0.06286014
31	0xbc5537b3	-0.013013768
32	0x3c8ff77e	0.017574068
33	0xbdba8e20	-0.091091394
34	0x3e047a9e	0.129374
35	0xbdd5ec2c	-0.10445437
36	0x3c14931f	0.0090682795
37	0x3b82b1c7	0.003988478
38	0x3c8b1555	0.016977945
39	0xbbb43a20	-0.005500093
40	0x3d862579	0.06550116
41	0xbdff5496	-0.12467305
42	0x3de927c0	0.11384535
43	0x3e3b37d5	0.18283017
44	0xbd5aa487	-0.05337956
45	0xbd8850c3	-0.06656029
46	0xbd52f03c	-0.051498637
47	0xbd009f14	-0.03140171
48	0x3cd2ffd0	0.025756747
49	0x3c95171b	0.018199494
50	0x3c7dd496	0.015492579
51	0xbd2b245d	-0.041782726
52	0x3d983e80	0.07433796
53	0xbd418b40	-0.04725194
54	0x3ddd6db1	0.108119376
55	0x3d5174b7	0.0511367
56	0x3c16e96b	0.009210925
57	0xbd9f1b51	-0.07768882
58	0x3dab8ee2	0.08376862
59	0x3d0ac361	0.033877734
60	0x3e0949f1	0.13407113
61	0x3cd39664	0.025828548
62	0x3dd111c3	0.10208466
63	0x3df0fecf	0.11767351
64	0xbc4059ad	-0.01174013
65	0x3b942cf4	0.0045219604
66	0x3d47d11e	0.048783414
67	0xbd795580	-0.060872555
68	0xbb26911f	-0.0025416089
69	0xbd0044c0	-0.031315565
70	0xbccbc255	-0.024872938
71	0x3ce3a743	0.027789718
72	0xbd5f0bb6	-0.054454528
73	0x3e119513	0.14217024
74	0x3d564347	0.052310254
75	0x3d69168d	0.05690627
76	0x3da760f9	0.08172793
77	0x3be2cef3	0.006921643
78	0x3d6bc8b2	0.057564445
79	0x3c62c1e8	0.013840176
80	0x3d2ce609	0.042211566
81	0xbb671eea	-0.003526623
82	0xbce2b63d	-0.027674789
83	0x3d6b99eb	0.057519834
84	0x3dcc067b	0.099621736
85	0x3ccc8d0b	0.024969598
86	0xbd7b4575	-0.061345536
87	0x3bc58702	0.006028057
88	0x3d1a7451	0.037708584
89	0xbce77ee4	-0.028258748
90	0x3e099e3c	0.13439268
91	0xbcc99b83	-0.024610287
92	0xbd288b01	-0.04114819
93	0x3d7e07b8	0.06201908
94	0xbd5028dc	-0.050820217
95	0x3dbdbc98	0.09264487
96	0xbc7dfee8	-0.015502669
97	0x3d555833	0.052086066
98	0x3db925ce	0.09040414
99	0xbdd76eb5	-0.105191626
100	0xbcf770bd	-0.030205125
101	0xbdaa119b	-0.08304139
102	0x3ce13108	0.0274892
103	0xbdc99af6	-0.098440096
104	0xbd8c9763	-0.06864812
105	0xbdd0a7c3	-0.10188248
106	0xbc208524	-0.009797368
107	0x3c57ab67	0.013163424
108	0x3d2c9537	0.04213449
109	0x3e08aed0	0.13347936
110	0xbde1e1ea	-0.11029418
111	0x3d4fc380	0.050723553
112	0xbd81c7c1	-0.06336928
113	0x3d217b9c	0.039424524
114	0xbd7d5bf0	-0.061855257
115	0xbd416dc5	-0.047223825
116	0xbdc0a26f	-0.09405982
117	0xbdbcac45	-0.09212545
118	0x3d77bfc6	0.060485624
119	0x3ce06bac	0.027395092
120	0x3c4db07b	0.012554283
121	0x3d6e1e13	0.05813415
122	0xbbab99e9	-0.0052368534
123	0xbd9dbbb1	-0.07701815
124	0xbd2ec0c3	-0.0426643
125	0xbd3f2640	-0.046667337
126	0xbd315091	-0.043289725
127	0x3c71cc83	0.014758232
128	0xbd8a0fd4	-0.067413
129	0xbd3fff46	-0.046874307
130	0x3d77bf5d	0.060485233
131	0xbd7c7345	-0.061633367
132	0x3b9bc56d	0.0047537596
133	0xbd5a3e30	-0.053281963
134	0xbd0c41c0	-0.03424239
135	0x3daf6824	0.08564785
136	0x3c17a54f	0.009255721
137	0xbd9afe05	-0.07567982
138	0x3cea0b86	0.028569948
139	0x3d31f48e	0.043446116
140	0xbe0e44f9	-0.13893498
141	0xbdbe47b3	-0.09291019
142	0xbe1cc44d	-0.15309258
143	0xbe156efe	-0.14593121
144	0xbd21d438	-0.03950903
145	0x3d8e9fad	0.069640495
146	0xbcaac798	-0.020847127
147	0xbdb5deca	-0.08880384
148	0x3d21a0e1	0.039460067
149	0xbd2738bd	-0.040825594
150	0x3c759f7c	0.014991637
151	0xbe25f93a	-0.16208354
152	0xbdc6b203	-0.09701922
153	0xbdcb5602	-0.09928514
154	0xbdb77ad8	-0.089589775
155	0xbe33e293	-0.175669
156	0xbdaaaf00	-0.0833416
157	0x3deb0e28	0.114773095
158	0xbdedbee2	-0.11608674
159	0xbdb00adc	-0.08595821
160	0xbd3b2b77	-0.04569575
161	0xbdb93ece	-0.09045182
162	0xbd8a679a	-0.06758042
163	0xbc1e9168	-0.009678222
164	0x3cc7d090	0.024391443
165	0x3d5c134d	0.053729344
166	0xbe181232	-0.14850691
167	0xbce1b3f9	-0.027551638
168	0x3d6b4903	0.057442676
169	0xbd0c0dde	-0.034192912
170	0xbe08f9c9	-0.13376535
171	0x3aedfb2a	0.0018156518
172	0xbdb1df6a	-0.08685191
173	0xbdf70454	-0.120613724
174	0xbdd445cd	-0.10364876
175	0xbb0bd38b	-0.0021335806
176	0x3dc4eea1	0.09615827
177	0xbe03fe1e	-0.12889907
178	0x3b91fc88	0.004455153
179	0xbd1754ea	-0.036946215
180	0x3b10cf32	0.0022096154
181	0x3d60bf63	0.05487002
182	0xbda3bd6c	-0.07995114
183	0xbd420ff8	-0.04737851
184	0xbe0d688c	-0.13809413
185	0x3cb7bf6d	0.022430146
186	0xbde65243	-0.11246159
187	0xbdcfbe09	-0.10143668
188	0x3b98deb7	0.0046652216
189	0x3db7ba09	0.0897103
190	0xbdbaf588	-0.091288626
191	0x3c451bfc	0.012030598
192	0xbd8e6660	-0.0695312
193	0x3d40eb88	0.04709962
194	0xbe056974	-0.13028508
195	0x3d2253da	0.03963075
196	0xbd67cea8	-0.056593567
197	0x3d1adb15	0.03780659
198	0x3d071532	0.032979198
199	0xbdbe4201	-0.09289933
200	0xbe0abf58	-0.13549554
201	0x3dcb83a1	0.099372156
202	0xbbadd85b	-0.0053053326
203	0xbe10fa03	-0.14157872
204	0xbd7d7791	-0.061881606
205	0x3c8a8b47	0.016912116
206	0xbb56f751	-0.003280122
207	0xbd165635	-0.036703307
208	0x3da4d902	0.080492035
209	0xbe004c4a	-0.12529102
210	0xbdc65f26	-0.09686117
211	0xbe0ec3dc	-0.13941902
212	0xbd8a920b	-0.06766137
213	0xbd630f37	-0.055434432
214	0x3b6957f8	0.0035605412
215	0xbe20215f	-0.1563773
216	0xbcfcf230	-0.030877203
217	0xbdd512ba	-0.104039624
218	0xbcb15c7d	-0.021650547
219	0xbdb213ee	-0.086952075
220	0x3e0a4bb1	0.13505436
221	0xbd6bc975	-0.05756517
222	0xbdcea842	-0.100906864
223	0xbd6d23e4	-0.057895556
224	0xbe0399c3	-0.12851624
225	0xbd350efc	-0.044203743
226	0x3db61c26	0.08892088
227	0xbda2ef06	-0.07955746
228	0x3df9b72f	0.121931426
229	0x3d24ede6	0.04026594
230	0xbdc7d755	-0.09757868
231	0x3cff24ee	0.03114554
232	0xbd506e6a	-0.05088655
233	0x3c6f962e	0.014623208
234	0xbcf11f91	-0.029433997
235	0xbc2ed0b6	-0.010669878
236	0xbdbd116d	-0.09231839
237	0xbd89382d	-0.06700168
238	0x3d92dfbb	0.071715795
239	0x3cd08f7f	0.02545905
240	0xbc92fc34	-0.017942525
241	0xbda43c54	-0.08019319
242	0x3dcf10dd	0.10110638
243	0x3d17bd97	0.03704604
244	0xbd688663	-0.056768786
245	0xbde48695	-0.11158482
246	0xbe1a4be1	-0.15068008
247	0xbd839a3a	-0.06425901
248	0x3c5be486	0.013421183
249	0xbd974669	-0.073864765
250	0xbcfb0c6f	-0.030645577
251	0x3cdb15a4	0.026743717
252	0xbdd4af1e	-0.103849635
253	0xbdadbe56	-0.08483569
254	0xbe16da33	-0.14731674
255	0xbe0fcbbf	-0.14042567
