GNN_DTI/model/20221122_044624_GNNDTI_repeat2/model/epoch-552, train_loss-1.2914, train_rmse-1.1364, valid_rmse-1.3313, valid_pr-0.6959.pt (torch, 879432 bytes, 24 tensors)

gconv1.0.A f4 [140, 140]
000000 2a 68 1d 3d d5 f2 f0 3c 6c ba 8a 3c ff 6d 49 3c
       0.038429417 0.029412666 0.016934596 0.0122942915
000010 d1 ae 17 bb 73 e4 ce 3a d8 c1 a0 3b 8a 3b 8b b9
       -0.002314497 0.0015784636 0.0049059205 -0.00026556506
000020 fc 64 25 3c 7e 5a 3b bd 5c 2f 8f bc 77 2d df 3c
       0.010094877 -0.045740597 -0.017478637 0.027243359
000030 9d f0 e2 bc 83 89 b9 bc bd a4 b1 bc 67 7b 85 ba
       -0.027702624 -0.022648579 -0.021684999 -0.0010183871
000040 19 47 e2 ba c9 56 0b bd 5e 83 94 bc 00 95 1a 3d
       -0.001726362 -0.03401831 -0.018129047 0.037739754
000050 96 28 12 3c c9 51 6b 3c bc ef 16 bc 06 6f 9a 3c
       0.008920809 0.014362761 -0.009212431 0.018851768
000060 df 67 42 3b 1c 5a e6 ba 0a 5c c0 bc be 27 00 3c
       0.0029663963 -0.0017574462 -0.023481388 0.007821975
000070 29 29 8d bb 25 81 62 bb 43 97 e2 bb 91 71 a0 bc
       -0.004307885 -0.003456184 -0.0069150045 -0.019585403
000080 c8 1d 5a bb b9 05 ac ba c2 d2 0f 3c 78 39 0b 3b
       -0.0033281911 -0.0013124264 0.008778276 0.002124397
000090 ae 25 fc 3b c4 4c 9e 3c 29 a4 fe ba b6 0d fd bc
       0.0076949215 0.019323714 -0.0019427586 -0.030890327
0000a0 fd c3 34 3c 8c 35 5b bb 07 d6 de bc 33 c4 ca b9
       0.011033055 -0.0033448664 -0.027201666 -0.00038674622
0000b0 fe 34 84 bb 14 45 aa bc 43 1a a7 3a 6b 38 44 3c
       -0.0040346375 -0.020784892 0.0012748915 0.011976342
0000c0 f0 a1 9e bc 35 95 d0 3b aa 44 58 bc 26 dc 2c bc
       -0.019364327 0.006365443 -0.013199965 -0.010550534
0000d0 82 c9 81 3c 66 9f a3 bb 8c 44 be bc af 0c 50 bc
       0.015843157 -0.004993367 -0.023226045 -0.0126983365
0000e0 0f 13 fc bb 4a f1 89 3c 2d 62 e4 bc 8b 14 c2 bc
       -0.0076927016 0.016838688 -0.027878845 -0.023691436
0000f0 ce 30 99 bc 6f 05 a8 bb 54 79 28 bc e6 90 f5 bc
       -0.01870003 -0.005127601 -0.010282833 -0.02997632
000100 40 61 d0 3c 58 c2 3e bc a7 a0 07 3c 9b cf 0e 3c
       0.025436997 -0.011643015 0.008278049 0.008716489
000110 2f 46 78 bc 69 0b 1f bc 93 56 9f bc 10 73 46 3c
       -0.015153452 -0.00970731 -0.019450461 0.012112394
000120 65 e7 13 bc 42 a5 01 bc 4a 87 86 bc 44 e9 f4 3b
       -0.009027337 -0.007912936 -0.016421933 0.0074740965
000130 30 ff ba 3b 6f 30 a8 3c d3 7c bf 3b 19 0a ac ba
       0.0057066903 0.020530907 0.0058437376 -0.0013125568
000140 b8 a0 a2 bc 65 a6 d2 bc bf 3b ee ba 56 45 a1 bc
       -0.019852027 -0.025714109 -0.0018175765 -0.019686382
000150 b6 fe 6a 3c b7 ae 1d 3c 0e c8 69 bc d2 75 dd 3a
       0.014342954 0.009624175 -0.014268888 0.0016896075
000160 f6 43 92 3c 95 0d 14 3a 2a bb 8e 3c 55 4b 6b bc
       0.017854672 0.0005647776 0.017423231 -0.014361222
000170 cf a2 39 3c ce 49 50 bc 5e 2b 14 3c bd 38 76 bc
       0.0113303205 -0.012712909 0.009043543 -0.015028176
000180 32 12 61 bb 63 c8 25 3c 1b 69 9d 3c f1 17 34 3c
       -0.003434312 0.010118577 0.019215157 0.010992036
000190 e4 75 c3 3c a3 59 e9 3c 95 7b 53 3b 56 01 b4 3c
       0.023859926 0.028485125 0.0032269706 0.021973293
0001a0 b3 e2 12 3d 15 d0 c7 bc b2 57 33 bd 84 89 28 bc
       0.03586073 -0.024391213 -0.043784805 -0.0102866925
0001b0 50 9a 72 3c 16 f2 36 3b b1 5b ae bc 8c 0d 98 3c
       0.014807299 0.002791529 -0.021283956 0.018561147
0001c0 bf 85 ba 3b 91 b6 c5 3b 1f 32 d5 bc da ff 85 bc
       0.0056922133 0.0060337265 -0.026024876 -0.016357351
0001d0 62 7f 84 bc cf 26 ca bc 26 7e 77 bc f6 d3 40 3c
       -0.016174022 -0.024676709 -0.01510576 0.011769285
0001e0 26 c3 39 3b 18 3c d9 bc fd 8b f7 3b 1b ba 91 3c
       0.0028345077 -0.026517913 0.0075545297 0.017788937
0001f0 de f4 bc bb 5b 74 4b 3c a7 39 35 3b 45 0b 46 3c
       -0.005766495 0.012417878 0.0027652772 0.012087648
000200 b7 ae 1f bc 9b bf a8 bc be 85 64 3c 0a 5e bf bc
       -0.009746245 -0.020599177 0.013947902 -0.023360271
000210 b5 74 b5 ba 75 68 40 bc dd a1 ac 3b 27 ee ee 3b
       -0.0013843986 -0.0117436545 0.005268319 0.0072915736
000220 11 48 27 bc 79 6a 08 3b 8e 3f 12 3c 4e e8 97 ba
       -0.010210053 0.0020815416 0.008926285 -0.0011589618
000230 97 f9 f0 3c 6f 24 61 3c 91 3a 2b 3c 81 09 8f 3b
       0.029415889 0.013741597 0.010450975 0.0043651466
000240 61 ae 4d bb 9f 9e 38 3c 89 b9 8d 3c 2d 92 48 bb
       -0.0031384456 0.011268287 0.017300384 -0.0030604706
000250 cc bf 9c 3c 82 e1 b8 3c b0 bf 0b 3d 07 76 91 bb
       0.019134425 0.022568468 0.034118354 -0.004439119
000260 79 d9 2c 3d d3 2f 66 bb 72 e1 9f 3c 5e b2 18 bd
       0.042199586 -0.003512372 0.01951668 -0.03727948
000270 42 39 19 bc 11 8b 19 bc f4 13 f5 3c 9f 0d 86 3b
       -0.00935203 -0.009371535 0.029916741 0.004090979
000280 28 1c 6d bb 9b c5 1e bc 62 8d e7 bc 04 e8 73 bb
       -0.0036180113 -0.0096906675 -0.028265659 -0.003721715
000290 4b 2e 1c 3c 60 c4 85 3c ae d6 c9 ba 17 2b ae b9
       0.0095325215 0.01632899 -0.0015399063 -0.0003321997
0002a0 38 40 a9 3b 3c fb a6 bb be f6 09 bc d3 a2 e8 bc
       0.005165126 -0.0050958674 -0.008420644 -0.028397953
0002b0 50 92 26 3c c6 8e ab 3c 7b 48 6e 3c 10 d8 17 3d
       0.01016672 0.020942103 0.014543648 0.037071288
0002c0 e4 f3 54 3c 63 7c 3a 3d 81 d3 89 3c 69 6d f8 bb
       0.012997601 0.04552878 0.016824486 -0.007581402
0002d0 42 91 f5 3b 80 75 1d 3d 94 dc 05 3d 02 be c3 bc
       0.0074941227 0.038442135 0.032681063 -0.023894314
0002e0 5f e2 d5 ba ef cc e0 3b ee 76 04 bc 79 ce 09 bb
       -0.0016318074 0.0068603675 -0.008084996 -0.0021027608
0002f0 24 a3 06 3d a1 51 2d 39 b2 57 e5 bb fd f4 5e bb
       0.032870427 0.00016528975 -0.0069989795 -0.0034020536
000300 91 21 af 3c ff cb a5 3c 51 81 eb 3c 78 0f 8f b9
       0.02137831 0.020238874 0.028748186 -0.0002728661
000310 c6 1f 14 3c c0 dc 0f 3d 44 2b 3b bc 90 f6 a0 3c
       0.0090407785 0.035122633 -0.01142389 0.01964882
000320 e0 df 51 3c 73 99 51 bc 31 c3 88 bc 61 be e0 b8
       0.012809724 -0.012792933 -0.016694637 -0.00010716613
000330 e0 d6 6a bc f7 0d 9a 3c 3d 19 d9 3b 56 3c c4 bc
       -0.014333457 0.018805487 0.006625323 -0.023954552
000340 dd 70 76 3c fc d7 e5 bc 75 ec 9c bc 1e 6f 88 bc
       0.015041557 -0.028057091 -0.01915572 -0.016654547
000350 4a 03 27 3b b3 cd 06 bd ad 8d 19 3d bc f3 21 3d
       0.0025484138 -0.032911014 0.03748863 0.039539084
000360 36 43 d0 bb 43 03 02 bc f4 8a 1e 3c 40 2e 0f 3d
       -0.0063556684 -0.007935348 0.009676684 0.034956217
000370 fd 7b 87 bc 91 bb a8 bc aa ef e9 bc 59 17 b9 3a
       -0.016538614 -0.020597251 -0.028556664 0.0014121338
000380 c8 e6 bf 3b c6 ce 09 3c 29 cc dd 3c c8 66 c0 3c
       0.0058563687 0.008411115 0.02707489 0.02348651
000390 05 a5 c1 3c 1c 6a be 3c dc 15 b2 3c 6f de 2c 3c
       0.023638258 0.023243956 0.021738939 0.010551079
0003a0 e4 b4 a4 bc f1 83 d4 bb 9b 1e ce 3a 8c a0 70 bc
       -0.020105787 -0.006485455 0.0015725674 -0.014686715
0003b0 0a e7 8f 3c ff d7 4b 3c 4f 40 48 3a 0c 0e 51 bc
       0.017566223 0.012441634 0.0007638977 -0.012759697
0003c0 2d 1d b3 bc bb 60 48 3c bf 6d 5c bc d6 9a e5 3c
       -0.021864498 0.012230094 -0.0134539 0.028027933
0003d0 32 95 53 bb 28 3a 1b 3c 4a 49 19 bc 56 8b 86 bc
       -0.0032284972 0.009474315 -0.009355852 -0.016423862
0003e0 bd 06 98 3c 56 b1 f0 bb 16 83 2e 3c 8e f3 32 3c
       0.0185579 -0.007345359 0.0106513705 0.010922326
0003f0 81 2d 82 3c ff b8 8f 3c f0 d1 4f bb d3 2c 88 3b
       0.015890839 0.017544268 -0.0031710826 0.004155734

gconv1.0.W.weight f4 [140, 140]
000000 3e 05 ac 3d 56 4f 1e 3d f9 e7 a0 bc bc 6e 92 3d
       0.08399437 0.03864988 -0.019641863 0.07150027
000010 fb 4a 22 bd 54 54 23 bd e7 78 b3 bd 57 b3 b7 bd
       -0.03962229 -0.039875343 -0.08763295 -0.08969753
000020 98 a1 d7 3d f1 dd 2b bd 73 64 0c 3d d9 91 14 3c
       0.105288684 -0.041959707 0.034275483 0.009067976
000030 4c 7e 07 bd cf f0 5d 3d cb fb 4d bb fa c7 fa 3c
       -0.03307943 0.05418473 -0.0031430598 0.030612934
000040 ab 1f 1e bd 3b ff 1d 3c 0c db da 3d e7 b6 10 bd
       -0.03860442 0.009643371 0.10686311 -0.03533068
000050 2e e2 30 3d fd af 9f 3d 95 55 50 ba 14 11 f7 bc
       0.04318445 0.07797239 -0.0007947323 -0.03015951
000060 3f 92 20 3d c4 ef 8d bc 59 33 de 3c 9c 80 96 3d
       0.03920197 -0.017326243 0.027124094 0.07348749
000070 22 55 c8 b9 51 3f 09 bd 1b 85 98 bc 7a f5 84 3d
       -0.00038210402 -0.03350765 -0.018618157 0.064921334
000080 08 ea 62 3a a7 35 a7 3c 4a cc 45 3c a0 84 c3 3d
       0.0008656089 0.020411326 0.012072632 0.095467806
000090 34 c6 bd 3d 7d d2 cf 3d f3 50 42 3d 5b 24 2d bd
       0.0926632 0.10147569 0.04744048 -0.042271
0000a0 dd a0 35 3d 41 ca 1e 3d 8e 15 9c bd 6b a1 26 3d
       0.044342864 0.038767103 -0.07621299 0.040681284
0000b0 4f 61 a4 bd f6 8e c1 3d f4 74 96 bd 93 7a 16 bd
       -0.08026373 0.09451096 -0.07346526 -0.03673799
0000c0 7c b4 ef 3c c1 1c a7 bc db 13 f0 3c 53 aa 85 bd
       0.029260866 -0.020399453 0.029306343 -0.065266274
0000d0 e7 75 d4 bd 8e 74 82 3d 67 8b 5a 3d 01 96 c0 3d
       -0.103740506 0.06369887 0.0533556 0.09403611
0000e0 b0 80 3c 3d 3f 8b c8 3c 95 91 e7 bc eb 91 ca bb
       0.046021163 0.02448046 -0.028267661 -0.0061819456
0000f0 b7 ee 80 bd 83 64 b5 3d 40 87 c9 bb c7 1d 0e 3d
       -0.06295531 0.08857062 -0.0061501563 0.034696367
000100 d6 b5 67 3c 55 42 b5 bd 6b d8 d5 bd 27 f0 56 bd
       0.014142474 -0.088505425 -0.10441669 -0.05247512
000110 03 3c 9b bd 0b 60 75 bc 39 9b 2e 3c e5 d0 91 bd
       -0.07579806 -0.014976512 0.010657125 -0.071199216
000120 9c 1c fe bc 77 f5 dc bd 89 ef ea bd 2b 92 75 bd
       -0.031019501 -0.10789006 -0.11471469 -0.05995385
000130 29 38 b3 bd 73 1c 01 3d 5b ac cc 3c 27 2a a7 bc
       -0.08750946 0.031521272 0.02498453 -0.020405842
000140 3b 2b 3a 3d a2 e1 92 3d 1f 50 44 bd f4 e4 9b bd
       0.045451384 0.07171942 -0.047927972 -0.07612029
000150 76 f0 9d bd d2 7a d4 3c df d3 6f ba 9b 18 0a bc
       -0.0771188 0.025937472 -0.0009148698 -0.008428718
000160 18 a0 eb 3c 7c 4c 8d 3d 12 e4 bc bd c1 16 99 3b
       0.028762862 0.06899354 -0.092231885 0.004671902
000170 db 9f 59 bd 62 39 0f 3d 96 28 a9 3d d3 26 3f 3b
       -0.053130966 0.034966834 0.08259694 0.0029167428
000180 cd 45 cb bb 33 85 fe bd 87 f6 6e 3d a9 8a 32 3d
       -0.0062033893 -0.124277495 0.058340576 0.043589268
000190 76 2d be 3d 4c ec aa bc 26 dc 5c bd 1f b7 2e 3c
       0.09286015 -0.020864628 -0.053920887 0.010663777
0001a0 68 77 9a bd 05 79 af bd 6b 61 eb bd 68 56 95 3d
       -0.07542306 -0.085680045 -0.114931904 0.07291871
0001b0 30 12 4f 3d 28 04 53 bd cd 19 3b bd 54 6e ce bc
       0.050554454 -0.051517636 -0.045678902 -0.025199093
0001c0 06 1a 3f bd 7a e7 d7 3c 95 50 37 3d aa 5b 4d 3c
       -0.046655677 0.026355494 0.044754583 0.012534061
0001d0 35 c4 f3 3a 9c ea 0f bd cb 65 d3 bc bb 6e 8e bc
       0.0018597903 -0.03513585 -0.025805375 -0.017386785
0001e0 db 42 fa 3d 7a d1 8e 3c 91 58 94 bd b6 f0 14 3d
       0.12219783 0.01743387 -0.07243455 0.036362372
0001f0 90 a5 5e bd 99 a6 28 3c 0f a2 85 3d af 1f ae 3c
       -0.05435711 0.010293626 0.06525051 0.021255342
000200 df 5e 52 bd f8 6a 38 3d ae e5 80 3d ee a6 42 bd
       -0.051360007 0.04502389 0.06293808 -0.047522478
000210 27 d6 38 3d b9 25 3d 3d cc d8 04 3d 5f 44 a0 3d
       0.045126107 0.046178553 0.032433316 0.07825541
000220 76 61 84 3c 45 7d da 3d 9f 55 79 bd 64 70 93 bd
       0.016159754 0.106684245 -0.06087267 -0.07199171
000230 04 ff 36 bd a5 b7 d4 3d cd 33 91 3d 97 c0 01 3d
       -0.044676796 0.1038659 0.07089958 0.03167781
000240 00 40 96 bc ff 10 87 3d b8 57 bb bd 4e 05 59 3d
       -0.018341064 0.065950386 -0.091475904 0.052983575
000250 2e 28 ff bc 78 73 ac bd 4d ef 97 3d 04 22 37 3d
       -0.031147089 -0.084204614 0.0741869 0.044710174
000260 18 26 94 bd 27 5f d7 bd 5d 16 f7 bd 4f ce 76 39
       -0.07233828 -0.10516196 -0.12064812 0.00023537244
000270 f2 b4 91 bd 02 e6 7e bd ac c4 cc 3d 46 ba b7 3d
       -0.07114591 -0.06223107 0.0999845 0.08971076
000280 27 e5 1c bd 2f c9 99 bd a6 c5 10 bd 87 28 7f 3c
       -0.038304474 -0.07509076 -0.035344742 0.015573627
000290 66 6b ba 3d 24 80 aa bd 87 ba b3 3c 4a 45 dc bc
       0.09102516 -0.08325222 0.02193953 -0.026888508
0002a0 1e 12 65 3d f9 3f 11 3d b1 b8 88 bd d1 60 0c bd
       0.05592548 0.0354614 -0.06675852 -0.03427202
0002b0 c6 f7 4e bd 9f cf 73 3d bb 0a 7c 3d bc d9 d1 3c
       -0.050529264 0.059524175 0.06153367 0.02561652
0002c0 d2 f3 97 3d 99 8a 43 bd 3a 27 d7 bd 8c 06 59 bd
       0.07419552 -0.0477396 -0.10505529 -0.05298476
0002d0 a9 95 f1 bb 20 9c 98 3d fb cd 82 bd cd 36 bc bc
       -0.007372577 0.074516535 -0.06386944 -0.02297535
0002e0 9f 3d 02 3b fd c5 be 3d 1c e1 c9 bd 28 ce 07 3d
       0.0019873155 0.09315107 -0.09857389 0.03315559
0002f0 53 53 40 bd 0b ef 81 3d d3 3e 83 3d b6 cd 98 bd
       -0.046954464 0.06344422 0.06408467 -0.07461111
000300 77 a1 27 3d b1 de 24 3d 53 3b df bc 55 64 5d bd
       0.04092547 0.040251438 -0.027249968 -0.054050762
000310 55 51 97 3d 78 73 8f 3d a3 b2 2e 3b 40 f2 d4 bc
       0.0738856 0.07004446 0.0026656769 -0.02599442
000320 b1 1a 14 3d 71 a5 55 bc d9 5d 9b 3b 85 dc ad 3c
       0.036158267 -0.013039933 0.004741412 0.021223316
000330 f7 c6 81 3d 20 07 d4 3c 39 d3 cb bb 33 e8 5c ba
       0.06336778 0.025882304 -0.006220248 -0.00084269344
000340 86 1c 48 3b 90 b4 b3 3c d5 3d 63 3d 44 c3 4e 3d
       0.003053458 0.021936685 0.05547889 0.05047919
000350 29 dd 1c 3c 98 d0 bb 3d 7b 89 a9 bd c5 02 47 bd
       0.009574213 0.091706455 -0.082781754 -0.048586626
000360 1e 08 99 bd 92 57 2f bd 77 15 91 3d 75 02 dd bc
       -0.07472251 -0.042808123 0.07084172 -0.02697871
000370 c9 7d 0e bd 2d 72 1d bc 36 20 07 3c 24 df 70 bd
       -0.034787927 -0.009609741 0.008247426 -0.058806553
000380 d3 c8 55 bd 5f c3 12 3d 1d 32 c4 3d 2b 3b 0e bd
       -0.052193474 0.03583085 0.09579871 -0.034724396
000390 a4 2e ac 3d 76 a0 ff bc 1a 4f c8 bd 91 62 55 3d
       0.084073335 -0.031204443 -0.097807124 0.052095953
0003a0 19 34 36 bd c8 8c c0 3b 80 34 3e 3c 8b 1a cb 3d
       -0.044483278 0.0058761574 0.011609197 0.09917172
0003b0 fb 2b 39 bd 84 20 4e 3d 63 15 c2 bc 11 57 ad bc
       -0.04520796 0.050323978 -0.023691839 -0.02115968
0003c0 49 2a 16 3d 33 4b 8a 3d 66 11 47 bd ee 22 0f 3d
       0.03666142 0.06752624 -0.048600577 0.03494542
0003d0 a2 ef c5 3d 5d 96 71 3c b4 50 7c bd 0b 9d 03 3b
       0.09664847 0.014745322 -0.061600402 0.0020082619
0003e0 70 cf 80 3d c3 aa 93 3d 82 72 a5 3d 3f b4 9f bc
       0.062895656 0.072103046 0.08078481 -0.019495128
0003f0 4c 11 3f bd 7b fe 3c 3c 32 7c 75 bd a3 96 63 bd
       -0.046647355 0.011535282 -0.059932895 -0.05556358

gconv1.0.W.bias f4 [140]
000000 30 3e 6b bd c3 fb a0 3d c9 6c 54 bd ef 18 a8 3d
       -0.057432353 0.0786052 -0.051861558 0.08207881
000010 05 46 b4 bc 32 32 b8 bc 97 59 b7 3c 0b c6 7a bd
       -0.022006044 -0.022484872 0.022381587 -0.061224025
000020 4c df 9c 3c 20 69 96 3d 64 28 2f 3d f8 5b 42 bd
       0.019149445 0.0734427 0.04276313 -0.04745099
000030 bb 0d 6b bd f8 bf 90 bd 1d 38 ea 3b f5 71 5b bd
       -0.05738614 -0.07067865 0.0071478025 -0.053575475
000040 86 a0 00 3d cc 52 f0 bb 32 22 8f bd d1 b1 4f bd
       0.031403087 -0.007334089 -0.06988944 -0.05070669
000050 db 82 8e 3c 39 ff aa 3d 5e 88 2a bd 6a 70 07 3c
       0.017396381 0.08349461 -0.041633956 0.008266548
000060 54 2d a2 bc 79 8c 88 bd fb 0d 70 bd 46 fa 52 bd
       -0.019797005 -0.06667418 -0.058607083 -0.05150821
000070 04 9e 19 3d 2e 4e 83 3d 73 ee 3b bd 8f 54 fb bc
       0.03750421 0.06411396 -0.0458817 -0.03067997
000080 37 b7 15 bd 58 e5 b8 bc 10 11 58 3c d5 4c 23 3d
       -0.03655168 -0.022570297 0.013187662 0.039868195
000090 d2 54 93 bc e4 97 c5 3d 07 8e 23 3d 55 28 03 3d
       -0.017984781 0.096481115 0.03993037 0.032020885
0000a0 87 54 a7 bb b9 19 50 3c 89 a9 8e 3d f7 b6 a3 3b
       -0.005106512 0.012701445 0.0696593 0.0049961763
0000b0 bf 79 3f bd 13 0e 79 bd f6 b5 52 3c 78 2e 62 bc
       -0.046746965 -0.060804438 0.012860766 -0.013805024
0000c0 99 ba 80 bd 8b 80 f7 bc 0f fb 83 3d 23 a9 aa bc
       -0.06285591 -0.030212661 0.0644437 -0.020832604
0000d0 1b 45 c8 3c e1 30 bb 3d 32 72 f7 3c e9 89 66 3d
       0.024447015 0.09140182 0.03020582 0.056283865
0000e0 26 51 00 bd 19 c1 95 3d 89 79 61 3d 91 5e 1f bd
       -0.03132739 0.07312221 0.055047546 -0.038908545
0000f0 06 27 14 3d 72 dc 79 bd b3 a3 81 bc 86 2a 60 bc
       0.03617003 -0.06100125 -0.015825128 -0.013682013
000100 91 16 08 3d a8 df 99 3d 15 03 3f bc d9 50 1d 3d
       0.033224646 0.07513362 -0.01165845 0.03840718
000110 bd 51 83 bd f7 be 67 bd 6e 77 93 bd aa 5d 60 bd
       -0.06412075 -0.056578603 -0.07200514 -0.054776825
000120 93 ae b2 bc b0 b3 53 3a 03 eb 5f bd 5d e2 a7 3d
       -0.02181176 0.0008075787 -0.054667484 0.08197472
000130 82 90 9d 3d e2 9e 81 3d 58 2f 7a bc 6b 74 6e 3c
       0.07693578 0.063291326 -0.015270077 0.014554123
000140 d7 d6 51 bd 8b 48 28 3d a6 be 0b bd 73 90 e8 bc
       -0.051230278 0.041084807 -0.034117363 -0.028389191
000150 6d f6 80 bc 3a 92 36 bd cf 6c 6c 3d 4a 0c 3a bd
       -0.015742505 -0.044573046 0.057720955 -0.045421876
000160 91 a3 96 bd ad 7e 81 bc 2e c8 b9 bc 05 a9 f1 3c
       -0.073554166 -0.015807474 -0.02267846 0.02949954
000170 36 c2 ea 3c 52 bd 8b bd a3 eb 5b 3d 12 7e 49 bd
       0.02865706 -0.06823219 0.053691518 -0.049192496
000180 dc 37 69 3d ff b0 83 3d 8c a3 fb 3c f5 b1 77 3d
       0.056938037 0.06430244 0.030717634 0.060472447
000190 0d 0b b9 3d af 43 e5 bb 46 e1 bd bb 21 72 95 39
       0.09035311 -0.006996594 -0.005794677 0.00028504527
0001a0 ae 2f bc bc 70 06 ad 3c b5 be 85 bd 75 e0 d4 bc
       -0.022971954 0.021121234 -0.06530515 -0.025985936
0001b0 a1 0a 55 bd dc 4c a6 3c 10 77 0f bc 5c cb 1a bc
       -0.05201209 0.020300321 -0.008756414 -0.009447899
0001c0 44 dc a4 3c 96 19 a9 3d 58 7b b9 3c 74 e4 0b bd
       0.020124562 0.08256833 0.022641823 -0.034153417
0001d0 01 46 16 3c 26 45 39 3c 70 5b 4e bc 00 09 4d 3c
       0.009171964 0.01130799 -0.012595043 0.012514353
0001e0 f5 c3 a4 bb 87 69 8c bd 49 4a 24 bc b2 53 97 bc
       -0.0050282427 -0.06856065 -0.010027477 -0.018472526
0001f0 4a b6 35 3d 22 1d f6 bb 53 2f 00 3d 7c 00 46 3d
       0.044363298 -0.007510797 0.031295132 0.048340306
000200 30 ac 1e 3d a2 b4 11 bd 9a 67 72 bd 51 b7 9c bc
       0.03873843 -0.035572655 -0.059180833 -0.01913038
000210 0f 7f 87 bb 33 22 21 bc c8 da 33 3a f9 0c a8 3d
       -0.0041350196 -0.009834814 0.0006860909 0.08205599
000220 75 6f ee bc 92 23 64 3d 1d 98 5d 3b 78 2a bb ba
       -0.029105881 0.055697985 0.003381259 -0.0014279624

gconv1.0.gate.weight f4 [1, 280]
000000 76 e4 81 3c 4b 17 af 3c 41 16 f6 bd fc e7 07 3c
       0.015856009 0.021373412 -0.12015963 0.0082950555
000010 12 a7 d8 bd 8b a8 fb bc 07 fe 72 3c 17 f2 30 3a
       -0.10578741 -0.030720016 0.014831073 0.00067499414
000020 6c 52 10 3e d6 11 c1 bd 65 43 85 bd 7e 55 8d bc
       0.14093941 -0.0942723 -0.06506995 -0.01725268
000030 9d a3 d8 bc 52 f2 59 3d b2 fb 60 3d b3 d7 47 3d
       -0.026445204 0.05320961 0.054927535 0.04878969
000040 3c e1 92 3d 13 2b b5 3d 91 7e 6d bd 44 5b 86 3c
       0.07171866 0.088461064 -0.05798203 0.01640094
000050 c9 d8 9d 3c 5c 7f c5 bc 10 76 f7 bc 37 ff 1d bb
       0.01926841 -0.024108581 -0.030207664 -0.0024108419
000060 bb cc b9 bd 3b 67 6a bd 98 44 79 3d d1 2d c8 bd
       -0.09072252 -0.057227354 0.06085643 -0.09774364
000070 32 3b 87 3d dc 5d 83 3b f2 fd ae bd 90 34 fe bc
       0.066030875 0.0040089916 -0.0854453 -0.031030923
000080 d3 a9 09 bd 39 12 9c 3b 5e 05 24 bc 1b 97 8f bc
       -0.033609223 0.0047629145 -0.010011045 -0.017528107
000090 94 5b a8 bd 5f 56 8d bb 88 c3 b3 3d 64 9b bc 3d
       -0.08220592 -0.0043132748 0.08777529 0.09209326
0000a0 db 6a 9d bc c6 51 98 bd 53 b9 89 bd ea 32 a5 3d
       -0.019215992 -0.07437472 -0.06724801 0.08066352
0000b0 e8 44 58 3d 24 50 2b bd 06 46 08 3d c0 a9 21 3c
       0.05280009 -0.041824475 0.033269905 0.009867132
0000c0 51 fb d0 bc ac 10 60 3d 79 c9 a6 bc 68 e0 04 3e
       -0.025510462 0.0547034 -0.020359742 0.12976229
0000d0 03 2d f6 3d 0d e5 62 3c 06 de 9f bc 31 e5 9f bc
       0.12020304 0.013848555 -0.019515049 -0.019518467
0000e0 05 7f 82 bd 6e cc 6d 3d f6 26 9c 3c 55 2f bd bd
       -0.06371883 0.058056287 0.019061547 -0.092375435
0000f0 f1 00 a2 bd 4d e5 31 bd 9f 18 a2 3d a6 9b 93 3d
       -0.07910336 -0.04343157 0.07914852 0.07207422
000100 1d 2b a7 3c d1 09 ea bd ac be 11 3c 78 9c 70 3c
       0.0204063 -0.114276536 0.008895557 0.014685743
000110 9b 74 2b 3d 43 64 10 3d 7f 0f cf bd 71 91 b3 3b
       0.04185925 0.035251867 -0.101103775 0.0054799845
000120 3a 51 22 3c 03 5e 39 3c 7b 5f ff 3a 9d df f9 bd
       0.009907061 0.011313918 0.0019483411 -0.12200854
000130 e8 6a ea 3c 74 d1 14 3d ca 18 7d bd 4c 54 9e bd
       0.02861543 0.036332563 -0.06179122 -0.07730922
000140 2f 5f 86 3d 0e 20 8e 3d 06 fc 2c bd f0 57 00 bd
       0.065611236 0.06939708 -0.042232536 -0.031333864
000150 b5 c6 98 3c 91 73 f3 bc 1a e1 dd bd 57 a5 ce 3c
       0.018649438 -0.029718192 -0.1083395 0.025225325
000160 78 75 61 bd f1 52 ac bc 40 eb 5f 3c 58 a7 1c bc
       -0.055043668 -0.021035643 0.013666928 -0.009561382
000170 a6 6b 51 bd 6d ee 0c 3e e9 b7 94 3c b1 e9 e6 3b
       -0.051128052 0.13762827 0.018154101 0.007046901
000180 fe 06 ec ba d3 2d 6b 3c f3 49 1f bd 1a cb 2f 3c
       -0.0018007455 0.014354187 -0.038888883 0.0107295755
000190 77 5b 36 ba 45 6a a5 bc 9b bc 60 bd fe a7 e6 3d
       -0.00069563783 -0.020192275 -0.05486737 0.11262511
0001a0 0f 87 89 bd 95 6a 6a 3c 8b 0b 3a 3d f6 fe 1f bb
       -0.067152135 0.014307638 0.045421164 -0.0024413443
0001b0 8f 02 89 bc 1c 66 af bd 26 e9 dc bd b5 c1 ec bc
       -0.016724853 -0.08564398 -0.10786657 -0.02890096
0001c0 d4 c5 46 bc 40 87 ec 3d a7 66 7b 3d f7 5c 4b bd
       -0.012132127 0.115492344 0.061377194 -0.049649205
0001d0 e5 ac 1b 3d 6a 29 9a bc f5 2f 15 3d 45 38 da bd
       0.038006682 -0.018818576 0.03642269 -0.10655264
0001e0 42 5b ce bd cf 52 cc 3c 4c 99 6f bb 92 d3 c2 3b
       -0.10076 0.02494183 -0.0036559878 0.0059456313
0001f0 94 21 bc bd f9 cb 5e bd b1 c6 a7 3d a5 5b 5e 3d
       -0.09186092 -0.054393742 0.08192194 0.054286618
000200 38 85 d8 3a 23 95 df bc ce a8 27 bd 81 54 46 3d
       0.0016519194 -0.027292794 -0.04093247 0.048420433
000210 7e 65 37 bd aa cd 4b 3d 71 4b fe bd a1 23 31 bd
       -0.044774525 0.049756683 -0.12416733 -0.04324687
000220 d0 73 aa bd 7b 1e 19 3d 99 c2 b1 bd a8 53 63 bd
       -0.08322871 0.037382584 -0.08679695 -0.055499703
000230 b9 47 e6 bc 10 7f cc bd d7 a0 ed 3c fa f0 13 3d
       -0.028110372 -0.09985173 0.029007358 0.036118485
000240 44 b5 55 3b f4 c5 e9 bc 0d fe 95 bd a3 9d d7 bc
       0.0032609263 -0.028536774 -0.07323847 -0.026320284
000250 38 98 44 3c 97 70 b3 bd 76 3c b4 bd 99 69 6b 3d
       0.011999182 -0.08761709 -0.088005945 0.057473753
000260 f0 ee 96 3c 64 07 8a 3d 27 9c 36 bd 11 6d 21 bd
       0.018424481 0.06739691 -0.044582512 -0.039410654
000270 d9 ee ba bd ce 2c 41 bd 82 5a b2 bd 0a b0 17 bd
       -0.09127588 -0.04716187 -0.08708669 -0.03703312
000280 dc 6c 99 bd e7 90 cf bd c6 7f b3 ba 4e 0e ef 3c
       -0.074914664 -0.1013506 -0.0013694696 0.029181626
000290 d9 ae a1 bd ec fc 6e 3d da ff a1 bd d6 d8 b9 3c
       -0.07894678 0.058346674 -0.07910128 0.022686403
0002a0 ea d3 d5 3c 57 09 de bd dd d1 6d bd 3f 6f 8c 3d
       0.026102025 -0.10841625 -0.05806147 0.06857156
0002b0 b3 5c 26 3d f0 d5 05 be ef f9 5a bd 94 a4 c2 bd
       0.04061575 -0.13069892 -0.05346101 -0.09504047
0002c0 47 15 90 3d cb de b7 bd e7 bf fd bd 2f 98 8f bc
       0.07035308 -0.08978041 -0.12390118 -0.017528621
0002d0 a6 f1 4a bd ec 76 8d bc e1 2a eb bd 4f a3 a7 bd
       -0.04954686 -0.01726862 -0.11482788 -0.081854455
0002e0 c9 37 d1 3d 34 27 b9 bd 18 7d f0 3c f8 38 29 be
       0.10215718 -0.090406805 0.029356524 -0.16525638
0002f0 5c 53 9c bd b3 64 75 3c d8 44 d6 3c 09 a3 84 bd
       -0.07633087 0.014977622 0.026155874 -0.06476409
000300 66 ba 60 bc 5c b0 99 bd 86 9f b4 bd a4 ac 36 3b
       -0.013716316 -0.07504341 -0.08819489 0.0027873898
000310 db ea f5 bd 0e 6e 8b 3b 01 40 09 be a9 8b 84 bb
       -0.12007686 0.004255063 -0.13403322 -0.004044969
000320 6c b9 08 bd 94 df 64 3c dd 08 8d bd cf 64 1d bd
       -0.033379957 0.013969321 -0.06886456 -0.038426217
000330 8b 62 ce bd eb 2e b6 bd c2 35 ab bb 1c ea cb 3c
       -0.10077389 -0.08895668 -0.0052249143 0.024891905
000340 97 66 ab bc 40 30 27 bd 7d 1d 8f 3d bf 94 58 3d
       -0.020922942 -0.0408175 0.06988046 0.05287623
000350 d0 98 4c bc bf 37 34 bc 30 1c ed bd 05 f7 8f 3c
       -0.012487605 -0.010999619 -0.11577642 0.017573843
000360 4f 65 92 3c f1 1d 06 bd 3e 26 cf bc 94 e1 31 bd
       0.017870573 -0.032743398 -0.02528679 -0.04342802
000370 9b 15 8f bd 19 82 69 bd 6f 6d dc bd c4 3d c5 bc
       -0.06986543 -0.057008836 -0.1076306 -0.024077304
000380 40 d8 74 bc a2 2e fa 3c 97 e1 95 bd 2a 06 88 bb
       -0.014944136 0.030539814 -0.073184185 -0.0041511254
000390 35 06 cd bd 5e 7f 35 bc 2c ea 31 bc 9b 0c b1 bd
       -0.100109495 -0.01107773 -0.010859054 -0.086449824
0003a0 3e 0e 8d bd 24 05 8a bd db df d6 bd e2 09 87 bc
       -0.06887482 -0.06739262 -0.10491916 -0.016484205
0003b0 8d 69 dd bd 2c e5 cd 3c fe 8c 45 3d 48 bc d8 bd
       -0.10811148 0.025133692 0.048230164 -0.10582787
0003c0 94 33 39 bd ce bb 3c bd 23 7f b2 bd 86 ef 0a 3d
       -0.045215204 -0.046077542 -0.08715656 0.033919834
0003d0 e2 2b c5 3c 69 33 81 bd 92 e6 a3 bd 2c 47 ba 3c
       0.024068777 -0.06308634 -0.08002962 0.022739016
0003e0 53 c4 5e bb a6 1e ea 3c 48 ee 77 bd 58 8c 04 be
       -0.003399153 0.028579067 -0.060529977 -0.12944162
0003f0 f4 2b 28 bd 3e ab e2 3c 3e 7a a5 bd 5f bd 0b bd
       -0.041057542 0.027669545 -0.080799565 -0.034116145

gconv1.1.A f4 [140, 140]
000000 a8 f3 54 bc 59 ae 85 3a 61 d1 93 3c 2c aa 0a 3d
       -0.012997545 0.0010199054 0.018044176 0.033853695
000010 92 68 84 3c a1 86 c2 3b 8b e4 22 3c b0 65 a5 3c
       0.016163144 0.005936459 0.009942184 0.02019009
000020 9d ac 06 3d 7e 86 ee bc c7 2d f1 3c 9b 12 c2 3c
       0.03287946 -0.029116865 0.029440774 0.023690512
000030 ae c5 5a bc 55 fb 88 3c be 64 11 bd 91 5a 89 bb
       -0.013352795 0.016721407 -0.035496466 -0.0041917046
000040 67 d5 05 3d b3 61 73 3c 9a b8 fb 3c cc e9 df bc
       0.03267422 0.014854836 0.030727673 -0.027333163
000050 1c e5 e8 bb 5d 64 9a 3c 02 9e 6c 3c 04 0a ec 3c
       -0.00710739 0.018846685 0.014441969 0.02881337
000060 b3 ab 98 b9 b9 30 ba bc 67 ff eb bc ca cf 66 3c
       -0.00029119625 -0.02272831 -0.028808309 0.014087627
000070 3d e6 56 3c 98 0e e8 3a f3 24 cf 3c 88 7a 92 3c
       0.0131164165 0.0017704545 0.025286173 0.017880693
000080 f8 20 2b 3c 56 52 54 3c 40 c1 80 3c 87 7b bf 3c
       0.010444872 0.012959084 0.015717149 0.023374332
000090 67 17 ea bc e6 21 ca 3c 23 71 10 3c ef 51 43 3d
       -0.028575612 0.024674367 0.008816036 0.04768556
0000a0 1e 84 3c bc 14 ac 06 bd 8d 66 bf 3b 82 c6 d2 bc
       -0.011506109 -0.03287895 0.0058410824 -0.025729422
0000b0 cb 69 a1 3b ec ec ca 3b 95 5d df 3b 07 cc 1a 3c
       0.0049259416 0.006192794 0.006816576 0.009448058
0000c0 e4 ff a7 3a 48 ce 21 bb 87 42 cf bb d9 e5 01 3d
       0.001281735 -0.0024689604 -0.0063250693 0.03171334
0000d0 e6 ff 3d bd 45 d7 a6 3c 57 3c b4 3c 0b d5 a4 3c
       -0.046386622 0.02036632 0.022001429 0.020121118
0000e0 6e d8 42 bb 9c e7 c8 bb c5 c8 39 3b 92 2c 16 bd
       -0.0029731053 -0.0061311256 0.0028348428 -0.0366636
0000f0 5d 59 44 bb b0 13 82 3b 55 6a 34 3c ac f8 89 bc
       -0.0029960491 0.003969632 0.01101168 -0.016842209
000100 0e 0d 9a bc 55 48 59 bc 87 3b a3 3c d8 6c 62 bc
       -0.018805053 -0.013261874 0.019925846 -0.013819896
000110 fa cc c6 ba 8e 21 5c 3c 6f 63 e3 bb a0 6d 83 bc
       -0.0015167289 0.013435734 -0.0069393436 -0.016043484
000120 9e b3 91 bc ea 1b 41 bd d2 97 0f 3d 16 3a 61 bc
       -0.017785843 -0.04714576 0.035056897 -0.013746759
000130 99 ff 21 bb 0e 36 da 3c a4 7c 3d 3b 60 f2 a0 3c
       -0.0024718998 0.026637103 0.0028913403 0.019646823
000140 8a 80 39 bc 7b a5 9c bb f6 b7 0a 3d d8 2e 4c 3b
       -0.01132215 -0.004780469 0.033866845 0.003115585
000150 39 2e 79 bc ef d6 45 ba d1 ca fc 3a 23 d5 74 3b
       -0.015208774 -0.0007546981 0.0019286518 0.0037358485
000160 d8 78 5c 3c 99 19 8b 3c a3 5e c4 3c 97 aa a6 3c
       0.013456546 0.01697998 0.023970908 0.020345015
000170 f1 e1 8c 3b 17 c9 3e 3c d6 9a 06 3c 92 1a 2c bc
       0.0042993953 0.011644623 0.008215627 -0.010504382
000180 3b 3d 81 bc 99 e3 c3 bc f1 73 d9 bb bd ec f4 3c
       -0.015776267 -0.023912238 -0.0066361357 0.029898042
000190 20 3c af 3a 3c 0a 68 3c d1 49 04 3c a9 b3 e9 bb
       0.0013369359 0.014162596 0.00807424 -0.007132013
0001a0 4d 7c e6 3c bf af c0 3c 0f d7 81 bc f7 ca d4 bc
       0.028135443 0.023521302 -0.015849618 -0.025975687
0001b0 e2 4f 2f 3c 2f cd 56 3c f8 78 dd 3c 98 10 08 bd
       0.010700198 0.013110443 0.027035221 -0.03321895
0001c0 6c ee fd 3c 0b b6 c6 bc 07 57 8a 3c 3a 1f 87 3c
       0.030997477 -0.024256727 0.016887201 0.016494382
0001d0 23 d9 a9 bc 3a a9 8e 3c 92 0d 28 3b c0 9d 43 bb
       -0.020733422 0.017414678 0.0025642854 -0.0029848665
0001e0 e3 75 3b 3c 1b 32 14 3c bd 9a 7c bc eb ed cb 3c
       0.011441681 0.009045149 -0.015417752 0.024893722
0001f0 ff 73 15 3d ef 63 e5 3c 00 76 eb bc 7e 6d 90 3c
       0.036487576 0.028001754 -0.02874279 0.017630335
000200 bf dc ca 3c c1 d7 69 3c 7c c8 97 bc 5e 43 85 3b
       0.024763463 0.014272631 -0.018528216 0.0040668687
000210 24 b2 bd 3c eb 68 aa 3b 0a 79 ed bc c3 6e bb bc
       0.023156233 0.0052004955 -0.02898838 -0.022879964
000220 2e 51 29 bc 57 80 1b bb d2 b3 34 3c 36 7c f0 3b
       -0.010334296 -0.002372762 0.011029201 0.007339026
000230 1d 9c 83 3a b4 85 4f bc 7d a3 56 bc 30 58 43 bd
       0.0010041032 -0.012666155 -0.013100502 -0.047691524
000240 f3 a0 04 bd df 6b 41 bc ba de b9 bb 41 b5 d9 bc
       -0.032380056 -0.011805504 -0.005672303 -0.026575686
000250 ed 4e 4c bd 55 87 14 3d db 70 fa bc cd cc 1c bd
       -0.049879957 0.036261875 -0.030571392 -0.03828125
000260 d6 8e 5f 3d a3 06 82 bd 71 d9 db 3c 0d ef b1 3c
       0.05457958 -0.06348922 0.026837083 0.021720434
000270 93 cc a7 bc bd 9a d0 bc 37 97 00 bd fa 94 be 3c
       -0.02048329 -0.02546441 -0.03139421 0.023264397
000280 ec 26 af bc d7 df f8 bc cd 09 74 bc 8a f3 0e bd
       -0.021380864 -0.030380173 -0.014894915 -0.034900226
000290 8a 6e a5 36 2b 9e 96 3d 6d 80 48 3d c2 8a fe bc
       4.9302516e-06 0.07354387 0.0489506 -0.031072024
0002a0 b7 13 88 bc ab c8 5a bc 7c b5 04 bd 52 3e 69 bd
       -0.016610963 -0.013353507 -0.03239964 -0.0569442
0002b0 88 d1 6d bb 59 c6 0d bc 1f c0 8c bc 04 38 47 3a
       -0.003628822 -0.008653247 -0.017181454 0.00075995945
0002c0 8e c9 48 3d 04 40 cb bc b9 d7 aa 3b 54 35 95 bc
       0.049020343 -0.024810798 0.0052137044 -0.018213905
0002d0 36 88 91 bb b8 bc 9f 3c 48 55 6f 3c 38 93 50 3d
       -0.0044412864 0.019499168 0.014607735 0.05092165
0002e0 35 7f 81 3c 30 ac 47 bd 45 92 64 bc 6b 77 4c 3c
       0.015807727 -0.048748195 -0.013950889 0.012479643
0002f0 ab 59 be bc d2 35 35 3c 8a c6 e8 bb fc 86 63 bd
       -0.023236116 0.011060195 -0.007103746 -0.055548653
000300 22 a9 2e 3d 90 4e 08 bd 50 6c 25 3c 6e 03 28 bd
       0.042641766 -0.033278048 0.0100966245 -0.041018896
000310 4b c6 26 bc 50 19 a3 bc 6d 21 dd bc 27 de 42 3d
       -0.010179113 -0.01990953 -0.026993478 0.047575142
000320 9c 73 9c 3b d7 87 88 bd 5d b2 02 bb f6 86 ce bb
       0.004774524 -0.066665344 -0.0019942739 -0.0063027097
000330 ed f1 3d 3d 2b db 8a 3b e3 9f c4 bc 41 fd bf bb
       0.046373297 0.0042375526 -0.024002021 -0.0058590476
000340 19 54 56 3c cc d0 9c bb 05 7c 12 3d 16 3e e5 bc
       0.013081574 -0.0047856327 0.035762805 -0.027983706
000350 b8 50 8c 3d 7e 74 a1 3c 3f c5 08 bd de 5e 97 3c
       0.068513334 0.019708868 -0.033391234 0.018477853
000360 03 72 d0 bc 24 9b 02 bd bc 74 f8 bc c2 79 e7 bb
       -0.02544499 -0.031886235 -0.0303291 -0.007064075
000370 f9 06 b8 bc 93 20 2a 3d 4e 3e e1 bc e1 64 82 bc
       -0.022464262 0.04153497 -0.02749553 -0.015917243
000380 ad fe e3 3b 82 c2 21 bd 3b 41 83 bc 22 41 a3 bc
       0.00695785 -0.039492138 -0.016022315 -0.019928519
000390 de 00 0b bd 88 7d 8e 3c 23 a7 e8 bc 04 b8 ad bc
       -0.033936374 0.017393842 -0.02840001 -0.02120591
0003a0 f5 0d 24 3a c9 65 9b 3c 03 93 5b 3c df a4 10 3c
       0.0006258183 0.018969433 0.01340175 0.008828371
0003b0 2b e6 80 3d c5 87 ce 3c 6a 2a 8d 3d 71 41 3b bd
       0.06293901 0.025211224 0.068928555 -0.045716707
0003c0 96 3a 0b 3c 39 39 22 bb bb 4a b7 bc b7 1a 1a bb
       0.008497855 -0.0024753346 -0.022374501 -0.0023514458
0003d0 81 2d 0b bc f5 27 67 bd fb 35 63 bc 50 b4 4f 3d
       -0.008494736 -0.05643459 -0.01386785 0.05070907
0003e0 28 cf 55 bd c1 51 3b bd d5 c6 10 bd 31 68 6e 3d
       -0.052199513 -0.045732263 -0.03534587 0.058204833
0003f0 f5 ce 0d bd 11 9f fd 3b 22 4f 7e bd 26 60 80 3b
       -0.034621198 0.0077399095 -0.062087186 0.003917712

gconv1.1.W.weight f4 [140, 140]
000000 31 4c 81 bd 80 15 d8 bd ea 63 a6 3c 01 06 d2 bd
       -0.063133605 -0.10550976 0.020311315 -0.102550514
000010 be b1 83 bd c1 36 9f bd 2f d8 8d bc 3f 97 97 3c
       -0.06430386 -0.07774115 -0.017314998 0.018504737
000020 2d 0c 4b bd 5b 6d 71 3d 0e 65 00 3d b8 b2 a2 3b
       -0.04957216 0.05894218 0.031346373 0.0049651526
000030 42 ca 73 3d 32 28 47 bd 12 d4 06 3d 0e 82 bd bd
       0.05951906 -0.048622318 0.03291709 -0.092533216
000040 58 77 9e 3d e7 26 73 3d 8f cc 87 bd 2b b0 af 3c
       0.07737607 0.059363272 -0.06630813 0.021446308
000050 e3 be 47 bd dc f2 a3 bd 2f e9 d7 bd c7 8c 20 3c
       -0.048766028 -0.08005306 -0.10542523 0.009799189
000060 ff d5 54 3d 54 d1 bf bd 3e 64 6f 3d bb a9 b4 bd
       0.051961895 -0.09366098 0.058445208 -0.08821436
000070 f8 2a b8 bd b7 a0 e4 bc b4 52 ae bb f0 af a3 bd
       -0.08992571 -0.027908666 -0.0053199176 -0.07992542
000080 28 ab 98 bd 60 5a 9c bc cb b5 cb bc 4a 74 c7 bb
       -0.074545205 -0.019086063 -0.02486696 -0.006086861
000090 3b dc 3c 3c 6a d2 e3 bd a4 20 9b 3c 06 4c cd 3d
       0.011527116 -0.11124118 0.018936463 0.10024266
0000a0 f3 96 5e bd 7d c8 ac 3d d6 9f 55 bc 3f bc a5 bd
       -0.054343175 0.084366776 -0.013038596 -0.08092546
0000b0 4d dc bc bc 49 c3 18 3d 45 71 6a bd 0a 6d f0 3b
       -0.023054266 0.037295613 -0.05723693 0.007337217
0000c0 18 fa 13 3c e5 a7 da ba 34 88 b9 b9 3c d1 a3 3d
       0.009031795 -0.0016682117 -0.0003538743 0.07998893
0000d0 d8 f7 3e bd 43 f4 32 3d d2 69 eb bc de e3 27 3b
       -0.04662308 0.043689977 -0.028736982 0.0025617997
0000e0 18 a1 90 bd f9 36 5f bd 14 ba d7 bd d2 78 5b 3d
       -0.07061976 -0.054495785 -0.105335385 0.05358202
0000f0 b4 4d 21 bc 99 ff 93 bd be 06 72 bd e2 8b 53 3d
       -0.009845186 -0.07226486 -0.05908846 0.051647075
000100 0e 31 36 bd 10 18 6b bd 40 7b dc bc 32 39 ca bd
       -0.044480376 -0.057395995 -0.026914239 -0.098741904
000110 7b 31 d1 bd e2 cd bf 3b 2f 0c 5a 3d 2a 51 e4 3c
       -0.10214516 0.0058534006 0.053234275 0.027870733
000120 2e 7b 96 39 86 50 fe bc 8b cf 86 bd 6d f6 1b 3d
       0.00028702006 -0.031044256 -0.065825544 0.038076807
000130 61 00 ce ba 4e 23 5f 3d 2b fa d9 bc 9e 07 6e bd
       -0.0015716666 0.05447703 -0.026608547 -0.058112733
000140 70 7f 96 bd 41 bf 38 bd 33 f1 bd 3d cc 00 25 3d
       -0.073485255 -0.04510427 0.09274521 0.040283963
000150 45 fd ba bd 97 5d 4e 3c a8 16 9e bd 91 cd 3b 3d
       -0.091303386 0.012595556 -0.07719165 0.04585034
000160 e3 4e e3 bd 29 43 0e 3d d7 08 58 bd d9 31 00 3d
       -0.11099031 0.034732018 -0.052742805 0.03129754
000170 99 36 40 3c 39 54 89 3d b4 48 55 bd ea 35 07 3d
       0.011731767 0.06705517 -0.05207129 0.0330104
000180 2c b3 8e bd 8b 07 dc bd ac 09 0e bd 66 a9 f1 bc
       -0.06967768 -0.10743626 -0.034677193 -0.02949972
000190 ec c1 82 3d 08 fa 06 3d 77 f9 88 bd 0c 16 49 bd
       0.06384644 0.032953292 -0.06688207 -0.04909329
0001a0 54 50 68 bd 19 71 5d bd 6d 2b a8 bd 1f 15 88 3c
       -0.056717232 -0.054062936 -0.08211408 0.016611634
0001b0 38 66 52 3d 53 19 a5 bd 02 93 6f bd 1d 38 83 3d
       0.051367015 -0.08061471 -0.058489807 0.06407187
0001c0 56 f1 04 3d 13 41 ce bd b8 71 65 3c 92 46 b0 bd
       0.03245672 -0.10071006 0.014004163 -0.0860721
0001d0 95 46 60 bd af 80 0f bd 35 5a de 3b 27 9e f0 bd
       -0.054754812 -0.03503483 0.006785656 -0.11748915
0001e0 5d 80 e1 bc 77 10 f7 3c 80 7a 1e bc 58 b7 2d bd
       -0.027527029 0.030159218 -0.009672761 -0.04241118
0001f0 31 cf ee bd 70 6b e8 3c a6 28 41 bd d7 89 a7 bd
       -0.116606124 0.028371543 -0.047157906 -0.08180588
000200 89 8b 81 3c 2c 5b ed 3c 06 81 5e bd 8e 57 4d 3c
       0.015813606 0.028974138 -0.054322265 0.012533082
000210 31 f9 59 3d f5 0f 91 3c 11 91 7e 3b 6d 91 11 3d
       0.053216163 0.017707804 0.003884379 0.03553908
000220 fb 34 84 bd 64 14 4d bd 8b 89 96 3c 74 54 c1 bc
       -0.06455418 -0.050068274 0.018376132 -0.02359984
000230 09 7e f6 bd 87 74 b0 bb 3d c4 45 bc 84 1b 3f 3c
       -0.12035758 -0.005384985 -0.012070713 0.011664275
000240 bd 5e 76 3d 70 c6 8e 3d 51 dd 5b 3d de 06 e7 bb
       0.060148943 0.06971443 0.05367786 -0.007050379
000250 b5 06 26 bb 53 6d 65 bd d0 17 82 bd fc 90 dc 3d
       -0.0025333588 -0.056012463 -0.06352198 0.10769841
000260 52 7d 3a 3e 2d 09 aa bd 31 54 a2 bd 82 10 ce bd
       0.18211868 -0.083025314 -0.079262145 -0.10061742
000270 f8 c8 d3 bc 51 ff 62 bd e8 5a 8b 3d 59 20 b7 3d
       -0.025852665 -0.05541927 0.06804448 0.08941717
000280 a5 c7 91 3d 8c 1b 35 bd 78 fc fc bc cb 8d 8e 3c
       0.07118157 -0.044215724 -0.030882105 0.017401597
000290 0f 05 6e 3d c9 15 2c 3e 7f 8f e4 3c 3a 36 2e 3b
       0.058110293 0.16805185 0.027900456 0.0026582615
0002a0 c0 5f 1e 3c 6c 0c 0f bd 53 43 08 3d eb ce 09 be
       0.009666383 -0.034923956 0.03326733 -0.13457839
0002b0 ea c3 98 bc d9 ca d5 3d 14 25 6a bd cb 91 f2 3c
       -0.018648107 0.10439081 -0.057164267 0.029610535
0002c0 fb 63 e9 3d f8 e5 ec 3d 03 1a 18 3c 2a 9e b0 bc
       0.11396023 0.115673006 0.009283545 -0.021559794
0002d0 ef 17 61 3d f8 24 42 3d 25 89 62 bd 1f b6 a8 bd
       0.054954465 0.047398537 -0.055306572 -0.08237862
0002e0 5c df 08 bd bb f8 8f bd 7c 9c 87 bd 0c 00 ae 3c
       -0.033416137 -0.070298634 -0.06621644 0.021240257
0002f0 a4 bd ec 3c 0c 28 2c bd 65 3a 47 3c 3e 75 b8 bc
       0.028899021 -0.04203038 0.012159918 -0.022516843
000300 74 7b 7b bd f9 4e 37 3d b0 52 f9 3c a8 61 89 3d
       -0.06139703 0.04475305 0.030434936 0.067080796
000310 ce f9 26 3e c3 cf f1 3d 5e cc 4e 3d c3 56 b9 3d
       0.1630623 0.118072055 0.05048787 0.090497516
000320 c2 c7 56 3d 60 9b 50 bd 6b cb ed bc 5d a0 84 bb
       0.052436598 -0.050929427 -0.029027661 -0.004047437
000330 74 39 89 bd 2c 2f 27 bd 11 96 07 3c 3a 4e c2 bc
       -0.067004114 -0.04081647 0.008275525 -0.023718942
000340 73 79 7b bc db ba b3 bd ce 2b 08 3c f5 dd bf bd
       -0.01534878 -0.08775874 0.008311225 -0.09368507
000350 0e b5 48 bc 72 2e 52 3d 43 7c 09 3d d5 85 e4 3d
       -0.012250198 0.051313825 0.03356577 0.11158339
000360 9c 71 7d 3c c5 81 0b 3d 5c cf 54 ba 8a 16 11 3d
       0.015468981 0.034059305 -0.0008118057 0.035421886
000370 ef 91 bb 3c e5 eb 69 bc cc df 41 bd 6c c7 6f 3d
       0.022896735 -0.014277433 -0.04733257 0.058539793
000380 aa c4 40 3b 09 54 c8 3d 2e 88 31 3d 8f e6 88 3d
       0.0029414096 0.097816534 0.04334276 0.066846006
000390 88 6b b1 bc 49 05 ce bc 51 af 68 3c a1 5e 22 3d
       -0.02165772 -0.025149005 0.014201955 0.039641026
0003a0 18 36 80 bd f9 3f 2c 3d a8 6e 2a bc 0b 3b 1d 3e
       -0.062603176 0.042053197 -0.010402359 0.15354554
0003b0 1c 9a 75 bc 5c 25 c0 3d c0 a2 e7 bd 41 7f c5 3c
       -0.014990356 0.09382126 -0.11310339 0.024108531
0003c0 de 76 ff bd e1 ae 44 3d d1 7c b0 bc 5d eb 12 3d
       -0.12473844 0.04801834 -0.021543892 0.03586899
0003d0 61 8c b9 3d 35 b8 3a bd 88 6e 82 3d a4 ea 22 3b
       0.09059978 -0.04558583 0.063687384 0.0024859095
0003e0 0f d5 6f 3d 0f b4 d5 3d 89 da 0d 3d 64 d4 8d bd
       0.058552798 0.10434734 0.03463224 -0.06925276
0003f0 2e 55 e0 3d aa 8e b0 3d 07 1b bf 3c 41 29 a9 bd
       0.10953747 0.08620961 0.023328317 -0.08259822

gconv1.1.W.bias f4 [140]
000000 99 49 53 bd 7a fe 00 3d d0 c1 19 3d 9f 6e 94 3c
       -0.05158386 0.031492688 0.03753835 0.018119154
000010 e8 5b 93 3b 9e 31 68 bc 73 f5 96 3d e3 c3 a6 3d
       0.00449704 -0.014171986 0.073710345 0.08142831
000020 8d 73 90 3d 92 14 a0 bd 44 b6 60 3d 83 d4 82 3d
       0.070532896 -0.078164235 0.054861322 0.0638819
000030 0e c3 2c 3d 61 ed b2 bb c7 a4 80 bd 43 f9 4b bc
       0.042178206 -0.0054604267 -0.06281429 -0.012449565
000040 93 9b 30 bb af f3 93 bc e8 47 b9 3d 4b 51 9e bd
       -0.0026948198 -0.018060533 0.09046918 -0.07730349
000050 92 a1 b2 bd 5f 3c 6e 3d 4c da 27 3c 5a 35 92 3d
       -0.08722223 0.058163043 0.010244917 0.07139082
000060 49 22 86 3c 1a 57 02 bd 61 b9 82 3c 29 ab 30 bd
       0.01637377 -0.031821348 0.015957536 -0.04313198
000070 06 2a 91 bc b0 d1 c8 3b 68 01 99 3b ce a1 f1 bc
       -0.017720234 0.0061285123 0.004669357 -0.0294961
000080 c6 77 63 3c da 50 d8 bb 96 38 19 3d 7f 19 92 3d
       0.013883537 -0.006601435 0.03740748 0.07133769
000090 11 77 2c bd 38 bf 78 3d d9 08 98 3d 91 45 c4 3d
       -0.042105738 0.060729235 0.074235626 0.09583581
0000a0 02 ee 93 bc 6b 7f 96 bd 0c e8 2a 3d dd 79 35 3c
       -0.018057827 -0.07348522 0.041725203 0.011076418
0000b0 9b 9c 19 3c 99 ef 6d 39 2c b8 92 3c 29 72 5d 3d
       0.009375717 0.00022691338 0.017910086 0.05406395
0000c0 b6 a0 9a bd c8 9c 62 bd 73 c2 7a bd e0 a8 73 3c
       -0.075501844 -0.0553253 -0.061220597 0.014871806
0000d0 1b c4 e0 bd 3a bc 12 3b 4e 7d 74 3d 8a c8 05 3d
       -0.10974904 0.0022390024 0.059689812 0.032661952
0000e0 ba f8 ad bd ab 7a 13 bd 67 27 22 bd 69 f6 c1 bc
       -0.084947065 -0.036005657 -0.03958836 -0.023677068
0000f0 9c 22 54 3c 38 18 ba bd 0e c6 d2 bb b6 65 34 bd
       0.012947705 -0.090866506 -0.0064323014 -0.04404231
000100 da c9 24 bd 99 93 ca bd 0a cb 47 3c d5 4d 72 bd
       -0.040231563 -0.09891433 0.012194404 -0.059156258
000110 a4 8d 42 3c 69 1c 72 3d 93 9d 5a 3d cd 4b dd bd
       0.01187459 0.059109125 0.05337293 -0.108054735
000120 cb 7d 68 3d ef d6 c6 bd 8c fa 6a 3d d2 c7 b7 bc
       0.05676059 -0.09708964 0.057367846 -0.022434149
000130 d6 08 e8 bc 53 5c 4f 3d e3 d2 b7 bd 18 0e 3d 3d
       -0.028324526 0.050625157 -0.0897577 0.04615602
000140 91 97 e8 bd 92 3d 6a 3c 7c 4a 72 3d 64 ff 2f bd
       -0.11357034 0.014296906 0.059153065 -0.04296817
000150 ba 8c 39 bd 85 e7 75 3b 71 fd 9e bd eb 6d 2f bd
       -0.045300223 0.003752203 -0.07763184 -0.042829435
000160 3f bf 4f bd 22 08 79 3d 90 d3 ce 3d f6 1d 26 3d
       -0.050719496 0.06079877 0.10098946 0.040555917
000170 90 1e e8 bc a2 ea f8 ba 04 23 f0 3d 59 19 42 bd
       -0.028334886 -0.0018990824 0.11725429 -0.047387455
000180 b9 e6 14 3d 3b 8e 82 bd 3c 38 99 ba da ed 09 3d
       0.036352847 -0.063747846 -0.0011689733 0.0336741
000190 e8 49 ce 3c 88 30 88 3d 14 4a b2 bb 8a a0 a8 bd
       0.025181726 0.066498816 -0.0054409597 -0.082337454
0001a0 ea b7 af 3d fa 22 90 bc d7 0e 65 bd 36 42 47 bd
       0.08580001 -0.017594803 -0.055922356 -0.048647128
0001b0 63 b1 56 3c 34 ed de bc d6 05 5d 3d 90 21 78 bd
       0.013103816 -0.027212717 0.053960644 -0.060578883
0001c0 cf 60 aa 3d d6 a9 d6 bd cf e3 79 3c 9d 23 64 3d
       0.08319246 -0.104816124 0.015252068 0.055698026
0001d0 00 bc a6 3d 03 04 7d 3d 12 59 f7 3c 2f d9 8d bd
       0.08141327 0.061771404 0.03019384 -0.0692619
0001e0 4e a4 9b bc 1a 54 b3 bc 1f 5b 47 bd 42 49 2f bd
       -0.018999245 -0.021890689 -0.048670884 -0.042794473
0001f0 ee cf a5 3d 64 29 1d 3d 6d b7 36 bd 3f 52 16 3c
       0.080963 0.03836955 -0.044608522 0.009174882
000200 e6 79 92 3d 41 44 30 bd 7a f0 7f 3c c2 80 07 bd
       0.071521565 -0.043033842 0.015621299 -0.033081777
000210 af 7d a8 3c ae b2 19 bd 37 88 42 bd b7 32 a2 bd
       0.020567743 -0.037523918 -0.047493186 -0.07919829
000220 20 e8 f3 ba f8 50 66 bd 1a 99 4f 3d 4a 07 1b 3d
       -0.0018608607 -0.05622956 0.05068312 0.03784875
